models/mnist_neuron_embedding_64dim.pth (torch, 309399 bytes, 5 tensors)

biases.0 f4 [400]
000000 ab af 72 3e be 0d 08 be 49 4e 02 be 89 8f 9c bd
       0.23699825 -0.13286492 -0.12725176 -0.07644565
000010 cd 32 1e 3e d5 21 b6 bd 97 ba 45 bd 5b 0a ee bd
       0.15449066 -0.08893172 -0.04827365 -0.11623069
000020 06 28 68 be 38 bf 42 be 98 8e dd bd ae 16 3e be
       -0.22671518 -0.19018257 -0.10818213 -0.18563339
000030 a8 03 43 be a1 c0 58 bd e6 e9 d2 bd 31 f3 2c be
       -0.19044363 -0.05291808 -0.10298519 -0.16889645
000040 de 30 61 be f7 8c 43 bd 1f 3f 82 bd e5 a6 22 be
       -0.21991298 -0.047741856 -0.06359696 -0.15883978
000050 c1 7b 3b be 51 4a fb bd 2e 04 e3 bd 04 3c 5f bd
       -0.18308927 -0.12270034 -0.110847816 -0.054500595
000060 77 d1 e2 bd 1a 89 9f 3d 2e 24 9f bd cc f3 9e bd
       -0.110751085 0.07789822 -0.077705726 -0.07761344
000070 57 c0 4b ba 34 90 b3 bd 87 c0 ad be f4 8d 26 3d
       -0.00077724963 -0.08767739 -0.3393595 0.04066272
000080 3a bc 2d bd 65 ab 03 3e b4 68 a5 be d9 8b 93 be
       -0.042415835 0.1285835 -0.32306445 -0.28817633
000090 33 48 0b be 4b f3 ce bd f3 0c 01 3e f7 5f ca 3c
       -0.1360176 -0.10104998 0.12602596 0.024703963
0000a0 b0 cf c7 bc b7 8f 3b be 6a 54 0a be 8a 9c 7a bd
       -0.024391025 -0.18316542 -0.13508764 -0.061184444
0000b0 04 9b cf bd 08 a7 38 be 42 76 ce bb 65 ae c7 bc
       -0.10136989 -0.18032467 -0.0063007185 -0.02437515
0000c0 c3 ab 2c be 63 76 4b bd 09 b6 96 bd e8 69 c3 bd
       -0.16862397 -0.04967345 -0.07358939 -0.095416844
0000d0 85 9b e2 3e 49 cd 39 be ea b2 55 bd 51 65 46 bd
       0.44259277 -0.18144716 -0.05217258 -0.048436467
0000e0 c1 1f 48 bd a7 03 2f bd 11 54 09 be 77 85 2f be
       -0.048858408 -0.042728093 -0.13410975 -0.17140757
0000f0 8a f6 21 bd 1f e1 0a 3e 61 17 12 be 39 24 12 bc
       -0.03954176 0.1356244 -0.14266731 -0.008919769
000100 20 0c 8c be f8 66 84 be 1a e3 50 3d 09 87 9a 3e
       -0.27353 -0.2585981 0.05099783 0.3018115
000110 e2 9e 11 bd 85 a0 4b be a4 a9 99 3d 48 65 54 be
       -0.035551913 -0.19885452 0.075030595 -0.2074176
000120 92 c5 1d bc ed 8a 25 bd fb 2e 29 3d 2c 97 d7 bd
       -0.009629624 -0.040415693 0.04130457 -0.105268806
000130 a2 f4 b7 bc 08 3e 44 bd b9 e4 a3 3c 60 cc a4 3d
       -0.022455517 -0.04791072 0.020006524 0.08046794
000140 49 1c 07 3c 7a eb 3b bd b6 66 a0 bd 3a f3 81 bd
       0.00824649 -0.045878865 -0.078320906 -0.0634522
000150 38 e0 06 be 7d 4d 53 bd cf a6 b5 bc d3 0e 0a bc
       -0.1317147 -0.05158757 -0.022174267 -0.008426386
000160 a2 8f ad bd 6c d6 47 bd df e5 ab bd 21 b3 20 be
       -0.084746614 -0.048788473 -0.08393454 -0.15693332
000170 36 e5 6d be a0 d3 3f 3d ed 5f 53 bd fb 67 3a 3d
       -0.23231968 0.04683268 -0.051605154 0.04550932
000180 b6 9b 5e bd 07 ef 94 be a2 3e d5 bc f0 89 fb ba
       -0.054347716 -0.29088613 -0.026030842 -0.0019190889
000190 23 fb 07 be 5e 1b ad 3c 79 a6 02 bc a2 25 b9 bd
       -0.13279395 0.021131214 -0.0079742605 -0.09040381
0001a0 d6 45 80 bd b1 61 9c bd 7d 84 96 bd 15 ba dd bd
       -0.0626332 -0.07635821 -0.07349489 -0.10826508
0001b0 95 5a 74 be 8b cd 6d be bc 06 b3 bd b8 70 15 3e
       -0.2386268 -0.2322294 -0.08741519 0.1459378
0001c0 d4 78 26 be 1f 01 01 be 96 16 73 3d f7 20 a3 bd
       -0.1625703 -0.12598084 0.05934771 -0.07965272
0001d0 12 79 ea bc 4a e2 07 bd 37 fe bb 3a 37 8f 52 be
       -0.028622184 -0.03317479 0.001434273 -0.20562445
0001e0 88 5c a2 3d 98 5f 63 bd 6e 8a ac 3c a4 0f 15 3d
       0.07927805 -0.055511087 0.021062102 0.03639187
0001f0 8c 58 bc bc 4a 8f 45 be 28 0d 78 bd 48 6c 35 be
       -0.022991441 -0.19292942 -0.06055942 -0.17717087
000200 a9 b3 fd bc cf d2 50 be ed d2 f8 bd 2b e2 48 bd
       -0.030969458 -0.20392917 -0.12149606 -0.049043816
000210 80 1b bc bb b6 17 73 bc 76 d8 af be 78 b4 87 3c
       -0.005740583 -0.014837196 -0.34344834 0.016565546
000220 89 43 7d bd ed 01 63 3e 57 24 7a bd f0 81 ed 3d
       -0.061831985 0.22168703 -0.061069813 0.11597049
000230 2a 89 13 bc d9 d0 d2 3c 9c dd a6 3b ce 6b 32 bd
       -0.00900487 0.025734352 0.005092336 -0.04355984
000240 1a a6 14 bd 34 45 09 be ac 59 14 be 56 da 0b 3e
       -0.03629122 -0.13405305 -0.14487332 0.13657507
000250 b6 ad c2 bb 75 70 ae bd 78 a1 9c be 31 01 b5 bd
       -0.005941118 -0.08517543 -0.3059194 -0.08838118
000260 a4 a9 32 be 64 af cf bd d8 41 a6 bd 95 c2 4f be
       -0.17447525 -0.10140875 -0.081180274 -0.20289071
000270 33 67 04 3f 8f 51 92 bc 15 26 1a be e1 f2 39 bd
       0.5171997 -0.017861156 -0.1505359 -0.045397643
000280 35 1a 17 bd 38 fa 0d 3c 0f f9 55 be e1 23 6a be
       -0.036890227 0.008665614 -0.2089579 -0.22865249
000290 a8 44 e9 3a 66 ea 14 3d ea 79 72 bd 52 43 d8 bd
       0.001779695 0.036356352 -0.059198298 -0.10559715
0002a0 80 d4 9d bd 39 13 ce 3d fd 7a 2e bc 7b 4f 5e bd
       -0.07706547 0.1006226 -0.01064944 -0.054275017
0002b0 22 44 8f be 38 46 70 3e ab 38 f3 bd 06 13 68 bd
       -0.2798167 0.23464286 -0.11876043 -0.056658767
0002c0 0e 06 48 bd da 12 d1 bc 53 cf 31 bd 71 c8 d0 bc
       -0.0488339 -0.025521684 -0.04341061 -0.025486203
0002d0 72 c6 99 bd ff 20 80 be 3d 86 26 be 80 7a 90 bc
       -0.075085536 -0.25025174 -0.16262145 -0.017636538
0002e0 dc 89 0c bc 64 7a b1 bd 41 cf e2 bd ab 6d f1 bc
       -0.00857779 -0.08665922 -0.11074687 -0.02947124
0002f0 2f 10 10 bd 74 44 39 be 98 db b9 bd ad f1 61 bd
       -0.035171684 -0.18092519 -0.09075087 -0.05516212
000300 50 4a f1 3c 5a 92 88 bd c2 64 cc 3a 3f a0 9b be
       0.02945438 -0.06668539 0.0015593993 -0.30395696
000310 37 16 55 be 2e 9f 90 bc 22 d1 47 bd eb 68 d9 3c
       -0.20809256 -0.017654028 -0.04878343 0.026539287
000320 e7 9d a5 3d 78 72 58 3e 65 52 2d be 34 40 d0 bd
       0.08086758 0.21137416 -0.16925962 -0.10168496
000330 e3 30 d7 3c ca 22 a7 bd c5 1a 47 bc 5b 63 4b bd
       0.026268428 -0.08160932 -0.012152378 -0.0496553
000340 16 3c 2e be 95 56 88 bd cc e2 9c bd 30 02 14 bb
       -0.17015108 -0.06657139 -0.076604456 -0.0022584312
000350 ff 77 11 be 17 ca 02 be 7d d6 2a be b8 60 c4 bd
       -0.14205931 -0.12772404 -0.16683383 -0.0958876
000360 f7 7e cd bd a4 7b 03 3c c5 53 b5 be b3 f0 28 bd
       -0.10033982 0.008025084 -0.35415474 -0.041245174
000370 bb 14 22 be 00 04 f0 3c cb d2 25 be bd 5a 70 bd
       -0.1582822 0.029298782 -0.16193692 -0.058680285
000380 bc 75 e5 3d 84 ec a3 3b 5e 22 08 3e 3b 78 01 be
       0.11204097 0.00500256 0.1329436 -0.1264352
000390 ae ed 92 bd 0f 43 99 bd dd 8c 8d bd 6c b5 16 bd
       -0.0717424 -0.074834935 -0.06911633 -0.03679411
0003a0 c2 d7 6c bd b7 f4 5b 3e b1 90 8d bd dd 83 d3 bd
       -0.05782295 0.2148007 -0.06912363 -0.10327885
0003b0 a8 3b c8 3b 88 38 a4 bd 38 86 4c bb 5b a3 dd bd
       0.006110627 -0.08018595 -0.003120793 -0.10822173
0003c0 8f 5a 4c 3e 2b 0e c4 bc 9f 76 99 3e e4 a1 ba bd
       0.1995642 -0.023932537 0.29973313 -0.091129094
0003d0 6e a6 41 be 99 67 3e 3e 11 8c 85 bc e5 b5 e8 3c
       -0.18911144 0.18594207 -0.01630214 0.028407047
0003e0 60 69 78 be 57 12 ca bd 3b 87 0c be d5 74 4d 3d
       -0.24258947 -0.09866779 -0.13723461 0.050160248
0003f0 8e d0 a7 bd 9c 20 88 3d e3 2d 49 bd 4b ca 40 be
       -0.081940755 0.06646845 -0.049116027 -0.18827169

biases.1 f4 [10]
000000 0f c9 e1 bb 75 cd 8b bd 4a b6 30 3d 59 53 aa 3d
       -0.006890423 -0.06826297 0.043142594 0.083166786
000010 c6 94 41 3b 4d a7 00 3c 11 bb 76 bc cd a3 cc bd
       0.0029538139 0.007852388 -0.015059249 -0.0999218
000020 c8 52 0f 3e 5a bc b8 bc
       0.13996422 -0.02255075

embs.0.weight f4 [784, 64]
000000 4f 76 a5 3f 9f 52 31 3f 6f 7d 8c bf 5d 68 25 3f
       1.292673 0.69266695 -1.0975779 0.6461237
000010 fe 42 6c 3f cc c8 89 3f 6c 5a 0e bf 6b 47 17 3f
       0.9228972 1.0764403 -0.5560672 0.5909335
000020 2d 57 36 bf c0 d3 af 3f d5 25 2b bf ce c2 b7 be
       -0.7122677 1.3736496 -0.668546 -0.35890812
000030 b6 51 57 bf c3 cf 9e 3f b8 c9 85 bd 8a 9d 02 bf
       -0.84109056 1.2407154 -0.065326154 -0.51021636
000040 65 61 7f bf 32 69 be bf 38 9c 9c 3e b9 7e 09 3f
       -0.9975799 -1.4875853 0.30587935 0.5370899
000050 b4 5d 7c bf db 6e 0c bf 80 6b 05 3e 9a f3 9f 3f
       -0.9858048 -0.5485665 0.13029289 1.2496216
000060 a3 4f 11 3f f3 4c 2c 3f 05 20 a5 3e 32 24 f0 bf
       0.5676214 0.67304915 0.3225099 -1.8761046
000070 05 21 03 bf 5a 89 8d be bb 80 0b 40 99 3b e2 bf
       -0.5122226 -0.27643853 2.179732 -1.7674438
000080 7a e6 80 3f 2c ca b5 bd f7 ef 6a 3f 45 24 7f 3e
       1.0070336 -0.08876452 0.9177241 0.2491618
000090 af 5d 7e 3e 53 ca a8 bf bd 04 2d 3b 27 d2 0e bf
       0.24840425 -1.3186744 0.002640053 -0.5578942
0000a0 a2 dc 91 3f f5 fd 9f 3e 88 43 12 3f b1 34 46 3f
       1.1395457 0.3124844 0.57134295 0.7742415
0000b0 4b ca 30 3f 6f e1 fd 3e 3e 5a 2e bf ea 09 eb be
       0.69058675 0.49586055 -0.6810645 -0.45906
0000c0 fd 2a 55 3e 98 12 26 be 9e f0 9d 3f 7f 95 b5 3e
       0.2081718 -0.1621803 1.2339056 0.3546562
0000d0 0b 49 0f c0 be 85 18 3f fb 0d b5 3f 4c f2 bc 3f
       -2.2388332 0.59579074 1.4144892 1.4761443
0000e0 46 b6 bf 3f f8 68 63 3e d6 ac 47 3e eb 59 e8 3d
       1.49775 0.22208011 0.19499525 0.113452755
0000f0 63 a0 a8 3e 4b c8 70 3f a4 00 81 3f 3e 1c d8 3f
       0.32934865 0.9405562 1.007832 1.6883619
000100 85 97 91 3f 31 8a aa 3f af 7b 83 bf 89 9e 9b bf
       1.1374365 1.3323423 -1.027212 -1.2157756
000110 96 c2 0e bf 9f 9f a9 3f a0 d3 48 bc 10 df 22 bf
       -0.55765665 1.3251837 -0.012257487 -0.63621616
000120 a2 7f cb 3b c4 b2 78 3e d7 d9 33 3c 64 54 53 bf
       0.0062102834 0.24286944 0.01097723 -0.82550645
000130 ec bb 30 3f b9 db d4 bd 7a 12 26 bf f3 f8 05 40
       0.69036746 -0.10393471 -0.64871943 2.0933197
000140 62 26 09 bf 82 24 9f 3f 90 8b 04 40 a4 b3 0b bf
       -0.5357419 1.2433016 2.0710182 -0.54570985
000150 73 43 8b bf 22 e1 aa bf 2f 26 26 3e 75 46 82 be
       -1.0879959 -1.3349955 0.16225503 -0.2544438
000160 3c 0e 98 bd 7c 28 b1 3e 40 b2 ba bf 34 9e 6d be
       -0.0742459 0.346012 -1.4585648 -0.23204881
000170 dd f3 03 bf c8 0f af 3d ad 26 7f be d6 77 3d bf
       -0.5154398 0.08547932 -0.24917097 -0.7401098
000180 8e 44 0c 3f 91 50 bb be 19 12 01 3f 1c 5a 5e bf
       0.54792106 -0.36584905 0.5041824 -0.86856246
000190 0b ce 51 3f 71 8b af bd 56 96 9a 3f f7 75 0e 40
       0.8195502 -0.08571518 1.2077129 2.22595
0001a0 63 f2 b5 3c 25 eb 9f 3f 35 e8 20 bf ef 49 af be
       0.022210306 1.2493635 -0.6285432 -0.34236094
0001b0 94 af 23 3f a8 f7 a0 be 21 65 8a 3f a7 48 89 bf
       0.63939786 -0.31438947 1.0812112 -1.0725297
0001c0 29 ba 23 bf 67 ec 8f 3f e7 ab 05 be 5a c3 dd be
       -0.6395593 1.1244019 -0.13053857 -0.43313104
0001d0 02 88 88 bf 58 50 b6 3e a1 bd 12 bf 24 26 b4 3f
       -1.0666506 0.35608172 -0.573206 1.407414
0001e0 88 01 da bf 08 71 d5 be d8 0e 09 be 54 16 04 c0
       -1.7031717 -0.41687799 -0.13384569 -2.0638628
0001f0 da 52 97 bf 4c f6 67 bf ef d5 58 bf c0 f6 96 bf
       -1.1822159 -0.90610194 -0.84701437 -1.1794052
000200 67 6d b1 bd c6 9c e6 be af 6e 94 bf d2 d5 89 be
       -0.08663445 -0.45041484 -1.1596278 -0.26920944
000210 61 5d 63 bf 22 cd 5b bd 10 2a e4 bd 06 60 74 3f
       -0.8881436 -0.053662427 -0.11140835 0.9545902
000220 29 8a 50 bf 99 1b 25 40 06 62 dd 3f f0 7d af bf
       -0.81460816 2.5798094 1.7295539 -1.3710308
000230 7a b7 da 3f 06 88 57 3e 66 bb 9d bd 73 93 48 3f
       1.7087243 0.21047983 -0.07701759 0.7834999
000240 2d 55 51 3f 55 f5 d8 3f 4c ac ef be 70 16 f6 be
       0.8177059 1.6949869 -0.4681114 -0.48063993
000250 45 1c eb 3f 01 51 c8 3f a8 56 d1 3e 00 a8 05 be
       1.8368002 1.564972 0.40886426 -0.13052368
000260 03 aa d8 be 5b f4 b4 3e 04 77 33 bf 8f 60 88 3d
       -0.4231721 0.35342678 -0.7010348 0.06659042
000270 5a b8 1c bf 39 93 60 3e e0 ac 3b bf b5 77 ca 3f
       -0.612188 0.21931161 -0.7331066 1.5817782
000280 6e 16 b4 3f 3f fb 54 be 16 ce ec bf d4 05 6f 3e
       1.4069345 -0.20798968 -1.8500392 0.23342067
000290 4d 8c 35 3e d6 4b 8f bf d5 32 1f be d6 78 01 3f
       0.17729302 -1.1195018 -0.15546735 0.50575006
0002a0 b6 6e 60 bf 60 a8 03 3f a1 93 d7 3d fb ab a9 3f
       -0.8766893 0.51428795 0.10526205 1.3255609
0002b0 b3 79 0b 3e e8 1d d8 be 81 b6 be bf dc 10 f1 be
       0.13620643 -0.42210317 -1.4899446 -0.47083175
0002c0 c3 4f b7 bf 75 9f 2c bf d5 02 3a 3e 66 ce bf 3e
       -1.4321216 -0.6743081 0.18165143 0.37462157
0002d0 dc 0e 05 bf a0 41 b2 bd fe 99 94 bf 2e bd 35 3d
       -0.519758 -0.08703923 -1.1609495 0.04436987
0002e0 1d 1c 3e be d3 96 01 bf 4e 34 73 bd ef b9 5e 3f
       -0.18565412 -0.50620764 -0.059376054 0.8700246
0002f0 31 96 8b 3f 85 a0 ad bd a3 02 01 bf 07 3e ea bf
       1.090521 -0.08477882 -0.5039465 -1.8300179
000300 69 db 8e bf dc ed 87 3f 2e 94 f8 bc a6 d9 ac 3f
       -1.1160709 1.0619464 -0.030344095 1.3503921
000310 37 43 11 40 fa 94 2f bf 54 7f 52 3e 35 99 4a be
       2.2697275 -0.68586695 0.20556384 -0.19785006
000320 2d ba c6 3f d9 9f 7b 3f 5d 63 5c 3f 7f 2b 78 bf
       1.5525566 0.98290783 0.86089116 -0.9694137
000330 98 48 e5 3d c6 2f 00 be 31 c4 51 3d 39 09 82 bd
       0.11195487 -0.12518224 0.051212493 -0.06349415
000340 4f f9 43 bf 78 7c 3e be 2f 99 18 be 38 f5 f3 3f
       -0.7655229 -0.18602169 -0.14902185 1.905921
000350 36 bd 76 bf 2d 55 ea be d4 b4 0b c0 d0 1a 29 3c
       -0.9638246 -0.4576811 -2.1829119 0.010321334
000360 90 8e 3e 3f a1 33 9b be 81 ee 02 40 30 16 f2 be
       0.74436283 -0.30312827 2.0458071 -0.47282553
000370 69 55 de 3f 19 28 b7 3f 3d 45 c5 be 85 a8 37 bf
       1.7369815 1.4309112 -0.38529387 -0.71741515
000380 5d 2f 35 bf 80 1d 98 bf 92 dc 10 40 27 c0 c4 bf
       -0.70775396 -1.1884003 2.2634625 -1.537114
000390 0a af 29 3f 9b 58 c6 3f db 91 96 3f cb dd 63 bf
       0.66282713 1.549579 1.1763262 -0.89010304
0003a0 1a bf d4 bf e3 3a c2 3f 9d 47 be 3f 2f dd 24 bf
       -1.662082 1.5174221 1.4865605 -0.644
0003b0 cb fa 87 be aa a9 87 bf 2a 3e 60 bf 6e 5c 40 bf
       -0.26558527 -1.0598652 -0.87594855 -0.75141037
0003c0 37 a6 e2 3e 2d a4 8e bf 22 a7 b4 3f 0f d5 ea 3e
       0.44267437 -1.1143852 1.4113505 0.45865676
0003d0 da 0c e3 3e 27 7d 8a bf af 53 84 3d ba 96 12 bf
       0.44345742 -1.0819443 0.06461274 -0.5726124
0003e0 ab ae 13 3f 9d c5 21 3f e9 7a 01 bf e5 72 8e bd
       0.576884 0.6319216 -0.5057817 -0.06955508
0003f0 55 54 7b bf 0e 26 e7 bf 44 9c 0a 3f 9a b4 c7 3e
       -0.98175555 -1.8058488 0.5414469 0.39004976

embs.1.weight f4 [400, 64]
000000 26 b0 af bf b6 3a 0b 3f f3 78 51 40 07 4b 04 3f
       -1.3725631 0.5438646 3.2730072 0.5167698
000010 08 72 0b c0 41 0a b2 3f a7 8f d7 be 92 cf ff 3e
       -2.178835 1.3909379 -0.42101786 0.4996305
000020 bb e2 e8 bd 49 82 0f 3f 51 44 64 40 01 0a c5 be
       -0.113713704 0.56058174 3.5666697 -0.38484195
000030 50 34 aa 3f 87 43 d9 bf 60 bb ca 3f 26 f0 56 40
       1.3297215 -1.6973733 1.5838432 3.3584075
000040 3d 0a f5 3f a1 2c b1 bf dd a7 07 c0 2f cd fe 3f
       1.914375 -1.3841745 -2.1196206 1.9906367
000050 2d bd b6 bf 45 f2 b1 3f 36 a4 ac 3e bc 2c a9 bf
       -1.4276482 1.390206 0.33719033 -1.3216777
000060 e9 50 7b be 6a 69 12 be 22 2e 2c be 34 7c a4 be
       -0.24542584 -0.14298025 -0.16814473 -0.3212601
000070 f8 4e c5 3f 48 5c 8b bd 6c 76 cc 3f 01 3f a7 bf
       1.5414724 -0.068047106 1.597364 -1.3066102
000080 87 12 43 3f 09 44 92 3f 32 7b b6 3f 2c a2 2f 40
       0.76200145 1.1427013 1.4256346 2.7442732
000090 55 ba 65 c0 b5 b9 53 40 1c 85 db 3e 42 c5 ea be
       -3.5894978 3.3082097 0.42874992 -0.4585362
0000a0 cd cb ef be 66 13 63 3e f9 84 01 40 03 95 a7 3f
       -0.46835175 0.22175369 2.023741 1.309235
0000b0 52 e1 9e bd d2 9e 1d c0 df fb 62 be a6 cb 62 bf
       -0.0775782 -2.4628186 -0.22166394 -0.8859199
0000c0 a6 3d 19 c0 9c 5d 37 3f 3a fc 46 be ca 5c ce be
       -2.3943877 0.7162721 -0.19432154 -0.40305167
0000d0 14 1d a6 bd d7 68 c9 bf e1 3d 0a 40 54 27 9a 3f
       -0.08111015 -1.573512 2.1600268 1.2043252
0000e0 f1 2b e3 bf 84 e1 de bf 02 53 32 3f e4 b5 8f 3f
       -1.7747785 -1.7412572 0.6965791 1.1227384
0000f0 e2 66 9c bf 47 75 6a 3f 9b 64 4e 3f 03 89 c0 bf
       -1.2218897 0.915852 0.8062226 -1.5041813
000100 2c 79 68 bf b8 07 14 40 2c d2 95 3e 55 dc d4 bc
       -0.90809894 2.312971 0.2926191 -0.025983969
000110 6c 61 39 bf 1e ac 0f bf 5b 83 c0 3f 90 02 2f c0
       -0.7241428 -0.56122005 1.5040087 -2.7345314
000120 04 6a 4b 40 5c c9 12 3f b8 33 6d bf 97 3d 1c 3f
       3.1783457 0.573385 -0.9265704 0.6103148
000130 a7 ea 1c 40 1b 09 a4 3e 42 92 e1 be f4 c5 f5 bf
       2.451822 0.32038197 -0.44056898 -1.9201035
000140 1a 00 a6 bf a6 f7 d8 3f 7f 05 14 bf 16 48 46 bf
       -1.2968781 1.6950576 -0.57820886 -0.77453744
000150 ae b4 e8 be e6 0a ab 3e 1d 63 14 c0 26 5f cf be
       -0.45450348 0.33406752 -2.3185494 -0.4050228
000160 96 08 37 c0 c6 09 94 bf b6 89 d1 3f 8d 42 0d be
       -2.859899 -1.1565483 1.6370151 -0.13794918
000170 c4 3a 8c bf 47 13 4c 3f 8f e9 db be 70 fb e1 bf
       -1.0955434 0.79716915 -0.4295163 -1.7654858
000180 2c d5 cb 3e fe 70 a6 be e1 25 31 3f 45 7b 92 3f
       0.39811075 -0.3250808 0.69198424 1.1443869
000190 a9 2c 93 bf a7 d8 e0 3e 30 7e fb bf 00 84 b7 bf
       -1.1498004 0.43915293 -1.9647884 -1.4337158
0001a0 39 e9 67 c0 4e 58 ad 3e 18 af 81 3f b6 dd a3 bf
       -3.6236098 0.33856434 1.0131559 -1.2802036
0001b0 0e 5f 28 3f f9 6a 67 40 d4 73 b3 bf 95 b6 8c bf
       0.6577004 3.615904 -1.4019723 -1.099322
0001c0 51 f9 19 bf 65 27 9d 3e 45 a5 02 c0 bd 87 31 c0
       -0.6014605 0.30694118 -2.0413373 -2.7739098
0001d0 a9 9e c6 3f ae 34 6c bf 19 75 2f c0 0c 9c 30 bf
       1.5517169 -0.9226788 -2.741522 -0.6898811
0001e0 4c 93 e0 bf 45 16 9f 3e 62 b1 13 bf 99 d8 fa 3e
       -1.7544951 0.31071678 -0.5769254 0.48993376
0001f0 f3 64 46 bf a0 48 15 3f 69 ab 11 c0 c9 38 f5 3f
       -0.77497786 0.5831394 -2.276087 1.9157954
000200 f0 56 ec 3f 58 a6 a7 bf 10 c5 ed bf f1 d8 a1 3e
       1.8464031 -1.3097639 -1.8575764 0.31610826
000210 33 ea 28 bf 26 34 39 bf b7 c8 ca 3e 32 be e6 3d
       -0.6598236 -0.723452 0.39606258 0.112667456
000220 2a 9d 81 3f 57 4c 00 40 3a 7d ad be 42 c2 1a bf
       1.0126088 2.0046594 -0.33884603 -0.60452664
000230 ce 9f 70 bf 6c ea 17 3e 23 58 03 3f d7 08 24 be
       -0.9399384 0.14835519 0.5130636 -0.16018997
000240 28 f6 2f bf 34 7f 9f 3c e6 82 fc 3e fd 06 ce be
       -0.6873498 0.019469835 0.49318618 -0.40239707
000250 aa 74 16 be 48 19 69 bf a4 a5 08 bf 8f a2 3e 3e
       -0.14692941 -0.910542 -0.5337775 0.18616699
000260 24 fd 5a bf c4 3f f2 3d 4a e1 9f 3f dd 00 14 be
       -0.8554251 0.118285686 1.2490628 -0.14453454
000270 79 aa a8 bf 13 f8 c5 bc 3e 52 91 3c d5 58 51 3f
       -1.3177024 -0.024166143 0.017739411 0.8177617
000280 3d 67 73 bd 65 65 e3 bd 2b 5c fc bf 78 53 8a bf
       -0.059424628 -0.11103324 -1.9715627 -1.0806723
000290 f2 08 18 bf 64 46 42 3f 91 3e b1 be b1 71 05 c0
       -0.5938865 0.7588866 -0.34618047 -2.0850642
0002a0 d7 85 2d 3f ec 80 21 3f 68 19 11 c0 74 9a ba bf
       0.6778235 0.63087344 -2.2671757 -1.4578385
0002b0 66 70 35 40 59 dd fe 3c fb a9 45 3e fc 14 c5 3f
       2.8349853 0.031111406 0.19303124 1.5397029
0002c0 34 04 9e bf 41 de f4 3e 58 cd 2b bf f5 83 b9 3f
       -1.2345033 0.47825816 -0.67110205 1.4493395
0002d0 64 b1 7f bd 1d e8 00 3e c1 1f bf bf aa df c0 bf
       -0.062425032 0.12588544 -1.4931566 -1.5068257
0002e0 78 b4 c9 bf 08 b2 9d 3f f7 c7 24 bf 40 76 d1 be
       -1.57582 1.2319956 -0.6436762 -0.4091053
0002f0 92 98 04 40 a4 82 4b 3e f7 e9 b8 bf 6f 56 93 bf
       2.0718122 0.19874054 -1.44464 -1.1510752
000300 1e ce 25 40 4d 03 ce be 6d 35 1e 3f 76 21 ef bb
       2.5907054 -0.40236893 0.6180027 -0.00729769
000310 d8 6c 7d bf c5 ac 14 bf 39 99 97 3f 59 15 81 bf
       -0.9899421 -0.58076125 1.1843635 -1.008464
000320 6a 73 ea bf 0e 9e 1c bf f3 b3 6d bf 48 a2 a6 3f
       -1.8316472 -0.6117867 -0.92852706 1.3018274
000330 00 06 be 3f d7 25 46 3f cd 45 68 3f cb a9 c1 be
       1.4845581 0.7740149 0.9073151 -0.37824854
000340 ad a0 54 3f 0f dd be be c4 fd b7 bf 7b 5f ab bf
       0.8305767 -0.3727803 -1.4374318 -1.3388513
000350 33 dd b3 bf 45 9f 99 bf 61 4d 8b 3e 8d 73 51 be
       -1.405188 -1.200173 0.27207473 -0.20454235
000360 32 96 44 3f ed 40 c9 3f ee 2d 2d 3f 0a 2a 84 bf
       0.7679168 1.5722939 0.6764821 -1.0325329
000370 26 5c 1a c0 4f 55 16 3f ff e5 a4 3e 94 55 7c bf
       -2.4118743 0.5872392 0.32206723 -0.9856808
000380 c0 d7 7d 3f f4 09 04 3f 72 e6 dc 3f 0e 8b e1 3e
       0.99157333 0.5157769 1.7257826 0.44051403
000390 36 15 3a bf dd 01 36 3d 57 3a 8c 3f d2 8a 14 3b
       -0.72688615 0.04443537 1.0955304 0.0022665751
0003a0 0b bb db be ab 56 84 3f b2 9e 34 bd 65 96 32 c0
       -0.4291614 1.0338949 -0.044096656 -2.7904294
0003b0 2c fc 11 40 7d 87 e0 be 19 71 3d be e8 ae cf be
       2.2810163 -0.4385337 -0.18500175 -0.4056313
0003c0 14 b8 ca 3f b2 68 39 be 10 67 84 bf 93 5c 74 3f
       1.5837426 -0.18106344 -1.0343952 0.9545376
0003d0 c8 fe 51 be 7f 18 e6 3e cf a1 cc bf 4a 4f 78 be
       -0.20507348 0.44940564 -1.598688 -0.24248996
0003e0 f9 7a 87 bf 09 07 95 3e b1 12 45 3e 9e 5e e9 3e
       -1.0584403 0.2910693 0.19245411 0.4558
0003f0 6f 58 c0 3f 52 0f 9c be 82 bd d8 bf 78 49 42 3f
       1.5026988 -0.30480438 -1.6932833 0.75893354

embs.2.weight f4 [10, 64]
000000 67 71 8a 3e 4c d2 11 c0 d7 91 68 bf cc 41 01 3f
       0.27039644 -2.2784605 -0.90847534 0.50491023
000010 d1 c5 57 c0 45 87 02 bf 6b a8 39 bd 82 67 a2 3f
       -3.3714488 -0.50987655 -0.04532663 1.2687838
000020 05 cb 8b bf 0d 75 58 3f 3c 73 69 bf c8 d7 97 bf
       -1.0921332 0.84553605 -0.9119146 -1.1862726
000030 be 22 5c 3f 63 35 26 3f 2a 52 0a 3f 28 3b 72 be
       0.8599051 0.6492521 0.5403162 -0.23655379
000040 56 be 6b 3f 8d 84 21 c0 10 65 59 3f ef cf 8f be
       0.92087305 -2.5237153 0.84919834 -0.28088328
000050 94 a0 0b 40 79 0d 38 bf 6f 47 9f 3d 96 4f 8f bf
       2.181676 -0.7189556 0.07777297 -1.1196163
000060 5a 97 8a 3e 8c 92 f7 bf 76 d2 30 bf 2c cb 1a 3f
       0.27068597 -1.9341598 -0.6907114 0.60466266
000070 c0 4b e2 be 49 b8 32 bf d6 d5 98 bf 41 46 fd 3b
       -0.44198418 -0.69812447 -1.1940258 0.007729322
000080 6e ce fd bd 43 eb ef bf 54 42 4e 3f 4d 56 7e 3d
       -0.12392889 -1.8743671 0.8056996 0.06209402
000090 c2 46 44 3f 96 e1 00 bf e8 bb 16 bf 7f 8a 36 3f
       0.7667047 -0.50344217 -0.5888047 0.7130508
0000a0 41 7f e5 3f 4b 8b b2 be 00 7e c7 3e a6 f4 59 bf
       1.792946 -0.34871897 0.38963318 -0.8513893
0000b0 fd 65 89 bf 7a e4 80 3f fd 19 6d 3e 5b d4 80 bf
       -1.0734249 1.0069726 0.23154445 -1.0064806
0000c0 32 25 da 3d 82 08 9e 3f db b6 b7 3e 77 de d1 3e
       0.10651626 1.2346346 0.35881695 0.4099004
0000d0 a7 6c 36 40 e9 e8 e2 3d a4 a5 0a 3f 0d d9 27 bf
       2.8503816 0.1107958 0.54159 -0.6556557
0000e0 ac 83 08 bf c6 22 77 be ec 8d 2f bf 73 78 28 be
       -0.53325915 -0.24134359 -0.6857593 -0.16452198
0000f0 8d f0 be be 53 41 92 bf 8d 2a 45 c0 24 b0 8f bf
       -0.372929 -1.1426185 -3.080722 -1.1225629
000100 21 a5 d3 3f 78 ac a8 3e 2a 1a 8c bf 0c 6c e7 3e
       1.6534768 0.32944083 -1.0945485 0.4519962
000110 ba 94 13 3f f2 e2 25 3f d4 a1 12 c0 90 31 fc bf
       0.57648814 0.64799416 -2.2911272 -1.9702625
000120 f7 f1 db bd c1 44 00 c0 9c 7b 56 bf 8f 7c ff be
       -0.107395105 -2.0041964 -0.8378236 -0.49899718
000130 5e f3 f5 3e 79 cf 0d 3f 6c 86 b6 3e 54 f6 00 c0
       0.48037237 0.55394703 0.3564943 -2.0150347
000140 38 c7 c9 be 9f ae 8d bf 28 ab 33 3f 51 93 c6 3e
       -0.39409804 -1.1068915 0.7018304 0.38784268
000150 a1 61 86 bc 65 01 a4 3e 5b 4d da 3f 78 56 3c bf
       -0.016403975 0.32032314 1.7054857 -0.7356944
000160 98 ed 55 bf b6 9c 0b 3f e1 9e 56 bf bb a0 7d bf
       -0.83565664 0.54535997 -0.8383618 -0.9907338
000170 be 45 02 40 af 4f 24 40 a6 ab b0 bf ef f2 31 3e
       2.0355067 2.5673635 -1.3802383 0.17377828
000180 7e 18 6d 3f 8d 7c 91 bf 5b 21 8d be c7 bb 9e bf
       0.926155 -1.1366135 -0.2756451 -1.2401055
000190 3c 3d 4c 3f f5 0f 3c 3e 13 47 c0 bf 1f a5 28 3e
       0.79780936 0.18365462 -1.502169 0.16469239
0001a0 2d 31 07 bf a4 f0 bc 3f 3f 77 0e bf ee 83 90 3f
       -0.5280941 1.4760938 -0.55650705 1.1290262
0001b0 0d 6c a8 3f 67 6d 5b 3f bd f7 e6 bf 9a ac 3e bf
       1.3157974 0.8571381 -1.8044354 -0.7448212
0001c0 f4 95 94 bf fb 91 ba bd 38 ff 7f bf ca 37 c2 bf
       -1.1608262 -0.09109875 -0.9999881 -1.5173275
0001d0 83 a3 0f 3e 10 3d c7 3f 89 04 1e 3e 2c e6 92 3d
       0.14027219 1.556551 0.15431418 0.07172808
0001e0 58 b8 c8 bf 1b 52 1b 3e 2d ce 9c be e7 85 1b 3f
       -1.5681257 0.1516804 -0.3062605 0.60751194
0001f0 d4 ef da be 5d 46 6d bf 0a 4f 20 bf 4b d0 72 bf
       -0.427611 -0.9268549 -0.62620604 -0.9484908
000200 96 fb 23 3f a4 b9 2e be f5 22 f4 be b8 22 8a 3f
       0.64055765 -0.17063004 -0.4768292 1.0791845
000210 08 2c ab bf d3 ca a3 3f 9b dd d1 3f 41 f2 a9 bf
       -1.3372812 1.2796272 1.6395754 -1.3277055
000220 23 88 12 bd 00 e1 00 3f 92 95 e9 bd 92 60 f8 be
       -0.03577436 0.5034332 -0.114054814 -0.48511177
000230 18 87 cf bf ab df be 3f cf 2f a3 3e 97 cb dc bf
       -1.6213102 1.4912008 0.31872413 -1.7249631
000240 ba 14 a7 bf ce ed da be 7d c2 da bf e7 51 5b 3d
       -1.30532 -0.42759556 -1.7090603 0.053544905
000250 d8 d9 83 3f bc d4 09 3f 2b 81 77 be 98 9e c0 be
       1.0300856 0.5384023 -0.24170367 -0.37620997
000260 d1 0d 77 be 1e 9d 31 bf be c3 0f 40 8c 7d dd 3f
       -0.24126364 -0.69380367 2.2463222 1.7303939
000270 77 15 bf 3f 84 dd 08 3f ba be 3f bf 7c 25 c3 3f
       1.4928426 0.53463006 -0.749004 1.5245814
000280 32 4d 3b 3f 98 08 0b bf 42 04 56 bf 03 84 15 bf
       0.73164666 -0.5430999 -0.83600247 -0.5840456
000290 ff 7b 8d be 7d 3a 9d 3f 5a a5 ce 3f bd c8 fa 3e
       -0.27633664 1.2283474 1.6144211 0.48981276
0002a0 e6 f1 9b bf 8b 70 27 3f bb 41 cb bf 4d 9d 79 3e
       -1.2183197 0.654061 -1.5879434 0.24376412
0002b0 e3 9d 1e 3f 34 a0 cd be f8 3a d7 bf ca 74 0a bf
       0.61959666 -0.40161288 -1.6814871 -0.54084456
0002c0 d9 ce ca 3f 45 93 06 3f ef 36 82 3f 7a 4f bb bf
       1.5844375 0.52568465 1.0173014 -1.4633629
0002d0 f4 f8 c7 3f 68 22 a2 be c8 1d 89 be 6e 67 e1 bd
       1.562285 -0.31666875 -0.26780534 -0.11006056
0002e0 a0 b6 e4 bf 97 21 af be 3b 90 a4 bf 8a 9d 9c 3b
       -1.7868233 -0.34205315 -1.2856516 0.0047795223
0002f0 6b 6e a6 bf ed 96 e8 3e 34 12 cc bf 6c 46 96 bc
       -1.3002447 0.45427647 -1.5943055 -0.018344127
000300 11 e1 27 bf ce 83 4b 3f 1a 85 78 bf 15 cd 85 bf
       -0.655778 0.79497993 -0.97078097 -1.0453211
000310 0a 92 c2 3e b0 09 7e 3f 0b 54 79 3e e6 ea 6a bf
       0.38002044 0.9923353 0.24348466 -0.91764677
000320 9b 6d 26 3f 0d e5 44 bf 81 8b 51 3e 61 a3 9c 3f
       0.65010995 -0.76912004 0.20463373 1.2237359
000330 9a c8 2d 40 76 29 98 bf 1e e3 5b be bc ae 65 be
       2.7153687 -1.1887653 -0.21473357 -0.22429937
000340 c9 5e e4 bf 54 93 3d 3e 2b 36 85 3f f7 08 f5 bf
       -1.7841426 0.18513232 1.0407156 -1.9143361
000350 2b 86 bb bf f6 9e 6f 3e 0c 50 9a be da e7 34 bf
       -1.465032 0.23400483 -0.30139196 -0.7066628
000360 9c ff 2f bf e7 9a 87 3f c4 6e ce 3f cf f7 a2 3f
       -0.68749404 1.0594147 1.6127553 1.2731875
000370 86 fb 9f bf 18 d5 cd bd cb 77 d1 3e b6 80 a4 3e
       -1.2498634 -0.1005041 0.40911707 0.3212945
000380 6e 61 80 3f 95 2a a1 be 2c 45 2b bd 1f 32 95 be
       1.0029733 -0.314778 -0.041814014 -0.29139802
000390 d7 7e c0 3e f6 69 38 bf 68 8a 24 3f 2a 60 df 3e
       0.3759677 -0.72036684 0.6427369 0.43628055
0003a0 25 62 a7 bf 74 ae 1e 3f e2 a9 8b bf 6c 33 6f bf
       -1.3076826 0.61984944 -1.0911219 -0.9343784
0003b0 33 26 27 be d4 1d ee 3f 33 ed a2 be a0 ce d1 be
       -0.16323166 1.8602853 -0.31821594 -0.40977955
0003c0 00 be 69 bf f9 c6 33 c0 4e 3e 06 3e b8 8c e5 be
       -0.9130554 -2.8090193 0.13109705 -0.44833922
0003d0 5d 57 da 3f ba 34 84 3f 07 1e 6e 3e 5b 68 37 3f
       1.7057911 1.0328591 0.23253642 0.7164361
0003e0 5b f2 6a 3f 5f e8 2c 40 a0 97 5c 3e a2 40 2d bf
       0.91776055 2.7016828 0.21542215 -0.67676747
0003f0 61 6a 49 3f ee db 8b bd b5 78 dd be 00 f4 69 3f
       0.78677946 -0.06829058 -0.43256155 0.9138794
