models/mnist_conv_embedding_32dim.pth (torch, 56511 bytes, 10 tensors)

conv_biases.0 f4 [5]
000000 31 60 37 bf 43 24 34 bf 78 1b 3d 3f f5 20 e4 be
       -0.7163115 -0.7036783 0.7387004 -0.44556394
000010 08 c2 26 bf
       -0.6513982

conv_biases.1 f4 [10]
000000 9c 3b 66 be 31 80 b5 3a 90 7a 21 3e 66 7b 25 3e
       -0.22483677 0.0013847408 0.1576941 0.16160354
000010 6d 0e b2 3e ee 86 1d 3e c3 c3 8d be 85 0b 2e 3e
       0.3477663 0.15383503 -0.27688417 0.16996582
000020 c1 55 b9 3e d4 a5 4f 3e
       0.36198238 0.20278102

lin_biases.0 f4 [10]
000000 0d a1 64 3d 34 ed d1 3d 27 d6 6d 3c 50 f6 74 bb
       0.055817652 0.10250321 0.01451639 -0.003737826
000010 97 a6 6d 3d 60 07 e8 bb b1 32 3f 3c e9 4d 87 3d
       0.0580202 -0.0070809573 0.011669801 0.06606657
000020 6b ee 30 bd 0f 64 67 3d
       -0.043196123 0.056491908

field_embs.0.weight f4 [45, 32]
000000 b6 1d ed bd 6a d2 7f 3c be 51 bd 3d 87 a8 cb 3c
       -0.115779325 0.015614131 0.09244107 0.024860634
000010 c1 a6 c2 be 07 84 15 3e 74 34 0d bc ae 9f 8c be
       -0.38017848 0.14601146 -0.008618463 -0.27465576
000020 55 7c 95 3c f8 77 4c 3d a7 20 64 bd 04 ea 81 3c
       0.018247763 0.0499191 -0.055695202 0.015858658
000030 00 46 3d 3e 78 e2 a4 bd 8e 61 3b 3e c3 c9 29 3d
       0.18483734 -0.08051008 0.18298933 0.04145218
000040 a3 8f b6 3c d2 e3 a6 bd 88 8e 45 3e 14 b6 82 be
       0.022285288 -0.08148922 0.19292653 -0.2552954
000050 85 bd 3e 3e 45 66 55 bd f6 0a 80 3d 88 bd f4 bc
       0.18626983 -0.052099485 0.06252091 -0.029875532
000060 82 46 4c be e3 48 49 bd 2a bb 6e 3d 7e 57 03 be
       -0.19948772 -0.049141776 0.058283962 -0.12826344
000070 cf 7d ce 3d 2d 63 9b 3d 7e 0a 85 3d 1d e2 d6 3d
       0.1008259 0.07587276 0.06496142 0.104923464
000080 29 05 50 3e cc 7a 07 3d de 60 8b bd bf c4 21 3e
       0.20314468 0.033076093 -0.06805585 0.15797709
000090 b1 37 81 3d db 09 25 be 28 1a bb bd f6 7a 0d be
       0.063094504 -0.16117041 -0.09135848 -0.13816437
0000a0 8c c5 e3 bc c9 f7 e7 bc 72 0c aa bd 1f 76 f2 be
       -0.027804159 -0.028316395 -0.08303155 -0.47355744
0000b0 f6 9c 7c be b0 72 61 3d da f5 db 3e 62 02 39 be
       -0.24669251 0.055041015 0.42961007 -0.18067315
0000c0 97 0e be be 9c 16 9e be c8 e6 85 3c 2f 47 ab 3e
       -0.37120506 -0.30876625 0.016345397 0.33452746
0000d0 cd c0 a3 be a1 6a 6a 3e fb 97 4e 3e db cd 60 bd
       -0.31983033 0.22892238 0.20175163 -0.05488382
0000e0 88 bd d8 3c 86 23 1f 3d 53 6e 36 be d0 4d c6 3e
       0.026457563 0.038852237 -0.17815523 0.3873124
0000f0 b4 31 78 3c 53 6a 43 be e0 bb a4 bc 89 c4 38 bd
       0.015148569 -0.19083528 -0.020109117 -0.045109306
000100 b7 fa 52 3e 1e 78 6e 3c 66 e4 5e be c1 63 35 3e
       0.20603453 0.014555005 -0.21766815 0.17713834
000110 57 ad 9b 3d 89 86 cf 3d c2 d6 b1 be f5 91 e3 bd
       0.07601421 0.101330824 -0.3473416 -0.111118235
000120 ca 89 22 bc 31 53 42 bd f8 c3 4d 3e 74 ba d5 bd
       -0.009920547 -0.04744262 0.20094287 -0.10435954
000130 c2 a9 37 be 90 29 e3 3e e8 62 c3 3d d9 23 2a 3c
       -0.17935851 0.44367647 0.09540349 0.010384523
000140 14 d5 84 be 19 fa 57 be e8 b4 e3 3d ba 3f 27 3d
       -0.25943816 -0.21091498 0.111184895 0.04083226
000150 cc 48 ab bd 77 1b 87 3d f9 dd 4d bd 90 48 f1 3d
       -0.08363494 0.065970354 -0.050260518 0.11781418
000160 b0 ed d9 be f8 57 32 3e 08 0a b2 3e 16 14 65 3e
       -0.42564154 0.1741637 0.34773278 0.22370943
000170 ff 28 95 be 90 94 e0 3d 57 ca 02 be af 87 33 be
       -0.2913284 0.10965836 -0.12772499 -0.17532228
000180 3f e6 e5 3d cc 76 eb 3c aa 23 89 3d 17 c2 93 3e
       0.112255566 0.02874317 0.066962555 0.28859016
000190 87 8d 4e 3d a4 df a3 be d3 19 77 be 32 f2 9a 3d
       0.05042794 -0.32006562 -0.24130945 0.07565726
0001a0 ce 7f 8d be 5f a2 ae 3e 29 e3 fd bc b2 bd 01 3e
       -0.2763657 0.34108254 -0.030992107 0.1267002
0001b0 1f 9d 52 be 2c 27 75 be 77 44 04 be 68 3b 54 be
       -0.2056775 -0.23940724 -0.12916742 -0.20725787
0001c0 ab 04 32 3e 69 67 76 3e ee 3f e5 bd 28 85 20 3d
       0.17384593 0.24062885 -0.11193834 0.039189488
0001d0 f7 0d 6e bd cc a2 5e 3d 8c a7 1d bd f4 a0 0b bd
       -0.058118787 0.054354474 -0.038489863 -0.034089044
0001e0 0c 81 39 3e b8 0a ae bd 6d 81 38 3e 02 68 ad bd
       0.18115634 -0.08498138 0.18018122 -0.084671035
0001f0 32 ec 8b bd cf 8c 99 be cb fd 10 3e c6 1f b6 be
       -0.0683216 -0.2999024 0.14159314 -0.35571116
000200 dc a0 91 3e ac 21 2d 3d 57 f8 c3 3a 2d 98 02 be
       0.28443038 0.04226844 0.001495133 -0.12753363
000210 40 d0 f8 bd 6a 46 39 be ba 30 3f 3e ef 05 64 be
       -0.121490955 -0.18093267 0.18670931 -0.22267888
000220 1b fb 5d 3e 7c e5 7a bb f3 42 a4 be 3b 07 34 be
       0.2167782 -0.0038283756 -0.32082328 -0.17580883
000230 84 e8 8a bd 69 e2 98 3e 66 f6 28 bb 1b e2 a5 be
       -0.0678263 0.29860237 -0.002578163 -0.32399067
000240 3a e5 27 be 88 f6 8d bc c9 24 3b 3e fe 5c a3 3e
       -0.16396037 -0.01732947 0.18275751 0.31906885
000250 8e 2f 52 be b7 f3 7f 3e fc cf bd be da 0e 05 be
       -0.20525953 0.24995314 -0.37072742 -0.12993947
000260 af 94 11 3d 30 18 8e be 7e 41 e9 bd 83 4d 1d be
       0.035542186 -0.2775283 -0.11389445 -0.153616
000270 f8 6c ad be 9e 27 10 bd 83 0d 9c 3c 8b 98 3a bc
       -0.338722 -0.035194032 0.019049412 -0.011388908
000280 c6 8b 8e 3e b0 27 91 3e 9e 6e 1c bc 58 a8 68 3e
       0.27841014 0.28350592 -0.009547858 0.22720468
000290 fb 52 c4 3e 43 cb 1c be c6 35 d9 bd c3 5d 1b 3e
       0.3834456 -0.15311913 -0.106059596 0.15172486
0002a0 05 40 ee 3d ff 4e 76 3d 9f de a9 bd 80 23 c5 be
       0.116333045 0.06013393 -0.08294415 -0.38503647
0002b0 c4 76 8c be 53 6a 30 3e 54 8f 92 3d a1 3b 15 be
       -0.2743436 0.1722806 0.07156244 -0.14573528
0002c0 ea dc 7d be 42 39 21 3d a4 c5 a1 3e 46 b4 33 ba
       -0.24791303 0.039361246 0.315961 -0.0006855171
0002d0 4f 9e 46 be fd 2d ca bd f9 78 fa bd ff 30 10 3f
       -0.19396327 -0.09872053 -0.12230105 0.5632476
0002e0 2a 72 3f be b9 0f 9b 3d 62 ab 32 3d 26 ac d5 3e
       -0.18695894 0.07571358 0.043620475 0.417329
0002f0 ab 5b 8d be c5 e4 ad 3e 28 20 95 be 9c 7a 43 3d
       -0.27609 0.339636 -0.29126096 0.04772435
000300 fb 7c b4 bd f1 36 10 bd d7 2f 35 be e8 97 97 bd
       -0.08812901 -0.035208646 -0.1769403 -0.07402021
000310 77 e9 5f 3d 5c a5 80 3b 14 46 ad 3c db e6 52 be
       0.05466601 0.0039259624 0.02115158 -0.20595877
000320 7d dd ad be fd ab d9 bd a8 69 c4 bd d0 f6 d2 bc
       -0.33958045 -0.10628507 -0.09590465 -0.025752455
000330 d2 c7 8f 3e 37 78 de 3c f1 2f 5c 3e 9c ab 95 3c
       0.28082138 0.027156932 0.21502663 0.018270306
000340 17 73 8b 3d 9d 6c 06 be 84 83 10 3e 25 1b 9f 3d
       0.06809061 -0.1312737 0.14112669 0.07768849
000350 da 54 ea bd a4 0f 02 3d 2f b9 77 be 0e 59 ce 3d
       -0.114419654 0.031753197 -0.24191736 0.100755796
000360 e4 28 19 3e 11 6d 64 3e 0f 8b aa 3d 3e 01 7b be
       0.14957005 0.2230723 0.083273046 -0.24512193
000370 eb fd 13 be 45 8e b7 be 4d e9 85 3d 08 ed 52 be
       -0.14452331 -0.3585073 0.06538639 -0.20598233
000380 22 69 a5 bd 9e 83 cd be 98 97 e6 bc 17 53 9f bd
       -0.08076693 -0.40139478 -0.028148457 -0.0777952
000390 40 77 7f be 39 f7 36 bd be c6 bb 3d 29 af 4f 3e
       -0.24947834 -0.044669364 0.091687664 0.20281662
0003a0 e3 78 d3 be d9 02 d7 3e a2 f4 a8 3d fb e8 30 bd
       -0.41303167 0.4199436 0.08249785 -0.043190937
0003b0 89 65 c7 bd 6c 1f 23 bd 93 c9 b0 be e7 75 04 be
       -0.09736163 -0.039824888 -0.3452879 -0.12935601
0003c0 c3 74 88 bd f6 38 51 3e bd 68 38 bb 8f bd 62 be
       -0.066628955 0.20431885 -0.00281386 -0.22142623
0003d0 03 5b 0e bd 6a b0 0b 3b c0 07 c3 3e da 4a e4 bc
       -0.034754764 0.0021314868 0.3809185 -0.027867723
0003e0 c6 3a 9b 3e f7 25 94 bb e3 c0 71 3e b2 9a ef bd
       0.30318278 -0.0045211273 0.23608737 -0.11699428
0003f0 0b fd 85 3d d0 aa da be 33 53 fd bd 97 68 e1 3d
       0.06542405 -0.42708445 -0.123693846 0.11006277

field_embs.1.weight f4 [90, 32]
000000 07 90 d9 bc 63 f6 be 3e 13 3b bd 3d 3e 1a 43 be
       -0.026557935 0.37297353 0.09239783 -0.1905298
000010 b2 1f 3f be 73 1a 57 3e 13 b9 74 bc 0e d0 5a be
       -0.18664435 0.21006183 -0.014936703 -0.21368429
000020 53 2a 2c 3f f9 5e a9 3d 6d e9 15 3e 95 b5 08 be
       0.6725208 0.08270068 0.14639826 -0.13350518
000030 30 1a 96 3d ca ab 36 be 4f 27 b6 bd 95 28 a6 3d
       0.073292136 -0.1783897 -0.08894216 0.08113209
000040 28 8b 9c bd 91 3b e0 be ef 32 e4 3d 12 a3 d0 3d
       -0.076437294 -0.43795446 0.11142527 0.10187353
000050 06 90 06 3d 3a 49 41 be 7b ba 81 be 96 f6 ed 3d
       0.032852195 -0.1887559 -0.25337586 0.11619298
000060 33 68 c3 bc 3f b6 a4 3d b5 18 ec bc e4 fb c3 bc
       -0.023853397 0.08042573 -0.028820375 -0.023923822
000070 02 b1 9c be aa 80 bb 3e dd ac 82 3d da 27 4d 3e
       -0.30603796 0.366216 0.06380627 0.20034733
000080 a6 d7 29 3d 80 74 02 3e 73 36 19 3e 85 a5 65 3d
       0.041465424 0.12739754 0.14962177 0.056066055
000090 ca ca 04 3e 24 57 b0 3e 9f db aa 3d 9d 72 21 3e
       0.12967983 0.34441483 0.08342671 0.15766378
0000a0 bf e2 08 bf 63 7d 9b 3e 0b 95 01 bc f9 82 a8 3d
       -0.5347099 0.303691 -0.00790907 0.08228106
0000b0 43 ce 8b 3e 41 92 74 3e 46 5c f2 bd 4f e5 2e 3e
       0.27305803 0.23883916 -0.11834006 0.17079662
0000c0 97 ce 9b 3e 4c 86 3f 3e 96 ac 36 bd 59 90 e4 3e
       0.30431053 0.18703574 -0.044598185 0.4464138
0000d0 88 fc 67 bc f9 a7 11 be 39 7e f9 3d 61 e3 6a be
       -0.014159329 -0.14224233 0.12182278 -0.229383
0000e0 23 20 7a be 7b 8b 48 3d 75 6d b8 3c 60 fb 94 3d
       -0.24426322 0.048961144 0.02251313 0.072745085
0000f0 0e 4e 37 bc 62 54 73 3d 6a ad 30 3e 3e b2 05 bc
       -0.011188043 0.059406646 0.17253652 -0.008160172
000100 9e c3 0f 3d 7a 51 5d 3e 33 9e 4e 3e bf 52 de bc
       0.035098664 0.21613112 0.20177536 -0.027139066
000110 d2 9a c1 bb c3 70 eb 3d e0 ef 9e bd 48 25 77 3e
       -0.0059083486 0.11496117 -0.07760596 0.24135315
000120 df aa 39 3e 0a da cb bd a3 d2 19 3e 39 ed cb be
       0.18131588 -0.09953697 0.15021758 -0.39829424
000130 ab c8 dd 3e e5 c8 1d 3e f6 2a 82 be 35 e3 a9 3e
       0.4331716 0.15408666 -0.25423402 0.33181158
000140 8b e2 53 3e 07 49 eb 3d 67 2c 10 3d 55 a6 03 3e
       0.20691888 0.11488538 0.035198595 0.1285642
000150 36 5a 45 be 70 5e 26 be 30 72 ff bd c0 c2 83 be
       -0.19272694 -0.16246963 -0.124729514 -0.2573452
000160 12 74 92 bd d8 f9 46 bd a1 ce 9a bd 99 18 d6 3d
       -0.07151045 -0.048578113 -0.075589426 0.104539104
000170 41 78 01 3e 02 1a b4 bd dc 22 54 3d e2 52 2d 3d
       0.1264353 -0.08794023 0.051791057 0.04231537
000180 57 58 aa bc 4d a0 88 be e5 23 61 bd 27 82 fa be
       -0.020794077 -0.266848 -0.054965872 -0.48927423
000190 56 43 c4 be 92 f2 0e be f7 6c 12 3e 36 f0 b9 3c
       -0.38332623 -0.1395972 0.1429938 0.02269755
0001a0 7d 55 d2 bd be f1 29 3e 60 6b a9 3c 37 51 8a 3d
       -0.10270212 0.16596124 0.020681083 0.06753772
0001b0 4f b3 c4 bd ea 52 fd bd 48 29 e4 3d 55 2a 1d 3c
       -0.09604513 -0.1236933 0.11140686 0.009592612
0001c0 ab fd 5e 3c 0f 24 da bd d3 77 b9 3e a8 96 ce 3d
       0.013610284 -0.10651409 0.3622423 0.10087329
0001d0 39 e1 63 3c 39 c5 97 3c 14 7d df bd d7 95 a6 3d
       0.013908678 0.01852666 -0.10912529 0.081340484
0001e0 28 e4 94 bd 28 df 65 bd 1a 00 4d be 8a 5b 05 3e
       -0.0727008 -0.05612102 -0.2001957 0.130232
0001f0 d5 7b d1 bc 85 51 a4 be 3c 2a 4f 3e 87 33 fb 3b
       -0.025571743 -0.32093444 0.20230955 0.0076660546
000200 9d c4 40 bd d5 70 b7 3c f0 06 c9 bd 69 9b df be
       -0.047062505 0.02239267 -0.09815776 -0.43673256
000210 fb 2a 12 be 11 cc 38 3e 8a d9 34 3d c9 73 39 be
       -0.14274208 0.18046595 0.044152774 -0.18110575
000220 a3 2a 71 bd 73 7f cd bd 48 fb 0f 3e c2 25 fa bd
       -0.058878552 -0.10034075 0.140607 -0.12214233
000230 91 ac 2a 3e 01 a4 18 be 39 03 db 3d 46 76 98 3c
       0.16667391 -0.14906313 0.10693974 0.018611085
000240 06 72 81 3d bd 9f b7 bd 76 f3 26 3e 26 d1 b5 3e
       0.06320576 -0.089660145 0.1630381 0.3551113
000250 e4 01 6b be f7 80 95 bd 42 f5 0b 3e ec 50 15 3e
       -0.2294994 -0.07299989 0.13667777 0.1458165
000260 3d f3 16 bd 84 4a 5d bc cd 96 39 bd 8c f5 10 bd
       -0.036853064 -0.013506535 -0.04530983 -0.03539042
000270 82 5d 20 bd e9 61 82 bd 62 15 3f 3d 96 9c 0c 3d
       -0.039151676 -0.06366331 0.04665125 0.03432902
000280 b9 32 36 3e a2 2b f7 3d a6 95 9d bc a2 40 57 be
       0.17792787 0.12068869 -0.019236397 -0.21020749
000290 24 90 2d be ed 83 13 3e 10 73 14 3e 5e 56 be bd
       -0.16949517 0.14405794 0.14497018 -0.09293817
0002a0 ca 51 fe bd 4a 11 05 be 23 2f 1e be 0b 60 72 bd
       -0.12417944 -0.12994877 -0.15447669 -0.059173625
0002b0 33 bd 31 be b0 d8 35 3c ff 30 00 be 21 c4 42 be
       -0.1735733 0.011099026 -0.1251869 -0.1902013
0002c0 55 7a bd be 9c ac 46 3e 17 9e c1 3e dd 19 20 3d
       -0.37007394 0.19401783 0.37815925 0.039087165
0002d0 3e f9 10 3e e8 c5 7a be c6 ad 50 3e 0e fe 8c bd
       0.14157578 -0.24489558 0.2037879 -0.068843946
0002e0 03 2d 14 3f 75 e7 9c be df 8e b1 bd 12 40 52 3e
       0.5788118 -0.30645338 -0.086698286 0.20532253
0002f0 c1 b9 3d be b5 e7 17 be e9 fe a0 3e 5d a2 76 3a
       -0.1852789 -0.14834483 0.3144448 0.0009408349
000300 eb 83 42 be 6c 93 9c 3c a6 72 d1 3d 93 5e 51 bd
       -0.18995635 0.019113265 0.102269456 -0.051115584
000310 be 10 21 3e f5 7f 18 be ce 00 ef 3c 31 f1 6d be
       0.15729043 -0.14892562 0.029175188 -0.23236538
000320 c9 4a e5 bd 3f 3c e5 bd 40 e0 26 be 5f d9 78 bc
       -0.11195905 -0.11193132 -0.16296482 -0.015188544
000330 90 47 d8 be 8b de 5c bd c6 64 51 3d 01 db d5 bd
       -0.42242098 -0.05392317 0.051121496 -0.10442162
000340 93 70 f4 be 79 32 89 bd 66 12 76 be 93 ec 6f bd
       -0.47742137 -0.0669908 -0.24030456 -0.058575224
000350 0b e6 da 3d 87 cb 4a 3e bd b7 b5 3d 74 19 32 bc
       0.106884085 0.19804202 0.08872936 -0.010870326
000360 3e ac b0 be b5 91 13 be f9 4c 06 3e fb f9 d2 bc
       -0.3450641 -0.14411052 0.131153 -0.025753966
000370 89 e7 89 be ea 68 c3 3e 13 d0 ce 3e 53 e8 19 bd
       -0.2693446 0.3816598 0.40393123 -0.037575077
000380 c8 e0 60 3e ea 8b df 3d 22 b9 78 be 5a 37 63 3e
       0.21960747 0.10915358 -0.24289373 0.22189084
000390 f1 39 3a 3e bf e4 ee 3d a2 1b 85 bd c7 12 8e bd
       0.18186165 0.116647236 -0.06499411 -0.06937175
0003a0 af 2e 93 bd 53 02 9a bd 89 ef d6 3d be 8e b5 bd
       -0.071866386 -0.075199746 0.104949065 -0.088651165
0003b0 c1 83 83 3e d1 00 35 3e bc 1d d7 3c 62 0e 7c bd
       0.25686458 0.17676093 0.026259296 -0.061537154
0003c0 9e e3 2a be 9f 78 ca 3d 33 7b 5c 3d 57 7b 32 3e
       -0.16688392 0.09886288 0.05382843 0.17429863
0003d0 12 2f 69 bd 94 f1 86 3d 4d 91 0f 3e 9a c4 46 bd
       -0.056929655 0.06589046 0.14020272 -0.048527338
0003e0 0e 3a da bc 46 80 b1 be 42 30 db bd bc 84 c8 3c
       -0.02663901 -0.34668177 -0.10702564 0.024477355
0003f0 1d bc 51 be 12 06 fc 3a 20 e9 8b 3d 92 cd 82 bb
       -0.20481916 0.0019227883 0.068315744 -0.003991791

conv_embs.0.weight f4 [1, 32]
000000 96 14 17 be 0e d3 bf bc c7 d7 2b 3e e7 7f 72 bd
       -0.14753947 -0.023416068 0.16781531 -0.05920401
000010 49 60 7a bd 69 f0 54 be a7 51 fd 3d 7c dd 8e 3c
       -0.06112698 -0.20794834 0.123690896 0.017439596
000020 56 ac 9a be c0 5a cd 3e ae 5f 7e 3d b7 44 5d 3c
       -0.30209607 0.401083 0.062102966 0.013505152
000030 15 9c 3c 3e 85 7e b6 be be 44 61 be 81 5a 64 3e
       0.18418916 -0.35643402 -0.2199888 0.2230015
000040 a4 3a e8 3e 83 2a 10 3c 9a d0 22 bd d5 56 36 be
       0.4535724 0.008799198 -0.03974972 -0.17806561
000050 50 21 cb 3c d4 c4 6d be 0a bc 8a 3e d2 9b 89 be
       0.024796158 -0.23219615 0.27096587 -0.26876694
000060 bc 91 e0 3e a1 8a 05 3d 31 fb 3a 3d 70 ba 9a be
       0.43861187 0.03260291 0.04564971 -0.30220366
000070 97 62 59 3e 9a 80 b6 be cf 0a c0 bd 4a a1 e0 3d
       0.21229015 -0.3564499 -0.093770616 0.109682634

conv_embs.1.weight f4 [5, 32]
000000 05 52 7f be f9 b2 d5 bd 9a d2 f0 3d 37 3e 33 be
       -0.24933632 -0.10434527 0.11758919 -0.17504202
000010 a5 d7 58 be a4 15 91 3d 32 77 4f be 13 6d d9 bc
       -0.21176012 0.07084206 -0.20260313 -0.026541268
000020 a7 2c 30 be 30 89 2b be 44 45 6c be 42 ea 21 3e
       -0.17204534 -0.16751552 -0.23073298 0.15812019
000030 a7 51 07 bb 00 3a 3b 3c 4b 9b 97 bd 75 0b a3 bd
       -0.0020648034 0.0114274025 -0.07402667 -0.0796117
000040 1b b6 4b be ba b6 18 3e 1a 73 39 bd 6f bb 44 3d
       -0.19893686 0.14913455 -0.045275785 0.048030313
000050 c2 17 52 3e 88 3b 6d 3e 70 69 65 3e 98 a8 35 bc
       0.20516875 0.2316724 0.22403502 -0.011087559
000060 18 4a 4b 3e 9a 35 13 be 44 6d 3e 3d 5d 17 86 be
       0.19852483 -0.14375916 0.046490923 -0.261897
000070 5d fc fe bd 3a 9a 77 bc c9 12 37 be 83 ea e2 3d
       -0.12450478 -0.015112454 -0.1787826 0.11079886
000080 ff 7d 02 3f 01 ca dd bd 1f 59 21 3c e7 34 fa bd
       0.50973505 -0.10829545 0.009847908 -0.122171216
000090 86 7c 3a 3e 7d dc a0 3d 83 d0 89 3e 32 41 db 3e
       0.18211564 0.07854555 0.26916894 0.42823178
0000a0 2b 94 32 bc 94 e6 d8 bc 49 3a fa 3d 8b 0d dd 3b
       -0.010899584 -0.026477136 0.12218148 0.006745999
0000b0 e8 5e f5 3d 06 5a ce be 53 9b b5 be 2a 99 a4 be
       0.119809926 -0.40303057 -0.35470065 -0.32148105
0000c0 ad b6 75 be ec 7a ed be cd 94 a9 3e d6 e2 a0 bc
       -0.23995467 -0.46382844 0.33121338 -0.019639414
0000d0 ba d7 13 be 0f af e9 bd 77 5a 96 3d f7 5c 90 3d
       -0.14437762 -0.11410343 0.073414735 0.07048982
0000e0 a5 9b c7 3d 5b ca 70 3d 2d 4f 0f be 5a 74 24 be
       0.09746484 0.05878673 -0.13995047 -0.1606001
0000f0 82 f6 ba bc 0f 5c a0 3e ed 61 88 be 45 d1 42 3d
       -0.022822622 0.31320235 -0.2663721 0.047562856
000100 0e cc 08 3c bc a9 a3 bd cc b2 2f 3e b4 a9 bb be
       0.008349432 -0.07991359 0.1715805 -0.3665291
000110 2a 46 2b be 27 61 dd 3d 87 7e 8b 3d 1f ac 32 bc
       -0.16725984 0.10809546 0.068112426 -0.010905295
000120 b7 ca 59 bb 93 84 9f 3d 42 f5 02 3e 16 2b d1 bd
       -0.00332324 0.077889584 0.12788871 -0.10213296
000130 34 f0 43 bb 18 2d 69 be 29 37 1f be ba fd cc bc
       -0.002989781 -0.22771108 -0.15548386 -0.02502333
000140 33 0f 64 bd 3c c6 45 3d 7b e7 b9 3d 0e 20 1b 3e
       -0.055678558 0.048284754 0.090773545 0.15148947
000150 89 d7 85 3d 6e a4 2a be 9a aa 1c 3e f1 48 04 3e
       0.06535251 -0.16664287 0.15299454 0.1291845
000160 bd 03 b3 bc 1b 2c 25 be 50 d6 fc bd 28 06 81 3e
       -0.021852368 -0.16130106 -0.12345564 0.2520001
000170 c3 0d ec bc 4d 94 11 be 6f 14 c0 3e 7c 3f 8f bd
       -0.028815156 -0.14216729 0.3751559 -0.069945306
000180 50 71 24 3b fa b0 6b be 04 b1 66 bb 56 0e 03 be
       0.0025091954 -0.2301673 -0.0035200724 -0.12798437
000190 75 09 98 3d f3 37 e2 bc 40 e5 a8 bd f7 17 b6 3d
       0.07423679 -0.02761457 -0.08246851 0.0889129
0001a0 b8 47 da 3d 76 a1 c7 3d 79 29 03 3d 95 90 fe 3c
       0.106582105 0.09747593 0.032021973 0.031074801
0001b0 62 ca 91 be a8 5e 13 bc f4 1e 0b bd 07 46 f8 bd
       -0.28474718 -0.008994736 -0.033965066 -0.12122732
0001c0 6a d9 1e bc bb f3 49 3e cf 98 b6 3e 60 12 1e bd
       -0.00969539 0.19721882 0.3566346 -0.038591743
0001d0 50 2a d2 bd 24 f9 9f be 66 07 24 bc ba 98 06 bf
       -0.10261977 -0.31244767 -0.01001153 -0.5257679
0001e0 67 86 4e 3d ca d6 85 3e e7 dd 4b 3b 9b e0 6c bd
       0.050421145 0.26140434 0.0031107606 -0.057831388
0001f0 f6 48 d7 bd d1 48 b5 3d c9 16 1f be 08 2b af 3e
       -0.10511963 0.08851779 -0.15536036 0.34212518
000200 9b 51 08 3d 7a 08 52 3d 2a 8e d1 be bd 7e 7c bc
       0.03328095 0.051277615 -0.40928775 -0.015411076
000210 1e 1b 78 be d3 0a fb be a0 37 da 3d 40 1f b2 be
       -0.24229094 -0.49031696 0.10655141 -0.34789467
000220 9d e8 01 be 1f 93 9a 3e 02 42 3d 3e fc 72 8c be
       -0.12686391 0.3019037 0.18482211 -0.27431476
000230 da a3 ba bd 07 b7 96 3e 8a 20 16 bd a5 c8 5d bd
       -0.091132835 0.29436514 -0.036652125 -0.054146428
000240 f9 73 f0 bd f8 e0 40 3d 75 5a b4 3d 53 e9 dd 3d
       -0.1174087 0.047089547 0.08806316 0.10835519
000250 83 02 9c bd 5f 7b 02 be b7 0d 40 be cd 12 46 3e
       -0.076176666 -0.12742375 -0.18755232 0.1934311
000260 6c 9d b2 bd 27 8b f6 bc 2e 61 38 3e 12 51 6d bd
       -0.08721432 -0.03009565 0.18005821 -0.057938643
000270 d8 5e bb 3e 30 cd 82 be 2b da fc be 2d 6a 8a bd
       0.36595798 -0.2554717 -0.493852 -0.06758533

conv_embs.2.weight f4 [10, 32]
000000 56 62 1f be 4e 84 cd 3d 49 cd 8d 3e 42 09 92 bd
       -0.15564856 0.10035001 0.27695683 -0.07130672
000010 fe 8c 27 be dc 63 48 3e 66 7e 6b be d8 7a 8d 3d
       -0.16362378 0.19569343 -0.22997436 0.06908196
000020 57 d1 0f be 08 cb 37 bc 53 62 bc bd 8e fd 8e 3e
       -0.140447 -0.01121784 -0.09198441 0.27927822
000030 17 c0 22 bd 8c 6d 4f 3d 73 d9 92 bd 51 78 6c be
       -0.039733972 0.05064158 -0.071703814 -0.23092772
000040 8f 4c 51 be 55 51 f4 3d b3 b5 c7 bd b0 de a6 3e
       -0.20439361 0.11929575 -0.09751453 0.32591772
000050 41 ff b4 3d 27 a5 21 3e 84 30 a6 3d 0d 51 b4 bd
       0.08837748 0.15785657 0.08114722 -0.08804522
000060 b6 81 90 3d 10 04 e0 3d 40 28 01 bf 29 4a b9 3c
       0.070559904 0.10938275 -0.5045204 0.02261837
000070 04 05 59 3d 0b b9 3e be 02 26 84 3e 53 b8 95 3e
       0.0529833 -0.18625276 0.25810248 0.2924219
000080 0a 0f 35 be 6c 41 58 be 0b ef e0 bc c1 29 28 3d
       -0.17681518 -0.21118706 -0.027457735 0.041055445
000090 85 a8 58 be 4e 51 80 be d8 8e 71 3e d8 e3 1b be
       -0.21158035 -0.2506203 0.23589647 -0.15223634
0000a0 aa 4c 36 bd ac 2b ab 3e 1b 27 49 ba 91 c2 17 be
       -0.044506706 0.33431756 -0.00076733687 -0.14820315
0000b0 c7 9b 93 be d8 e3 78 be cf 46 d3 3d 43 d6 34 be
       -0.28829786 -0.24305665 0.1031624 -0.1765986
0000c0 5f f0 b8 be 20 a4 67 3e a1 54 a4 be 17 9a c7 3b
       -0.3612089 0.22621202 -0.32095817 0.006091367
0000d0 c8 40 06 be 34 2b 98 bd e3 98 1c 3d 72 db 3e 3e
       -0.1311065 -0.07430115 0.03823174 0.18638399
0000e0 4f 71 06 be 55 b6 d6 bd 22 46 5f 3d b7 f3 82 3d
       -0.13129161 -0.10483996 0.054510243 0.06394141
0000f0 0c 81 7e 3e 94 4a a1 be ac 87 59 3e b5 ca cf bb
       0.24853915 -0.3150221 0.21243161 -0.0063413032
000100 e0 31 49 3e 05 6f c9 3c 7c bc c3 bd 6d 4e a4 3b
       0.19647932 0.024589071 -0.09557435 0.005014232
000110 7b 10 bb 3e cb 2b 58 3e 85 f7 9c bd 9a de f0 3d
       0.3653601 0.21110456 -0.07664398 0.11761208
000120 98 fc cc 3d df ae 07 bd 43 ce 29 3e 92 ed 5d bd
       0.10009116 -0.033125754 0.16582589 -0.054181643
000130 38 c8 05 3e 99 b1 28 bc 28 79 03 3c da 37 9f bd
       0.13064659 -0.010296249 0.008024491 -0.07774325
000140 3a bf 62 3e 9e e7 a8 be fe 23 71 bc 06 d9 3a 3e
       0.2214326 -0.3298921 -0.014718054 0.1824685
000150 d3 c8 89 3a cb 41 58 be f0 9d 64 be f5 b8 8b bd
       0.0010512121 -0.21118848 -0.22325873 -0.06822387
000160 e9 00 17 bc 70 77 f2 bd 8a 7a fe 3c e6 22 86 3d
       -0.009216526 -0.11839187 0.03106429 0.06549625
000170 f8 b7 de bb 6e 96 25 bc 23 91 e2 bd e4 1c f0 3b
       -0.006796833 -0.010106666 -0.11062839 0.007327663
000180 c3 5c 94 bd db 7e 0f be 17 49 fc 3b d0 c3 5f be
       -0.072442554 -0.14013235 0.0076991427 -0.2185204
000190 3d 1e 4e 3d c4 6e 2b 3e 4c 1b f2 3d 24 f6 dd bd
       0.050321806 0.16741472 0.11821613 -0.10837963
0001a0 50 53 be 3d aa d5 ca bd 7f d2 d9 3d d2 c6 72 be
       0.09293234 -0.099040344 0.10635852 -0.23708656
0001b0 3c d9 cf bd 25 e5 df bd a4 d3 32 3e 3a f3 60 3d
       -0.10148856 -0.10932378 0.17463547 0.05491946
0001c0 ae 86 44 3e f2 8d d8 bd d0 41 a6 3b 15 b5 0d 3e
       0.19192001 -0.10573949 0.0050737634 0.13838609
0001d0 35 cb 24 3e 8e 3d 36 3e 84 40 d9 bb fb aa d3 bd
       0.16093142 0.17796919 -0.0066300053 -0.10335346
0001e0 fe 69 e7 bd ff 52 c6 3d 20 63 8d 3d 26 36 ba 3d
       -0.11299513 0.09683799 0.06903672 0.09092359
0001f0 2b ef 4b 3e 1f bc 25 be d7 cd 36 be 56 89 e9 3c
       0.19915454 -0.16185044 -0.17851959 0.02850787
000200 ca ab 13 be b1 ab 0b 3d 49 6d b8 bc 27 61 ee bd
       -0.14421001 0.034099285 -0.022513049 -0.11639624
000210 3f 5a bf be 45 12 52 be bd 02 f5 be ea 17 b1 3d
       -0.3737354 -0.20514782 -0.47853652 0.08647139
000220 29 67 74 3e 3e 49 b5 bd 06 45 a5 3e 87 3a f6 3e
       0.23867477 -0.088518605 0.32279223 0.48091528
000230 a4 1d 39 3d da b9 09 be fe 43 d5 3d 1e fd 1e 3e
       0.045194283 -0.13449803 0.10413359 0.15526244
000240 29 b7 f7 bd b6 b6 8e be 3f 6e a4 be 7f f8 94 bd
       -0.12095482 -0.27873772 -0.3211536 -0.07273959
000250 0f 79 13 3d 73 4f 83 3e f1 9b e4 3b 5c b1 8a 3e
       0.036004122 0.25646552 0.0069765975 0.2708844
000260 9d f9 17 3d 37 73 8d be 9d ef 28 3d 3b 20 0c be
       0.037103284 -0.27626964 0.041244138 -0.1368417
000270 dd 93 66 be 6a 8e 1b be f3 17 ac 3d 6f 05 48 be
       -0.22517343 -0.15191045 0.084030055 -0.19533323
000280 81 ff 10 3e 55 36 5f bd e5 d1 55 3d ad 7b a5 bd
       0.14159967 -0.054495174 0.052202124 -0.0808023
000290 21 ec d5 3d 68 aa 71 be c6 49 d9 3e 3a dc df 3d
       0.10445429 -0.23600161 0.42439097 0.10930677
0002a0 78 69 c9 3c 31 c9 cf 3d ad 9c 29 be 6e d2 c5 bd
       0.024586424 0.10145796 -0.16563673 -0.09659277
0002b0 37 7b 91 3c a8 eb 69 be ef 11 14 bd 72 cc a2 3c
       0.017758949 -0.22843802 -0.036149915 0.019872878
0002c0 c5 bf 22 3e 48 c8 8e bd fb 08 06 bd e7 83 b2 bc
       0.15893467 -0.06971794 -0.03272341 -0.021791412
0002d0 b0 80 24 3e e5 a3 90 3d 8c 0b 50 be 47 68 14 be
       0.16064715 0.070625104 -0.20316905 -0.14492904
0002e0 a3 34 1f 3e 94 99 fd 3c 3e 9b 56 bd d6 70 61 3d
       0.15547423 0.03095702 -0.052394144 0.05503925
0002f0 1a c3 89 3d 52 e5 81 3e c9 90 23 3e f1 7a 06 be
       0.06726666 0.2537027 0.159732 -0.13132836
000300 4b 3b 9b 3d c7 30 dc bc 5f 87 15 3e ab 65 5d 3e
       0.075796686 -0.026878728 0.14602421 0.21620815
000310 c5 a9 91 be 1d 83 53 bd e4 f5 b5 bd 73 29 f8 bd
       -0.28449836 -0.05163871 -0.088847905 -0.12117281
000320 af b0 2e 3d 12 22 68 bc 3a a7 e1 3d e4 f8 bb bd
       0.042648967 -0.014168279 0.11018224 -0.091783315
000330 f7 83 d2 3d 25 d8 a5 3e a5 3d 14 3e 0d 2d 92 3e
       0.102790765 0.32391468 0.1447664 0.28549996
000340 b4 c6 ce bc e7 99 f7 bd c4 72 8a 3e 12 ad 82 3d
       -0.025241233 -0.120899014 0.27040684 0.06380667
000350 27 49 de 3d 81 99 a4 3d 2b 27 d3 bd b8 3e b4 3d
       0.108537965 0.08037091 -0.10310205 0.08801025
000360 1e 63 20 bd 96 68 9e bb 4e c9 99 bc d3 14 95 bd
       -0.039157026 -0.004834245 -0.018772747 -0.072793625
000370 79 89 89 be a4 49 a4 be 2a 8f e5 3d 1e 6b 25 3e
       -0.26862696 -0.32087433 0.11208947 0.16154143
000380 5b f1 87 3e 16 2e ba bd 78 16 38 bd d4 fb fa bd
       0.26551327 -0.090908214 -0.044943303 -0.12255064
000390 ea 66 81 3e 50 34 b8 bd c9 ec b4 3e 67 52 92 3e
       0.2527383 -0.08994353 0.35336903 0.28578493
0003a0 8b d5 8b 3e f6 4e 36 bb 22 18 cb 3c 06 bf fb 3d
       0.27311358 -0.002781806 0.02479178 0.12292294
0003b0 11 44 95 3c 11 7d b9 3e bb 81 58 bc b2 e4 30 be
       0.018220933 0.3622823 -0.013214524 -0.1727474
0003c0 6f 6a 0e 3e e1 29 bf 3d ad f0 17 3e bc 94 1f 3e
       0.13907789 0.0933416 0.14837904 0.15584081
0003d0 b3 f4 4c be 3a b8 6d be 44 77 e9 bc 74 14 47 be
       -0.2001522 -0.23214808 -0.028499253 -0.19441396
0003e0 9e b9 40 3d a0 5f 35 3e 94 02 22 be 8c c5 3f 3b
       0.04705202 0.1771226 -0.15821296 0.0029262034
0003f0 5a f3 8a bd 91 17 81 3d 4b 4f 1e 3e 8c 89 f5 bc
       -0.06784697 0.06303323 0.15459935 -0.029972814

lin_embs.0.weight f4 [250, 32]
000000 4d 90 a1 3d 20 3b eb 3d db ab d0 3d bb 47 28 3c
       0.07888851 0.114858866 0.10189029 0.010271008
000010 db bc 43 bd fa 91 8f 3e 50 60 bd bd f9 03 4b 3e
       -0.04778753 0.2804106 -0.09246886 0.19825734
000020 d3 3f 88 be 0c d7 ea 3b 79 25 ef bd 02 61 1e 3e
       -0.26611194 0.007166749 -0.11677069 0.15466693
000030 e3 56 82 be 13 74 17 be 9d 18 27 3e f8 0b 8e be
       -0.25456914 -0.14790373 0.16317983 -0.27743506
000040 cc 5b 25 3b 6f 5b 2d be c4 a5 1e 3e d6 66 d9 3c
       0.0025231717 -0.1692941 0.15492922 0.026538294
000050 d2 38 f7 bc 0a f2 0c be 73 a8 e9 3c 68 8e 94 bd
       -0.030178461 -0.13764206 0.028522706 -0.07253724
000060 25 88 a0 3e 63 b0 28 bd 69 d3 31 3e d3 ac 52 3e
       0.3135387 -0.04118384 0.17365803 0.2057374
000070 0b 4c af 3e ab 7e 58 be cc 3b c5 bd e7 e9 ec bd
       0.34237704 -0.2114207 -0.09630546 -0.11568051
000080 6e cd d0 3c d9 e1 2c be 0c 6f 04 be b5 9c 4d be
       0.025488582 -0.16883029 -0.12932986 -0.2007931
000090 71 05 88 3e 32 0d 53 3e 6b 5e 0e bf 6c 97 42 3e
       0.2656665 0.20610502 -0.5561282 0.19003075
0000a0 e4 06 61 bd b3 91 d6 3e 7b 48 53 bd be 1e 33 be
       -0.054938212 0.41908035 -0.051582795 -0.17492196
0000b0 54 a0 93 bb 74 7a 07 bd 97 d6 e8 be 0f 6f 34 be
       -0.0045051966 -0.033075765 -0.4547622 -0.1762049
0000c0 34 0b ed be 2c 7d ba 3d c4 ed a4 be 62 39 46 bd
       -0.4629761 0.09105906 -0.3221265 -0.04839457
0000d0 95 d9 e3 be 86 b8 9f bd a9 2b 1d 3d f0 5e 18 3e
       -0.4450194 -0.07798867 0.038371716 0.14879966
0000e0 b7 01 3c be 7d a8 b2 3d 1d 75 d5 3d 84 bd 83 3e
       -0.18360029 0.08723543 0.10422728 0.25730526
0000f0 33 4e e7 bd ad cb 65 be 66 c2 f3 bd 38 79 1d be
       -0.11294212 -0.22440977 -0.11902313 -0.15378273
000100 84 56 ec be a8 24 70 be 75 09 85 3e f3 8f 94 be
       -0.46159756 -0.23451483 0.25983778 -0.29016075
000110 dd 4c 4c 3e 67 84 f6 bd 0c d3 a3 be f4 94 d1 bd
       0.19951196 -0.120369725 -0.31996953 -0.10233489
000120 7a 5b 63 be 6a 39 97 3e 9b 59 90 3b 94 73 e8 bc
       -0.22202864 0.2953599 0.004405213 -0.028375424
000130 7c 1b ae 3d a5 3f 5b be 8a 47 3b bd 35 8a 15 be
       0.08501336 -0.21410997 -0.04572252 -0.14603503
000140 92 68 5f bd 67 43 0e 3e 78 8b 1a 3e f3 dc 0c 3d
       -0.054543085 0.138929 0.15092266 0.0343904
000150 39 2b 86 be 3a 03 33 3d a5 46 9d bd a2 b3 fa bd
       -0.2620485 0.04370425 -0.0767949 -0.122412935
000160 5a 92 9c 3b 7e d9 1b 3e 4a 83 55 3e 75 a5 0c 3e
       0.0047781887 0.15219685 0.20850864 0.13734992
000170 ef de 2c 3d 27 6b f4 bd e3 52 c3 3e ea e9 7d 3e
       0.042204794 -0.119345 0.38149175 0.24796262
000180 3f 5d f1 3d 83 ae ac bd 36 42 c2 3c e6 07 2d 3e
       0.117853634 -0.08431723 0.023713212 0.16897544
000190 ef ee 09 3e 0a 72 97 bd bf 87 64 3d d6 e1 be 3b
       0.13470052 -0.07394798 0.05579352 0.0058252616
0001a0 95 92 d6 3d 05 97 93 b9 87 d6 3c 3d 0b 59 95 3d
       0.10477177 -0.00028150543 0.046103027 0.07292374
0001b0 98 ed ec 3c d2 3f cd bd fb fd a5 be 35 16 72 3e
       0.028921887 -0.100219384 -0.32420334 0.23641284
0001c0 56 6b 1b 3e 74 1d ad 3e 4c b3 9a be 93 30 10 bd
       0.15177664 0.33811533 -0.30214918 -0.035202574
0001d0 a2 94 fd bd db 64 13 be 7a a0 2d 3e e0 5f 81 be
       -0.12381865 -0.14393942 0.16955748 -0.2526846
0001e0 f5 0d 77 3e 65 c7 87 be 80 ce 85 3c 28 f2 1c 3d
       0.24126418 -0.26519313 0.016333818 0.038316876
0001f0 25 29 46 bd 74 bb d1 bd 72 2c 9f 3e b9 78 ba bd
       -0.048379082 -0.10240832 0.31088597 -0.09105057
000200 d4 69 3e be 1a 9c 39 bd 00 11 aa 3b 25 3d 35 3d
       -0.18595058 -0.045314886 0.005190015 0.044247765
000210 cd 4b 06 be db fb d6 3e aa 23 b8 3c 55 fe e7 bc
       -0.13114853 0.41989025 0.022477943 -0.028319517
000220 4b 50 30 be e1 44 4c be 31 72 3d 3e 1d c9 86 3d
       -0.1721813 -0.1994815 0.18500592 0.06581328
000230 0e bf 93 3c e4 44 e3 3d 4a ee 44 bd 45 6e b1 bd
       0.018035438 0.11097124 -0.048078813 -0.0866361
000240 aa 61 8e bd 0b 01 8e 3e e6 85 3c 3e fa 6d 89 3d
       -0.06952222 0.2773517 0.18410453 0.067104295
000250 a3 5c 3b 3e 86 be 5c 3e 08 72 8b 3c 8e 93 89 3d
       0.18297057 0.21557054 0.017022148 0.06717597
000260 e0 47 8a be 54 73 18 bd 33 07 00 be 91 a8 85 3e
       -0.2700796 -0.03721936 -0.12502746 0.26105168
000270 c9 c6 83 3e ec e6 00 be 52 3c 83 be 05 d9 46 3e
       0.257376 -0.1258809 -0.25631958 0.19418724
000280 af a0 92 be 4c 75 59 be a7 89 c3 bd b3 f1 54 3e
       -0.28638217 -0.21236151 -0.095477395 0.20795326
000290 38 0a f1 3d 01 10 01 be 5f 30 c3 be c1 e7 8d be
       0.11769527 -0.12603761 -0.38122842 -0.27715877
0002a0 80 5d 18 3d 03 70 ea 3d 6a dd 5e be 36 1d c5 3c
       0.037198544 0.11447146 -0.2176415 0.02406178
0002b0 0e 5c 98 be f1 7e ad 3e 5d 57 f3 3d a5 9b af bc
       -0.29757732 0.3388591 0.118818976 -0.021436522
0002c0 fd 33 b9 3d 8b b9 93 bd 39 f6 1d 3e 93 32 51 3e
       0.09043119 -0.07213124 0.15425958 0.20429449
0002d0 23 60 92 be a4 21 2e 3d 75 73 d1 3d 3a 74 08 be
       -0.28588971 0.04251255 0.102271 -0.13325587
0002e0 64 81 b0 bd f0 cc f6 bd 1b ac b3 bc 0c ab a7 bd
       -0.08618429 -0.120508075 -0.021932652 -0.081869215
0002f0 7e 9b d9 3d a4 15 93 be 9a 66 1b 3e 85 5d bb be
       0.10625361 -0.28727448 0.15175858 -0.36594787
000300 94 66 b8 bd f2 a1 0e be c4 dd a1 3d d0 83 1a bd
       -0.0900394 -0.13928965 0.079036266 -0.037723362
000310 4e 8e 9f ba 41 7d 96 3d 18 50 46 bc 29 c1 d5 bd
       -0.0012173147 0.07348109 -0.012104057 -0.10437233
000320 08 4e 5a be 80 68 ae bd a8 09 3b bd f3 df 6b 3e
       -0.21318829 -0.085160255 -0.045663506 0.23034649
000330 b2 c8 f7 3c 9a 3f 0c bd 0c 0c 01 bf 61 f0 67 be
       0.030247066 -0.034240343 -0.5040901 -0.22650291
000340 5e b4 55 3b 48 9d 2d 3e b1 ee 97 3d f7 85 9b 3c
       0.0032608728 0.1695453 0.07418574 0.018984778
000350 cf ce 86 be d8 58 07 bf 3a a3 36 3d 0c 28 2c be
       -0.26329657 -0.5286994 0.04458926 -0.16812152
000360 61 b4 38 be da eb 3f 3e ea d5 a9 be 4d 19 3f 3d
       -0.18037559 0.18742314 -0.33171016 0.046654988
000370 d5 a1 ec bd a5 8b 38 3d 84 56 af bd 06 75 9b be
       -0.115543045 0.04505505 -0.085614234 -0.3036272
000380 d8 78 49 3d d2 fa b3 be 2c fb 19 3d 9c 18 a8 be
       0.04918751 -0.35152298 0.03759305 -0.32831275
000390 69 64 30 3e e6 8c 84 3e 31 25 41 3d a6 f4 c5 3c
       0.17225803 0.25888747 0.04715461 0.024164509
0003a0 fa 16 fd 3d c1 78 99 be e3 e4 84 be d8 12 64 3e
       0.12357898 -0.2997494 -0.25955877 0.22272813
0003b0 d6 40 de 3c 5c 80 5f 3e 0e 0d fa 3d 06 86 f9 3d
       0.027130526 0.21826309 0.12209521 0.12183766
0003c0 66 64 ea 3b fe 0d 34 be 7a bf 2d be eb ec bc 3d
       0.0071530817 -0.17583463 -0.16967574 0.09224876
0003d0 69 54 fa bc 6c 2e 8e be 3f 75 13 3e ca a9 69 be
       -0.030557828 -0.27769792 0.14400195 -0.22818676
0003e0 54 63 34 be ac b7 b0 bc 30 d7 5b 3e cc d1 f0 bd
       -0.17616016 -0.021571957 0.21468806 -0.117587656
0003f0 66 9e d8 3d 71 46 01 bf d5 64 30 3e c2 2c 88 bd
       0.10577087 -0.5049811 0.17225964 -0.06649162

lin_embs.1.weight f4 [10, 32]
000000 04 55 d8 bd e8 4d a0 3e 24 f7 92 3e 1d 0c 6f bd
       -0.105630904 0.31309438 0.28704178 -0.05836116
000010 05 fe 5c 3d 3c 5d 2d 3e 01 13 8e bc 04 15 01 3c
       0.05395319 0.16930097 -0.017343046 0.007878546
000020 d2 46 28 be ea 34 97 3d 60 14 81 3c f6 e9 e1 3c
       -0.16433266 0.073831394 0.015756786 0.027577382
000030 62 15 ca be 83 b1 c2 3e 1f b7 ff 3d cb 08 2c 3e
       -0.3946944 0.38026056 0.124860995 0.16800229
000040 88 85 4f be ba 87 80 3e 83 82 b8 bc 77 1c 65 3d
       -0.20265782 0.2510355 -0.02252317 0.05593535
000050 f8 60 a3 3e dc b5 98 bd 93 c4 05 3e 89 3b 97 bd
       0.3190992 -0.07456562 0.13063268 -0.07384402
000060 48 fb cb 3d 3f cf b9 bd c5 27 ea 3d 84 86 bd 3d
       0.099600375 -0.09072732 0.11433367 0.092541724
000070 a7 99 64 be 20 62 4c 3d 5a e6 8e bd 79 62 55 3b
       -0.22324239 0.049898267 -0.0697753 0.0032559915
000080 8a 64 b4 3d 1e 56 90 3d 75 e8 d9 bd 6f a1 e5 3e
       0.08808239 0.070476755 -0.10640041 0.44849727
000090 2b ca fd bd 12 53 23 bd 11 e3 8e 3c 66 83 84 3e
       -0.12392076 -0.039874144 0.017442258 0.258815
0000a0 e5 a4 97 3b 69 b2 49 bc 10 e3 26 3e ba a7 77 bc
       0.0046278113 -0.012310603 0.16297555 -0.015115673
0000b0 d7 4b 01 be 27 26 44 3e 82 42 1e 3d ff 4c f3 be
       -0.12626587 0.19155179 0.038637646 -0.4751968
0000c0 1e 56 83 be 35 0a 98 be 28 7f 50 bd e2 9c b6 3e
       -0.2565164 -0.29695287 -0.050902516 0.35666567
0000d0 4a aa e2 3c 70 b4 a3 3d 04 83 18 be c8 b3 4a be
       0.02766909 0.079934 -0.14893728 -0.19795144
0000e0 c4 c3 50 bd ad 69 a3 3e e8 01 87 3e 1b 46 d7 3d
       -0.050967947 0.31916562 0.26368642 0.105114184
0000f0 ff 70 8c 3b 54 b8 37 be 41 f9 c3 bd 6f 97 8f bd
       0.004285931 -0.1794141 -0.09569026 -0.070113055
000100 c6 af 27 be 23 f1 60 be 10 33 a1 be bf 17 e6 bd
       -0.16375646 -0.21966986 -0.3148427 -0.11234998
000110 bd 86 0d be 53 6d b8 bd e8 ea a8 be b1 1a 3d be
       -0.1382093 -0.09005227 -0.3299172 -0.18467213
000120 3d 2f 4c 3e f9 32 b4 bd 37 de 34 3e 76 e2 0d bd
       0.19939895 -0.08798785 0.17662893 -0.034639798
000130 4b 87 4e be e1 94 13 be 52 e2 02 bc 7f e5 8e bd
       -0.20168798 -0.14412262 -0.007988529 -0.06977367
000140 6f bc f4 bd 73 a1 2d bc c2 f0 49 bd af 46 0a 3e
       -0.11950003 -0.0105975745 -0.04930187 0.13503526
000150 e3 44 33 be b8 08 e5 3c 23 49 a4 3e af 39 a1 3e
       -0.17506747 0.027958259 0.3208705 0.31489322
000160 4b 28 8e 3e 66 31 fa 3d eb 6b 41 3c 28 6e 27 3e
       0.27765116 0.12216453 0.011805515 0.16350615
000170 89 08 40 be 1d 13 90 bd b0 93 d6 3d 00 fd 4c be
       -0.18753256 -0.070348956 0.10477388 -0.20018387
000180 9d 13 bf 3d f1 44 2e be 15 a3 1c be 9b e4 9e be
       0.09329913 -0.17018487 -0.15296586 -0.31033787
000190 61 67 b2 3d 38 94 ed 3e 1e fe 52 be 1a 44 a1 3e
       0.08711124 0.46402144 -0.2060475 0.3149727
0001a0 e2 00 e4 bd 7e 91 66 3d 41 1c 58 bd b0 3f b3 3e
       -0.11132981 0.056291096 -0.05276132 0.35009527
0001b0 21 57 09 b9 fe f8 19 bb f1 0c 44 be cc f0 c7 be
       -0.00013097796 -0.0023494358 -0.19145562 -0.390509
0001c0 48 e0 94 bd 6a e4 cb bc cd 22 90 be ca f8 1b 3e
       -0.07269341 -0.02488919 -0.2815155 0.15231624
0001d0 fc 00 8f 3d 90 5b 0d 3e 6b 38 9e bd c2 b8 03 bd
       0.0698261 0.1380446 -0.077256046 -0.03215862
0001e0 47 41 de 3d 81 45 ba bd 8e ae 82 3e a7 bc 96 be
       0.108522944 -0.09095288 0.255238 -0.29440805
0001f0 8b 13 ca bd ad 21 21 3e 6a 72 07 bd 3e 85 0b be
       -0.09867009 0.15735503 -0.033068098 -0.13625047
000200 26 91 a2 3e 1c a0 da bc 69 93 49 be c3 4e 12 3e
       0.31751364 -0.026687674 -0.19685139 0.14287858
000210 96 ec c6 3d 88 27 5d be 4e ea 82 3d b2 86 47 be
       0.09713094 -0.21597111 0.06392346 -0.19484976
000220 35 21 80 bd ff 18 a7 3e ef 83 bf 3d aa 2f 5a 3d
       -0.06256334 0.32636258 0.09351336 0.053268112
000230 1c d2 12 3e 95 26 b0 3d e8 03 e9 3e ad 27 ed be
       0.14337963 0.08601109 0.45510793 -0.46319333
000240 2c 29 82 3e 92 b4 11 be 57 ea 5e be 12 0e 89 3d
       0.25422037 -0.14229038 -0.21769081 0.06692137
000250 92 ac e3 3d 4a 98 51 be 76 81 80 be 7b 43 9d 3d
       0.111168995 -0.2046825 -0.2509877 0.076788865
000260 74 11 98 bd a8 e5 02 3e ca 31 31 3e 88 0f 9e 3e
       -0.07425204 0.1278292 0.1730415 0.30871224
000270 27 b1 70 3d 64 b6 c8 3e 06 cd 49 be 0d b6 84 be
       0.058762696 0.39201653 -0.19707116 -0.25920144
000280 49 ed 3c 3e bd 78 d3 bb 51 30 68 3d 6d af 79 be
       0.18449892 -0.006453602 0.056686703 -0.24383326
000290 72 dc 2a bd dd ca 6c 3e cf 88 86 3d 62 94 a6 3e
       -0.04171414 0.23124261 0.06569063 0.32535082
0002a0 1f 7c 2a be 7b 6c 40 be c6 ec 4b 3c 24 b4 c0 3c
       -0.16648911 -0.18791382 0.012446588 0.023523398
0002b0 37 95 18 3e c4 d7 ff bb 29 0a 9f be 4e bb 0b 3d
       0.14900671 -0.0078077037 -0.3106244 0.034114175
0002c0 b4 c4 6e 3c 1e 54 93 3e 74 33 cf 3d e0 eb d3 bc
       0.014573265 0.28775114 0.10117236 -0.02586931
0002d0 96 cd 10 3e e2 d8 f1 3d 51 a7 5c be b8 0a 43 3d
       0.14140925 0.11808945 -0.21548201 0.047617644
0002e0 4e 95 1c 3b 2e cc 26 3d 06 bb 0f be 9e 84 8a 3e
       0.0023892703 0.040722065 -0.14036188 0.27054304
0002f0 91 0f 19 3e 08 dc 7b 3e 7e 53 b8 bd 6c 78 84 3d
       0.14947344 0.24595654 -0.090003 0.06468281
000300 aa 3c d0 3d 76 78 5a 3d 89 c6 5c be d5 d8 ad be
       0.10167821 0.053337537 -0.2156011 -0.33954492
000310 d3 72 da bc c7 ad f0 bc 97 ed 49 be 9f 54 c5 bc
       -0.02666608 -0.029379738 -0.1971954 -0.024088202
000320 b8 b6 22 3d 08 d1 e3 bd d6 c4 f8 bc 3e 4d d2 3e
       0.039725035 -0.11123854 -0.030367296 0.41074556
000330 2b 80 39 bd 2b 6a 17 3e 69 f6 95 3e 84 71 ec bd
       -0.045288246 0.14786594 0.2928956 -0.11545089
000340 02 7a 93 3d 60 ff 02 be ce 93 d2 bd 0b 2c eb bb
       0.072010055 -0.1279273 -0.10282098 -0.007176881
000350 f2 3b 4f 3e 73 dd ae 3e 88 13 91 3d ed 97 42 3e
       0.20237711 0.34153327 0.070838034 0.19003268
000360 e6 1f f9 bd 85 5c 54 be 0b 40 70 be 78 85 f3 be
       -0.12164287 -0.20738418 -0.2346193 -0.47562766
000370 4d d9 8f bb 91 8c f4 3c d0 a2 3d bd 48 2a 18 3e
       -0.004389918 0.029852184 -0.04629785 0.14859879
000380 b3 3c 62 be ab b2 35 be 56 6e 3c be 1c 82 89 3d
       -0.22093467 -0.17743938 -0.18401465 0.067142695
000390 de a2 36 3e 6a 99 62 be f3 cc 85 3d 3b 34 d6 bd
       0.17835566 -0.22128835 0.065332316 -0.10459181
0003a0 6c 14 d5 be 54 8b 2d 3e 98 0c e5 3c 4a 36 f3 bd
       -0.41617143 0.1694768 0.027960107 -0.11875589
0003b0 1d 58 39 bc d5 6e 98 3d 7f 14 b4 bc 99 b7 b2 bc
       -0.011312512 0.074430145 -0.02198243 -0.021816062
0003c0 e9 03 e1 3d 7f f2 98 3d 45 a0 f5 bd da 5c 5c 3e
       0.10987074 0.074681275 -0.119934596 0.21519795
0003d0 06 2c 89 be 5d 72 9b bd a6 d4 cd 3e 9b 7f 2c be
       -0.267914 -0.075901724 0.402013 -0.16845553
0003e0 18 8a 93 be 08 12 1c 3e 0c 2f 8b 3d 2a 9d a3 be
       -0.28816295 0.15241253 0.06796083 -0.31955844
0003f0 ff b0 c5 bd f3 a7 02 be b1 08 c2 bd 9c 6e c2 be
       -0.096529 -0.1275938 -0.09474314 -0.37975013
