models/mnist_deep_neuron_embedding.pth (torch, 177095 bytes, 11 tensors)

biases.0 f4 [600]
0	0xbdb722a1	-0.08942152
1	0xbdf4e511	-0.119577534
2	0x3c1c7252	0.00954874
3	0xbda4504b	-0.08023127
4	0xbda5ca1f	-0.08095192
5	0xbe77d7c6	-0.24203405
6	0xbd02d75c	-0.031943664
7	0xbca7c3e4	-0.02047915
8	0xbd18211f	-0.03714096
9	0xbd4a6158	-0.04940924
10	0xbdaf1b2b	-0.08550104
11	0xbd9e821b	-0.077396594
12	0xbe4f19e1	-0.20224716
13	0xbdd2213a	-0.10260244
14	0xbccef95e	-0.025265392
15	0xbe083ce6	-0.13304481
16	0x3e162702	0.14663318
17	0xbe04308d	-0.12909146
18	0xbda636f7	-0.081159525
19	0xbdd9b0a0	-0.10629392
20	0xbdc8e2ae	-0.09808861
21	0xbd24ece6	-0.040264986
22	0xbde1e356	-0.11029689
23	0xbda0217c	-0.07818887
24	0xbe3305fa	-0.17482749
25	0xbde870e3	-0.113496564
26	0xbdd81c47	-0.105522685
27	0xbdee3955	-0.11632029
28	0xbdb83e92	-0.08996309
29	0xbd50da80	-0.050989628
30	0x3e2b2f3a	0.16717234
31	0xbe9209e4	-0.2852317
32	0xbdf773f2	-0.12082662
33	0xbdb82e33	-0.08993187
34	0x3c2bc5e1	0.01048419
35	0xbc2d40c5	-0.010574524
36	0x3c650948	0.013979264
37	0xbdb723aa	-0.08942349
38	0xbc773317	-0.015087864
39	0xbe0da94f	-0.13834117
40	0x3cebab6e	0.028768267
41	0xbdc5aa32	-0.09651603
42	0x3e5ed90a	0.21762481
43	0xbdc9daba	-0.09856172
44	0xbbd256a0	-0.006419018
45	0xbd070e63	-0.032972705
46	0x3db0b6fd	0.08628652
47	0x3d34f8be	0.04418253
48	0xbd014b2d	-0.031565834
49	0x3d25e89b	0.040505033
50	0xbe7e999c	-0.24863285
51	0x3b16c9be	0.0023008431
52	0xbd7746ce	-0.06037026
53	0xbe9134b7	-0.2836053
54	0xbe82b4b9	-0.25528505
55	0xbdb624d9	-0.08893747
56	0x3dfc9e74	0.1233491
57	0xbd27e0a5	-0.040985722
58	0x3bc01805	0.0058622384
59	0xbd4f033c	-0.050540194
60	0xbadc9ff6	-0.001683234
61	0xbdcb6acf	-0.099324815
62	0xbe1fef10	-0.15618539
63	0xbe399e52	-0.181268
64	0x3dd87479	0.105690904
65	0xbde21c08	-0.11040503
66	0x3a53fa13	0.0008086275
67	0xbe134d72	-0.14385012
68	0x3e507a97	0.20359264
69	0xbd43e3a0	-0.047824502
70	0x39e89010	0.00044357823
71	0x3d1937f5	0.03740688
72	0xbe21a54f	-0.15785716
73	0xbdd1f922	-0.102525964
74	0x3d0cc6a2	0.03436912
75	0xbd5154a3	-0.051106106
76	0xbd9370da	-0.07199259
77	0xbd0b3355	-0.0339845
78	0xbd361c77	-0.04446074
79	0xbdcfa2e7	-0.10138493
80	0xbe2bfa57	-0.16794716
81	0xbdd2eff9	-0.102996774
82	0xbe6eac31	-0.23307873
83	0xbdd575ef	-0.10422885
84	0xbdeb8d3f	-0.1150155
85	0xbe1743dd	-0.14771982
86	0xbd7101ba	-0.058839537
87	0x3da2ebcd	0.07955132
88	0xbd9e59f1	-0.07731999
89	0x3aa8b83a	0.0012872287
90	0xbd26f097	-0.040756788
91	0xbd0d2043	-0.034454595
92	0xbda32580	-0.07966137
93	0xbd7f18e6	-0.062279604
94	0x3db9bb01	0.09068871
95	0xbca93d4a	-0.020659108
96	0xbe073490	-0.13203645
97	0xbe3a672d	-0.18203421
98	0xbd561e2a	-0.05227486
99	0xbe0fe225	-0.14051111
100	0x3d96707c	0.073456734
101	0xbe482459	-0.19545116
102	0x3da36aae	0.07979332
103	0xbe43ef8f	-0.19134353
104	0xbe193f15	-0.1496547
105	0xbe5bef2b	-0.21477954
106	0xbc12ad19	-0.0089524025
107	0xbe0ae173	-0.13562565
108	0xbdc6731b	-0.096899234
109	0xbde2d266	-0.110752866
110	0xbe002ad3	-0.12516336
111	0xbe30840b	-0.1723787
112	0xbdc1cb1b	-0.094625674
113	0x3d8bf6ff	0.0683422
114	0x3d87fcc0	0.06640005
115	0xbe030416	-0.12794527
116	0xbdf7290a	-0.120683745
117	0xbdc549d8	-0.09633225
118	0xbe1ffcc0	-0.1562376
119	0xbd816e52	-0.0631987
120	0x3ceb906f	0.028755395
121	0x3d6553ed	0.05598824
122	0xbc02f1a3	-0.007992181
123	0xbe0240b3	-0.12719993
124	0xbca2c504	-0.019869335
125	0xbd9f3bf2	-0.077751055
126	0xbbd09293	-0.0063651293
127	0x3dcdc203	0.100467704
128	0xbda601fb	-0.081058465
129	0xbe09429d	-0.13404317
130	0xbddd89ae	-0.10817276
131	0xbe0d7fe6	-0.1381832
132	0xbd5c2f7c	-0.053756222
133	0xbd0ebd80	-0.03484869
134	0xbd890f63	-0.06692388
135	0xbe092e4b	-0.13396566
136	0xbe31910e	-0.1734049
137	0x3d9d946d	0.076943256
138	0x3de47656	0.11155383
139	0xbd25f091	-0.040512625
140	0xbe4316c9	-0.1905166
141	0xbe1e25b9	-0.15444078
142	0xbc1b4250	-0.009476259
143	0xbd6c2cde	-0.057659976
144	0xbde25268	-0.11050874
145	0x3cc7900c	0.02436068
146	0xbd09b13c	-0.03361629
147	0xbd10ca70	-0.03534931
148	0xbcfe2f99	-0.031028556
149	0xbe46211a	-0.19348565
150	0xbe2b3967	-0.16721116
151	0xbe21d013	-0.1580203
152	0xbd9ea448	-0.07746178
153	0xbd1dd5b6	-0.03853389
154	0x3c351091	0.011051313
155	0xbdcfcbb2	-0.10146274
156	0xbde6a8de	-0.112626776
157	0xbe5b53fe	-0.21418759
158	0xbb89b9da	-0.0042030634
159	0xbe1341e7	-0.14380608
160	0x3d5a02fb	0.0532255
161	0xbe49956e	-0.19685909
162	0xbdfa43df	-0.12219977
163	0xbd9f0310	-0.07764256
164	0xbe64abf2	-0.22331217
165	0xbe11ecab	-0.14250438
166	0xbe04d426	-0.12971553
167	0xbd162d96	-0.036664568
168	0xbd92070a	-0.07130249
169	0xbdc1643c	-0.09442946
170	0xbe17f011	-0.14837672
171	0xbd8d3caa	-0.068963364
172	0x3c81dbe0	0.015851915
173	0xbbd5299d	-0.006505205
174	0x3d6b286a	0.05741159
175	0x3d4d7870	0.050163686
176	0xbd3a2279	-0.045443032
177	0xbde35b20	-0.11101365
178	0xbbc6534a	-0.0060524093
179	0xbdd15fda	-0.1022336
180	0xbe06bdbc	-0.13158315
181	0xbe48e6a4	-0.19619232
182	0x3c6f32ca	0.014599511
183	0xbdce8e22	-0.100857034
184	0xbdedff6d	-0.11620984
185	0xbd10e237	-0.035371985
186	0xbd60166a	-0.054708876
187	0xbe00dba1	-0.12583782
188	0xbdb5c3df	-0.0887525
189	0xbe3e2da5	-0.185721
190	0xbdd38fbf	-0.10330152
191	0xbc7415e7	-0.0148978
192	0xbd976a09	-0.073932715
193	0xbda6244c	-0.08112392
194	0xbe0f3573	-0.13985233
195	0xbd902148	-0.07037598
196	0xbdc7087c	-0.09718415
197	0xbdd0606d	-0.10174642
198	0xbe1962aa	-0.14979044
199	0xbe42f8fe	-0.19040295
200	0x3c9ae460	0.018907726
201	0xbdc292f6	-0.09500687
202	0xbe016711	-0.12636973
203	0x3d95a149	0.07306153
204	0xbe58e446	-0.2118083
205	0xbde4c06b	-0.11169513
206	0xbe251314	-0.16120559
207	0xbe0dce90	-0.13848329
208	0xbdbe4b02	-0.0929165
209	0xbdc8f1dc	-0.09811756
210	0xbdfe9edf	-0.12432646
211	0xbdcaed90	-0.09908593
212	0xbd05509a	-0.03254757
213	0xbdb3b2d0	-0.0877434
214	0xbe3de5b1	-0.18544652
215	0xbe092f90	-0.1339705
216	0x3d0f7f51	0.035033528
217	0xbe25bd09	-0.16185392
218	0x3c634512	0.013871448
219	0xbe4a7052	-0.1976941
220	0xbdbb3acc	-0.09142074
221	0xbe8ba5b6	-0.27274865
222	0xbe0da842	-0.13833717
223	0xbd4e1225	-0.050310273
224	0xbe1c1fd7	-0.15246521
225	0xbd833164	-0.06405905
226	0xbe03ad62	-0.12859109
227	0xbdaefdb5	-0.085444845
228	0xbd5892e0	-0.052874446
229	0xbc725c49	-0.01479251
230	0xbd5ad1be	-0.053422682
231	0xbe43019e	-0.19043586
232	0xbe021ded	-0.12706728
233	0xbdd4c96f	-0.10389983
234	0xbd7735e1	-0.060354117
235	0xbd62fe45	-0.05541827
236	0xbda80256	-0.082035705
237	0xbde874f6	-0.113504335
238	0xbd3a2076	-0.045441113
239	0x3c5c5e7e	0.013450263
240	0xbe06c033	-0.13159256
241	0xbe39d0ac	-0.18146008
242	0xbd768414	-0.060184553
243	0xbe192fe1	-0.1495967
244	0xbe0de81a	-0.13858071
245	0xbe0303ab	-0.12794368
246	0xbcac0b4b	-0.021001479
247	0xbe40b545	-0.18819149
248	0xbde338aa	-0.11094792
249	0xbe17a5d6	-0.14809355
250	0xbe15c12b	-0.14624469
251	0xbc3470c2	-0.011013212
252	0xbdccf25c	-0.10007164
253	0xbe0ccaa1	-0.13749172
254	0xbdd4eb69	-0.103964634
255	0xbda28f5d	-0.079375006

biases.1 f4 [600]
0	0xbc3b3a9a	-0.011427546
1	0x3dd31b5b	0.10307952
2	0x3e520f5c	0.20513672
3	0xbc3e294f	-0.011606528
4	0xbd96b20f	-0.07358181
5	0xbd0008bd	-0.031258333
6	0xbdd3d042	-0.103424564
7	0xbd6bb725	-0.057547707
8	0xbc49afee	-0.012310011
9	0x3c28f394	0.01031198
10	0xbe21218a	-0.1573545
11	0xbdbc7a04	-0.0920296
12	0xbdceaf23	-0.100919984
13	0x3e69478c	0.22781199
14	0xbd97fb34	-0.0742096
15	0xbd8ee83d	-0.0697789
16	0xbce4969a	-0.027903844
17	0xbca273ee	-0.01983067
18	0xbdb5eb7b	-0.08882805
19	0xbe08a311	-0.13343455
20	0xbe7b2636	-0.24526295
21	0xbdd7b46b	-0.10532459
22	0x3cb8f1ee	0.022576299
23	0xbd01e280	-0.031710148
24	0x3c1d5115	0.009601851
25	0xbe817c98	-0.2529037
26	0xbdb200cd	-0.08691559
27	0xbe3d6c17	-0.18498264
28	0x3e0a1f6c	0.13488549
29	0xbddc1f92	-0.10748209
30	0xbdfe3482	-0.12412359
31	0xbd502441	-0.050815824
32	0xbe00c44e	-0.12574884
33	0xbe20d3c6	-0.15705785
34	0xbe2348e2	-0.15945771
35	0xbd845c5b	-0.06462928
36	0xbe414bbb	-0.18876545
37	0xbddb4210	-0.1070596
38	0xbd6bea2d	-0.057596374
39	0xbd8028cf	-0.062577836
40	0xbe0fe5b1	-0.14052464
41	0x3c80eb62	0.01573724
42	0x3b6d0b7d	0.0036170178
43	0xbdac8c9e	-0.08425258
44	0xbe3d8f60	-0.18511724
45	0xbdd4420e	-0.103641614
46	0xbe19c2de	-0.15015742
47	0xbe7f4e65	-0.24932249
48	0xbc2ebe5c	-0.010665502
49	0xbe1b0587	-0.15138827
50	0x3d0bb5d0	0.034108937
51	0xbe4c44d1	-0.19948126
52	0xbdfd3101	-0.123628624
53	0x3bf59bf5	0.007495398
54	0xbdcaae3e	-0.09896515
55	0xbde9aa4a	-0.11409433
56	0xbdd5a9fe	-0.10432814
57	0xbe0f5b16	-0.1399959
58	0xbd9249ef	-0.07143008
59	0xbdb8676a	-0.090041
60	0xbde3d45b	-0.11124488
61	0xbcbf89ab	-0.023381075
62	0xbe598026	-0.21240291
63	0x3e1430d0	0.14471745
64	0xbdd31230	-0.10306203
65	0xbdaef85b	-0.08543464
66	0xbe0b9438	-0.1363076
67	0xbdf8eba9	-0.121543236
68	0xbc915eb9	-0.017745363
69	0xbddac6c4	-0.10682443
70	0xbe99124d	-0.29896775
71	0xbdfd205b	-0.12359687
72	0xbbee9982	-0.007281483
73	0xbdfe71ae	-0.124240264
74	0xbe14b599	-0.14522399
75	0xbd4f32fd	-0.050585736
76	0xbd121014	-0.035659865
77	0xbd5e1aa2	-0.054224618
78	0xbd20c7d4	-0.03925307
79	0xba7f1bdb	-0.0009731629
80	0xbe240165	-0.16016157
81	0xbc2f5ce4	-0.010703299
82	0xbdbfd1c1	-0.09366179
83	0xbde9d981	-0.11418439
84	0xbe763cab	-0.2404658
85	0x3d0c9750	0.03432399
86	0x3cb4a22e	0.02204999
87	0xbda77489	-0.08176524
88	0x3be4843d	0.006973772
89	0x3c6ada76	0.014334312
90	0xbde7589f	-0.112962
91	0xbd8fa4b1	-0.07013834
92	0xbdbcdfe9	-0.09222395
93	0xbdf42e82	-0.11922933
94	0xbd88cb60	-0.06679416
95	0xbd434a6c	-0.047678396
96	0x3c73caf7	0.014879934
97	0xbe113f2f	-0.14184259
98	0x3e4fbf98	0.20287931
99	0xbdc3564c	-0.09537944
100	0xbd3781bd	-0.044801462
101	0x3d5e5ba8	0.05428663
102	0xbd2591de	-0.040422313
103	0xbd9ad4d0	-0.07560122
104	0x3d69ee4d	0.057112027
105	0xbdbf9005	-0.093536414
106	0x3d9fd977	0.0780515
107	0xbda9db64	-0.082937986
108	0xbe5e5969	-0.21713795
109	0xbde54ec4	-0.11196664
110	0xbe260073	-0.16211109
111	0xbe2956a9	-0.16536964
112	0xbded92ab	-0.1160024
113	0xbd7c6acd	-0.06162529
114	0x3d4ed797	0.05049857
115	0xbd3b5a1f	-0.045740243
116	0xbbcbc165	-0.006218123
117	0x3dbde4d0	0.09272158
118	0xbe28b049	-0.16473497
119	0xbe8b819b	-0.2724732
120	0xbd2e3135	-0.042527396
121	0xbe34984d	-0.17636223
122	0xbc03cb0f	-0.008044018
123	0xbe69d6cb	-0.22835843
124	0xbdfb6a9d	-0.12276194
125	0x3c125b97	0.0089329695
126	0xbd729889	-0.0592275
127	0xbe34351e	-0.17598388
128	0xbcbba890	-0.022907525
129	0x3dcf7443	0.10129597
130	0x3c580330	0.013184354
131	0xbdac90b4	-0.084260374
132	0xbe434df8	-0.19072711
133	0xbdc87b2f	-0.097891204
134	0xbe289714	-0.16463882
135	0xbd8f5831	-0.06999243
136	0xbdf00e0d	-0.1172143
137	0xbe0692c9	-0.13141932
138	0xbe2ab26d	-0.16669627
139	0xbd1365bf	-0.035985705
140	0x3dc347ca	0.09535177
141	0xbdcd80ed	-0.10034356
142	0xbd4260e9	-0.047455702
143	0xbe6a5ee0	-0.22887754
144	0x3b312d70	0.002703514
145	0xbddc7ecf	-0.10766374
146	0xbd6ba263	-0.05752791
147	0xbddd2aae	-0.10799156
148	0xbe028fb9	-0.12750138
149	0xbdef9c06	-0.11699681
150	0x3d15a69e	0.03653585
151	0xbdb4f89e	-0.088364825
152	0xbe07d4b0	-0.13264728
153	0xbdf2d856	-0.11857669
154	0xbd8ef2c9	-0.06979901
155	0xbdd83cbf	-0.105584614
156	0xbdabbfad	-0.08386169
157	0xbdb395d1	-0.087688096
158	0x3db0a35a	0.08624907
159	0x3d04ec3d	0.032451857
160	0xbda46dc7	-0.08028751
161	0xbe762b76	-0.24040017
162	0x3d3a02ee	0.04541295
163	0x3d865b0c	0.065603346
164	0xbe266bcf	-0.16252063
165	0xbde37ca7	-0.1110776
166	0xbd94bd10	-0.07262623
167	0xbe14d05f	-0.14532612
168	0xbd3cf4b4	-0.046131805
169	0x3d9b102c	0.07571444
170	0xbd8c6c55	-0.068566
171	0xbadccea8	-0.0016846256
172	0xbd88c7a9	-0.06678707
173	0x3e8da6f8	0.2766645
174	0xbe149fb6	-0.1451405
175	0xbdd89826	-0.10575895
176	0xbd24e09f	-0.040253278
177	0xbde3fd33	-0.11132278
178	0xbe0ce3b6	-0.1375874
179	0xbbec5b9a	-0.007213068
180	0xbdf2410a	-0.118288115
181	0xbd89850a	-0.06714828
182	0xbdf9d50a	-0.12198837
183	0x3e2eb2e0	0.17060423
184	0xbddf9c8e	-0.10918532
185	0x3d17b284	0.03703548
186	0x3db8e6e6	0.090284154
187	0xbe1c86d5	-0.1528581
188	0x3d7905f0	0.060796678
189	0xbc65165b	-0.013982381
190	0x3a9165e9	0.0011092994
191	0xbe268b4c	-0.16264075
192	0xbde28a50	-0.11061537
193	0xbe1ef8b3	-0.15524559
194	0xbde77165	-0.11300925
195	0xbe60fe31	-0.21971966
196	0xbe779f6c	-0.24181908
197	0xbc9779ba	-0.018490661
198	0xbd93e98d	-0.07222281
199	0xbe7145cc	-0.23561782
200	0xbe6d1c82	-0.23155406
201	0xbdb1e02b	-0.08685335
202	0xbdf2b3b3	-0.11850681
203	0xbcf82c90	-0.030294687
204	0xbdd801ba	-0.10547204
205	0xbdb41f89	-0.08795077
206	0xbce3d516	-0.027811568
207	0xbe06e631	-0.13173749
208	0xbe5bee7d	-0.21477695
209	0xbe2bd7ce	-0.16781542
210	0xbe424889	-0.18972982
211	0xbe6956a5	-0.22786959
212	0xbe387b4f	-0.18015788
213	0xbe06cb39	-0.13163461
214	0xbdc9511c	-0.098299235
215	0xbc34b5e8	-0.011029698
216	0xbd4e5b74	-0.050380185
217	0xbe8f9958	-0.2804668
218	0xbe62d839	-0.22152795
219	0xbdcebbf9	-0.10094447
220	0xbe8875d2	-0.2665239
221	0x3d131656	0.035909973
222	0xbd90aa46	-0.07063727
223	0xbdba0452	-0.09082855
224	0xbdc2ee43	-0.09518101
225	0x3b742271	0.0037251974
226	0x3d7dff92	0.06201131
227	0xbdf9061e	-0.1215937
228	0xbe5d5dc0	-0.21617794
229	0x3daa78cd	0.08323822
230	0x3e020f34	0.12701112
231	0xbd33e9ff	-0.043924328
232	0xbe41d405	-0.18928535
233	0xbd2b0683	-0.041754257
234	0xbd9bd9d0	-0.07609904
235	0xbd6595a2	-0.056050904
236	0xbe2fe492	-0.17177036
237	0xbdadc083	-0.08483984
238	0xbe18be3e	-0.14916322
239	0xbdb49788	-0.08817965
240	0xbd9584e1	-0.07300735
241	0xbd9322ee	-0.07184397
242	0x3d95f9e5	0.07323054
243	0xbd30d3f9	-0.043170903
244	0xbdcca0af	-0.099915855
245	0xbe601fe7	-0.2188717
246	0xbdcc3d18	-0.0997259
247	0xbd170fb8	-0.036880225
248	0xbdcae451	-0.09906829
249	0xbdcd4090	-0.1002208
250	0xbd94ed62	-0.0727184
251	0x3c81b4a8	0.015833214
252	0x3df0971b	0.11747571
253	0xbe021233	-0.12702255
254	0xbdbeb948	-0.09312683
255	0xbdc06114	-0.09393516

biases.2 f4 [400]
0	0xbd869368	-0.06571084
1	0xbdaee2fc	-0.085393876
2	0xbe04b361	-0.12959053
3	0xbdbcc54e	-0.092173204
4	0xbdf7a32a	-0.12091668
5	0xbda771eb	-0.08176025
6	0x3cd54c8f	0.026037483
7	0x3d654d8b	0.055982154
8	0xbd9d8555	-0.07691447
9	0xbd257afb	-0.040400486
10	0xbd75643b	-0.05991004
11	0xbd796edf	-0.06089675
12	0xbc85080b	-0.016239187
13	0xbda6907e	-0.081330284
14	0xbc9bf2bf	-0.019036649
15	0xbe2dccbe	-0.16972634
16	0xbd7c6f71	-0.061629716
17	0x3cfadf4f	0.03062406
18	0xbe4948b9	-0.19656648
19	0xbc9c4496	-0.019075673
20	0xbe2944c7	-0.16530143
21	0xbdbb67c5	-0.09150652
22	0xbe797711	-0.24361826
23	0xbc3f5bac	-0.011679571
24	0x3be553d6	0.0069985194
25	0xbc47bdef	-0.01219128
26	0x3cd59996	0.026074212
27	0xbdae165a	-0.08500357
28	0xbde6b330	-0.11264646
29	0xbdb99f21	-0.090635546
30	0xbdfdb279	-0.123875566
31	0xbd0d87a0	-0.03455317
32	0xbd044f4c	-0.032302186
33	0xbdc1dee5	-0.09466342
34	0xbe4409c5	-0.19144352
35	0xbdb8ca76	-0.09022991
36	0xbda8df37	-0.082457
37	0xbdba202c	-0.090881675
38	0x3d0294eb	0.0318803
39	0xbdc9c17b	-0.098513566
40	0xbda264ac	-0.07929358
41	0xbe5042da	-0.20338002
42	0xbdd87c83	-0.10570624
43	0x3dc4f983	0.09617903
44	0xbdb3122d	-0.08743701
45	0x3d8463bd	0.06464336
46	0xbd20c9f9	-0.039255116
47	0xbe247e0f	-0.16063713
48	0x3e4a4ae4	0.19755131
49	0x3decd2c2	0.11563636
50	0x3ce94e7a	0.028479803
51	0xbe186dd7	-0.1488565
52	0xbde50cb6	-0.11184065
53	0x3d9181bd	0.07104824
54	0x3d0affcc	0.033935353
55	0xbca43c73	-0.020048356
56	0x3c2ddb92	0.010611432
57	0x3dd396be	0.10331486
58	0xbe0705e4	-0.13185841
59	0x3db4d46e	0.0882958
60	0xbd911d61	-0.07085682
61	0xbd93868f	-0.072033994
62	0xbc7fe39f	-0.015618234
63	0xbe13bfed	-0.14428683
64	0xbe3c8715	-0.18410905
65	0xbe2845a1	-0.16432811
66	0xbc69a730	-0.014261052
67	0xbe2f33b1	-0.17109562
68	0xbe14984f	-0.14511226
69	0xbe20fc85	-0.15721329
70	0x3da36a50	0.07979262
71	0xbde13b7c	-0.10997674
72	0xbd444d58	-0.047925323
73	0x3ce5231d	0.027970845
74	0xba1cc87d	-0.0005980803
75	0x3e150fc3	0.14556794
76	0xbe1a31d1	-0.15058066
77	0xbd513664	-0.05107726
78	0xbdc9e771	-0.09858597
79	0xbdf8383d	-0.121201016
80	0x3a466d87	0.00075694214
81	0xbe267326	-0.16254863
82	0xbe1f41a1	-0.15552379
83	0xbdc99662	-0.09843136
84	0xbd89a97a	-0.06721778
85	0xbd6268ec	-0.055275843
86	0xbe092337	-0.1339234
87	0xbdf93e16	-0.12170045
88	0x3e01648d	0.12636013
89	0x3deab172	0.11459626
90	0xbe2599db	-0.16171972
91	0xbe292273	-0.16517048
92	0xbdfe534f	-0.124182336
93	0xbdd5feaa	-0.10448964
94	0x3d2ecc0b	0.04267506
95	0xbd9ef7f2	-0.077621356
96	0x3e20ac1a	0.15690652
97	0xbcb22f5c	-0.021751098
98	0x3e9e7923	0.30951795
99	0xbc27a591	-0.010232345
100	0xbe073570	-0.13203979
101	0x3db12bb3	0.08650913
102	0xbd86e206	-0.06586079
103	0xbda5d0e8	-0.08096486
104	0xbdc5fb77	-0.09667104
105	0xbe170ec5	-0.14751728
106	0xbcdc37cf	-0.02688208
107	0xbe1af790	-0.151335
108	0xbd0d15df	-0.034444686
109	0x3c0718f9	0.0082457
110	0xbdba8011	-0.09106458
111	0xbda68e8f	-0.0813266
112	0xbe40fec3	-0.18847184
113	0xbd8e3ab9	-0.06944794
114	0xbe03acd2	-0.12858894
115	0xbdbffc85	-0.09374336
116	0xbde8b025	-0.11361722
117	0xbd81531d	-0.06314681
118	0xbd93dda2	-0.072200075
119	0xbe2bebc5	-0.16789158
120	0xbcabb226	-0.020958971
121	0xbd064cc1	-0.032788042
122	0x3bc2dedc	0.005946977
123	0xbda175a2	-0.07883765
124	0xbd8cc3fe	-0.0687332
125	0xbe5ccf58	-0.2156347
126	0xbdd37176	-0.10324375
127	0xbea797e7	-0.3273308
128	0x3e42a259	0.19007243
129	0x3e32a1c9	0.17444529
130	0xbd25d2b6	-0.040484153
131	0xbdb1eb68	-0.08687478
132	0xbe116390	-0.14198136
133	0xbdd30ca0	-0.103051424
134	0xbe4e4244	-0.20142466
135	0xbe048de4	-0.12944752
136	0xbd2741c8	-0.04083422
137	0xbe29c3e7	-0.16578637
138	0xbe47d28c	-0.19513911
139	0x3e7c74c3	0.24653916
140	0xbdba8341	-0.09107066
141	0xbdc2ac5f	-0.095055334
142	0x3eb487be	0.35259813
143	0x3d8c4f92	0.06851114
144	0x3b6a1488	0.0035717804
145	0xbe3823c2	-0.1798239
146	0xbdb1c875	-0.08680812
147	0x3e4dec2b	0.20109622
148	0x3c16eb6a	0.0092114005
149	0xbe0d00aa	-0.13769785
150	0xbe447c8a	-0.19188133
151	0xbd71faac	-0.05907695
152	0x3d5489b0	0.05188912
153	0xbd9d6f51	-0.076872475
154	0x3d0b9ae9	0.03408328
155	0xbdc6b3b3	-0.09702244
156	0xbe0e1927	-0.13876782
157	0x3ca89931	0.02058086
158	0xbdc5398e	-0.09630118
159	0xbda63527	-0.08115607
160	0xbe071ddf	-0.13194989
161	0xbe015a7d	-0.12632175
162	0xbda7e3ef	-0.08197772
163	0xbe25b53d	-0.16182418
164	0xbd909522	-0.07059695
165	0xbdb73357	-0.08945339
166	0x3c68d486	0.014210826
167	0xbe3f1c71	-0.18663193
168	0x3d6d6067	0.057953265
169	0x3dc954d9	0.098306365
170	0xbd85b708	-0.06529051
171	0x3b15fd2d	0.00228865
172	0xbce5ba08	-0.028042808
173	0xbe2e28ec	-0.17007798
174	0x3d01e3e4	0.031711474
175	0xbe20db00	-0.15708542
176	0xbce64b06	-0.028111946
177	0xbda96837	-0.082718305
178	0xbd3cb930	-0.046075046
179	0xbe533ff2	-0.20629862
180	0x3e15e072	0.146364
181	0xbe6dd0ca	-0.23224178
182	0xbe39226f	-0.18079542
183	0x3c8e3ed6	0.017363947
184	0xbcfb1d0c	-0.030653499
185	0xbe03af7e	-0.12859914
186	0xbc1206af	-0.008912726
187	0x3d558575	0.052129228
188	0xbdeab931	-0.11461104
189	0x3e467d87	0.19383822
190	0xbe10fe1f	-0.1415944
191	0xbd223d56	-0.039609276
192	0x3d9d3a4b	0.07677134
193	0xbddb063d	-0.10694549
194	0xbe7af636	-0.24507985
195	0xbe185c48	-0.14878953
196	0xbd618776	-0.055060826
197	0xbdb66ad0	-0.089070916
198	0x3be47dbb	0.006972996
199	0xbde9b416	-0.11411302
200	0xbe2aa306	-0.16663751
201	0xbdaaef01	-0.083463676
202	0xbc80a35a	-0.015702892
203	0xbde0c5fb	-0.10975262
204	0xbe0b9f66	-0.13635024
205	0x3e1adea7	0.15123998
206	0x3d117256	0.03550943
207	0xbd926847	-0.071487956
208	0xbde93d20	-0.11388612
209	0x3d95e287	0.07318597
210	0xbe0b2e91	-0.13591982
211	0xbe654edc	-0.22393364
212	0xbdca6d69	-0.098841496
213	0xbe35fb61	-0.17771675
214	0xbe088822	-0.1333318
215	0xbde7ae31	-0.11312521
216	0xbdb92532	-0.090402976
217	0xbdbe8348	-0.09302384
218	0xbdc4e753	-0.09614434
219	0xbdbf8405	-0.093513526
220	0xbe56e7be	-0.2098684
221	0x3d885361	0.06656528
222	0xbcec4e51	-0.028845938
223	0xbd332691	-0.04373795
224	0xbe0c3921	-0.13693668
225	0xbd808729	-0.0627578
226	0xbe48979f	-0.19589089
227	0x3d08060e	0.0332089
228	0x3e163e47	0.14672194
229	0x3dbff29f	0.09372448
230	0xbe10c1e6	-0.14136466
231	0xbd1582d6	-0.036501728
232	0x3e06dd06	0.13170251
233	0xbe90047e	-0.28128427
234	0xbdbd8140	-0.09253168
235	0xbdc9a09b	-0.09845086
236	0xbc300d56	-0.010745367
237	0xbd91e463	-0.071236394
238	0xbdb707cc	-0.08937034
239	0xbc8f9e25	-0.017531464
240	0xbd5ec47d	-0.054386605
241	0x3e8808fe	0.2656936
242	0xbd8fe14d	-0.070253946
243	0xbe5c8a24	-0.21537071
244	0x3d8a4541	0.067514904
245	0x3d6442df	0.055727836
246	0xbd850a53	-0.0649611
247	0x3e280313	0.16407423
248	0xbd8b1ce0	-0.06792617
249	0xbd95f15f	-0.073214285
250	0xbcf25417	-0.029581113
251	0x3e7b05d8	0.24513948
252	0xbe05b855	-0.13058598
253	0xbd45c532	-0.048283763
254	0xbded43d0	-0.115852
255	0x3e0e9240	0.13922977

biases.3 f4 [200]
0	0xbe2bf6d4	-0.16793376
1	0x3d7684bd	0.060185183
2	0xbe4e23b2	-0.20130804
3	0xbd7a87ae	-0.06116455
4	0xbe26e58d	-0.16298504
5	0x3d81c5b3	0.06336536
6	0xbe213836	-0.15744099
7	0xbdd908e5	-0.105973996
8	0xbe1d510c	-0.15362948
9	0xbde42ee1	-0.11141754
10	0x3d448f7c	0.0479884
11	0x3ce452fc	0.027871601
12	0xbd573a4b	-0.052545827
13	0xbe00a321	-0.12562229
14	0xbc2c7116	-0.010525009
15	0xbe1e8cf3	-0.15483455
16	0xbdb18e87	-0.08669763
17	0xbcae6125	-0.021286556
18	0xbdae43cf	-0.08509027
19	0xbe6c59f5	-0.23081191
20	0xbd5f68e8	-0.054543406
21	0xbbf784aa	-0.0075536566
22	0xbd9fbb6f	-0.07799422
23	0xbcc27f94	-0.023742475
24	0xbe302bfc	-0.17204279
25	0x3b1c75a9	0.0023873842
26	0xbdc0af6f	-0.09408461
27	0xbd281f8f	-0.04104572
28	0x3e2293a4	0.15876633
29	0xbd4e1841	-0.0503161
30	0xbdb15902	-0.08659555
31	0x3c94bf96	0.018157762
32	0xbc20dedb	-0.009818758
33	0xbe6df21a	-0.23236886
34	0xbe0cdcb9	-0.13756074
35	0xbc500229	-0.0126958275
36	0xbc556a5b	-0.013025845
37	0xbd8f2c37	-0.06990855
38	0xbd0460d8	-0.03231892
39	0xbe12ea66	-0.14347228
40	0x3da3f1a8	0.08005077
41	0xbe2b9383	-0.1675549
42	0xbe26b3ae	-0.1627948
43	0xbe310b61	-0.17289497
44	0xbe1defb2	-0.15423468
45	0x3c8f1068	0.017463878
46	0x3e2ff60f	0.17183708
47	0xbb15d936	-0.0022865064
48	0xbdbf7208	-0.093479216
49	0xbd9365db	-0.07197162
50	0x3d24ff6c	0.04028265
51	0xbcfd9290	-0.030953676
52	0xbe50f8b1	-0.20407368
53	0xbd8a8f81	-0.067656524
54	0xbe20121c	-0.15631908
55	0xbcf79e82	-0.03022695
56	0xbd8bbf2e	-0.06823574
57	0x3d35b821	0.044365052
58	0x3d934a94	0.07191959
59	0xbc740930	-0.014894769
60	0x3d8ac09c	0.067750186
61	0xbd540be4	-0.051769152
62	0xbc02ed1b	-0.007991101
63	0xbdd6eac4	-0.10493997
64	0x3cf7e0c7	0.03025855
65	0x3d6a8f34	0.057265475
66	0x3ddee486	0.10883431
67	0xbc828e6a	-0.015937049
68	0xbe06d547	-0.13167296
69	0xbbb125c9	-0.0054061157
70	0xbdd19af8	-0.10234636
71	0xbdc1f7be	-0.09471081
72	0xbe4800ce	-0.19531557
73	0xbd88d023	-0.06680324
74	0xbd41da00	-0.04732704
75	0xbe498072	-0.19677904
76	0xbd912267	-0.0708664
77	0xbdae9875	-0.085251726
78	0xbe2d9458	-0.1695112
79	0x3d22d23d	0.03975128
80	0xbc6642d7	-0.014054022
81	0x3cda6252	0.02665821
82	0xbd2bdfa6	-0.041961335
83	0xbc2cb5cb	-0.01054139
84	0xbdebff4f	-0.115233056
85	0xbdfbe578	-0.12299627
86	0xbe0dc23f	-0.1384363
87	0xbd90b12e	-0.07065044
88	0x3c415d46	0.011802023
89	0xbd9ba385	-0.07599548
90	0x3bf08095	0.007339547
91	0xbe80fc26	-0.25192374
92	0x3e478e45	0.19487865
93	0xbd7146c5	-0.05890538
94	0xbcc2447d	-0.023714298
95	0xbe22c4f8	-0.1589545
96	0xbe7fa776	-0.24966225
97	0xbd96d98e	-0.07365714
98	0xbdee1de3	-0.11626794
99	0xbe5b5f6d	-0.21423121
100	0xbd85e01b	-0.06536885
101	0xbd8379cf	-0.064197175
102	0xbd919822	-0.07109095
103	0xbdc9865a	-0.09840079
104	0x3de2a342	0.11066295
105	0xbd84d485	-0.064858474
106	0xbde123b3	-0.10993137
107	0x3d055e50	0.032560647
108	0xbe1cfd34	-0.15330964
109	0xbd50890d	-0.05091195
110	0xbc999c3a	-0.018751252
111	0xbd3ee91e	-0.046609037
112	0xbcb5f7b4	-0.02221284
113	0x3e3b1da5	0.18273027
114	0xbdd11041	-0.10208178
115	0xbe193e43	-0.14965157
116	0xbdb27547	-0.08713775
117	0xbd6d706e	-0.05796855
118	0xbddf239f	-0.10895466
119	0xbd9cfbb4	-0.07665196
120	0xbd9502f0	-0.07275951
121	0xbdc0f5d9	-0.09421892
122	0xbd88bd37	-0.06676715
123	0xbda13204	-0.07870868
124	0xbce38325	-0.027772496
125	0x3daf6fff	0.085662834
126	0xbdab7cb0	-0.08373392
127	0x3d85a4d4	0.06525579
128	0xbe132f49	-0.14373507
129	0xbe0c3963	-0.13693766
130	0xbdb7936c	-0.08963665
131	0x3ccbad37	0.024862869
132	0xbe0ec762	-0.13943246
133	0xbb8a9063	-0.004228638
134	0xbe323f1d	-0.17406888
135	0xbe1fc667	-0.15603028
136	0x3b96ebbb	0.004605738
137	0xbdffeb89	-0.12496097
138	0xb99e824f	-0.00030233196
139	0xbd7912bd	-0.060808886
140	0xbda23269	-0.07919771
141	0xbdaf8519	-0.08570308
142	0x3db06c07	0.086143546
143	0x3e1f7a07	0.15573893
144	0x3e16e98a	0.14737526
145	0xbd8102aa	-0.06299336
146	0x3d3bb8e3	0.04583062
147	0xbdd17531	-0.102274306
148	0xbd2f11d7	-0.042741623
149	0xbdf09e09	-0.11748893
150	0xbd4d9523	-0.050191056
151	0x3d50a460	0.05093801
152	0xbd5bef8a	-0.05369524
153	0xbdb08183	-0.086184524
154	0xbde1c540	-0.110239506
155	0xbdd83ef2	-0.10558881
156	0xbce2e783	-0.027698284
157	0xbdb97428	-0.09055358
158	0x3d2b865a	0.041876175
159	0xbd5c8eba	-0.053847052
160	0x3d873897	0.066025905
161	0x3e7fbe68	0.24974978
162	0xbd5223c0	-0.051303625
163	0xbd32fa14	-0.043695524
164	0xbe115dab	-0.14195888
165	0xbe5c6b25	-0.21525247
166	0x3d0d5031	0.034500305
167	0xbe007726	-0.12545452
168	0xa7e45c3a	-6.3382705e-15
169	0xbc374afc	-0.011187311
170	0x3d2ee8dc	0.04270254
171	0x3bcc639f	0.0062374617
172	0xbd6bd076	-0.05757185
173	0xbdbedf0d	-0.09319887
174	0xbd831830	-0.06401098
175	0xbd6a1eb8	-0.057158202
176	0xbdf37099	-0.11886711
177	0xbd09bc2a	-0.033626713
178	0x3c6166e8	0.013757445
179	0xbe0dea6f	-0.1385896
180	0xbd9892a1	-0.07449842
181	0xbd390fe5	-0.045181174
182	0x3da9957e	0.082804665
183	0xbd992598	-0.074778736
184	0xbdddca97	-0.108296566
185	0x3d9dbc77	0.077019624
186	0x3d1798b0	0.03701085
187	0xbd7eaf16	-0.062178694
188	0xbd8a4aa3	-0.06752517
189	0xbdc6cc19	-0.09706897
190	0xbd851c2a	-0.064995125
191	0xbdb91ef8	-0.0903911
192	0xbdf70f33	-0.12063446
193	0xbe3cceab	-0.18438213
194	0xbd3323aa	-0.043735184
195	0xbdaf12c6	-0.085485026
196	0xbe0b80ca	-0.13623348
197	0xbdd48e1f	-0.1037867
198	0xbd84ed92	-0.064906254
199	0xbe0c3af4	-0.13694364

biases.4 f4 [10]
0	0x3e06338d	0.13105603
1	0xbe1c99b9	-0.15293016
2	0x3dd46546	0.10370879
3	0x3e72c206	0.23706827
4	0x3dd9ef81	0.10641385
5	0x3e10c75b	0.14138548
6	0xbe64e0b0	-0.22351336
7	0xbd7736d0	-0.060355008
8	0xbdef2947	-0.11677795
9	0xbda28b5d	-0.07936738

embs.0.weight f4 [784, 16]
0	0x3f243974	0.64150167
1	0x3fd5a49f	1.6690863
2	0xbf337e84	-0.7011492
3	0xbfc11134	-1.5083375
4	0x3f15593b	0.5833928
5	0xbf96e198	-1.1787596
6	0x3f651418	0.89483786
7	0x3ea7d833	0.32782134
8	0xbfb2c905	-1.3967596
9	0xbfb0102f	-1.3754939
10	0xbf04dba5	-0.5189765
11	0xbefb1c08	-0.49044824
12	0x4005df91	2.0917704
13	0xbf26d54b	-0.6516921
14	0x3f20f72c	0.62877154
15	0x3e8aa8d6	0.27081937
16	0xbfd46cf9	-1.6595756
17	0x3f68d283	0.90946215
18	0xbf0d151b	-0.5511033
19	0xbf82234f	-1.0167025
20	0xbf1ee00d	-0.62060624
21	0xbf681f41	-0.9067269
22	0x3f70b8ce	0.9403199
23	0x3fbda685	1.4816443
24	0x3e0421b2	0.12903479
25	0x3e9e3bb7	0.30904934
26	0xbf3d2f45	-0.7390025
27	0x3f5701f4	0.83987355
28	0xbfb42d75	-1.4076372
29	0x3e60455e	0.21901461
30	0xbf5ebe39	-0.87009007
31	0xbfc85486	-1.5650795
32	0xbf331fb6	-0.6997026
33	0x3f0f64ba	0.5601307
34	0x3f990172	1.1953566
35	0xbeff8ede	-0.49913687
36	0xbeb9ac7c	-0.36264408
37	0x3ed3bb1b	0.41353688
38	0xbf95c6c0	-1.1701279
39	0xbda588bc	-0.08082721
40	0xbe92d720	-0.28679752
41	0x3e0d85c9	0.13820566
42	0x3f5fbb6e	0.8739537
43	0xbde65a61	-0.11247707
44	0x3f1e0688	0.61728716
45	0x3f931254	1.1489968
46	0x3f1a705e	0.6032771
47	0xbfcbc6d1	-1.5920049
48	0xbf60f17f	-0.87868494
49	0x3ec6bd6c	0.38816392
50	0xbf0bfc58	-0.5468192
51	0xbf870886	-1.0549476
52	0xbf9c020a	-1.2188122
53	0xbc8406a4	-0.016116448
54	0x3f568a08	0.8380437
55	0xbf5377b2	-0.82604516
56	0x3f760b8b	0.96111363
57	0x3fa3874e	1.2775667
58	0xbe100405	-0.14064033
59	0x3f10d51b	0.56575173
60	0xbf7b9fe2	-0.98290837
61	0xbfd7cf2f	-1.6860102
62	0x3efce51d	0.4939355
63	0x3f0c4d2a	0.54805243
64	0xbfdea5b1	-1.7394315
65	0xc00358cc	-2.0522947
66	0xbc917e4e	-0.017760422
67	0x3e6040a1	0.21899654
68	0xbf259951	-0.6468707
69	0xbfa30232	-1.2735045
70	0x3d51353e	0.051076166
71	0xbf9f94d1	-1.246729
72	0xbe0792b7	-0.13239561
73	0xbf9047a9	-1.1271869
74	0xbf8afc20	-1.0858192
75	0xbdd5470b	-0.10413941
76	0x3d93637f	0.07196712
77	0xc0127ea1	-2.2889788
78	0x3f04952d	0.51790124
79	0xbf1e229e	-0.6177157
80	0xc016e85c	-2.357932
81	0xbfe8a43a	-1.8175118
82	0x3f196ceb	0.5993182
83	0xbf909dbb	-1.1298136
84	0xbfca1963	-1.5788997
85	0x3fd14bbb	1.6351236
86	0x3ee0cd35	0.4390656
87	0x3ecd9d29	0.40158966
88	0x3faa4aea	1.3304112
89	0x3ec80a87	0.39070532
90	0xbec2bb64	-0.38033593
91	0xbf8869cb	-1.0657285
92	0x3f9b6570	1.2140331
93	0xbd054402	-0.03253556
94	0x3f6e8e8f	0.9318628
95	0x3f2dd5af	0.6790418
96	0x3e347787	0.17623721
97	0xbe09104f	-0.13385127
98	0x3fe68598	1.800952
99	0xbe1ef28c	-0.15522212
100	0x3d4e1652	0.050314255
101	0x3db02737	0.0860123
102	0xbf2c2eca	-0.67258894
103	0x3f7138e9	0.94227463
104	0x3f856df1	1.0424176
105	0xbf87e654	-1.0617166
106	0x3ee33caa	0.4438222
107	0x3f9762a0	1.1826973
108	0x3d54665a	0.051855423
109	0xbb8a4456	-0.004219572
110	0x3f575bdd	0.8412455
111	0x4000e203	2.0137947
112	0xbfa72840	-1.3059158
113	0xbe4e2992	-0.20133045
114	0x3f72d06c	0.94849277
115	0x4038eae2	2.889336
116	0x3e6ef688	0.23336232
117	0xbe415918	-0.18881643
118	0xbf821a1e	-1.016422
119	0xbf51c34d	-0.8193863
120	0x3e56faa3	0.20994048
121	0x3ea442e8	0.32082295
122	0x3fa54e2a	1.2914479
123	0x3fb55105	1.416535
124	0x3c6fc2eb	0.014633874
125	0x3eaae912	0.33380944
126	0x3e992a22	0.29914957
127	0xbfb91e6a	-1.4462407
128	0x3e1c5c37	0.15269552
129	0xbe412577	-0.18861948
130	0xbf2bc425	-0.6709617
131	0x3f451d72	0.76998055
132	0xbf2c4789	-0.67296654
133	0x3e523f7a	0.20532027
134	0xbf4acc64	-0.79218125
135	0x3f69a846	0.9127239
136	0x3e04e0e8	0.1297642
137	0x3f0f2bde	0.5592631
138	0xbfbd4d87	-1.4789284
139	0x3efe5ba3	0.49679288
140	0x3fabc44c	1.341928
141	0x3eabaaee	0.33528847
142	0x4017bbfa	2.3708482
143	0x3e094c8e	0.1340811
144	0x3ee435d6	0.44572324
145	0xbf50172a	-0.81285346
146	0xbf24166a	-0.640967
147	0xbfaa6c26	-1.3314254
148	0x3ff32421	1.8995401
149	0x3f5cad52	0.86201966
150	0x3f2fed54	0.6872151
151	0xbf3c9c7c	-0.73676276
152	0x3f6eb53a	0.9324528
153	0xbfc82e11	-1.5639058
154	0xbf953e02	-1.1659548
155	0xbf9ce62d	-1.2257744
156	0xbf3857fb	-0.7200925
157	0xbee2a86d	-0.44269124
158	0xbf4a26db	-0.7896554
159	0x3fefdfa3	1.8740124
160	0xbf802291	-1.0010549
161	0xbf9d5910	-1.2292805
162	0xbec7bd38	-0.3901155
163	0x3cfc1c28	0.030775145
164	0xbfab4afc	-1.3382258
165	0xbf7924de	-0.9732188
166	0x3ef4bff2	0.47802693
167	0x3fa265ec	1.2687354
168	0x3fdff0a9	1.7495319
169	0xbf25d58a	-0.6477896
170	0xbf1e4a2c	-0.6183193
171	0x3f4fe927	0.8121514
172	0x3e3393d5	0.17536862
173	0x3eefc10f	0.4682698
174	0x3f7c4a61	0.98550993
175	0xbcca5818	-0.02470021
176	0xbeb0e76f	-0.3455157
177	0x3f02decb	0.51121205
178	0xbed902c8	-0.42384934
179	0x4008f30e	2.139835
180	0xbcd45385	-0.025918731
181	0xbd89abb2	-0.067222014
182	0xbf23dabe	-0.6400565
183	0x3f545e06	0.8295597
184	0x3d1ed314	0.03877552
185	0x3f4f99f7	0.81094307
186	0x3f0cb3c6	0.5496181
187	0xbdc42dd2	-0.09579052
188	0x3fec9628	1.8483324
189	0xbf1f6d08	-0.62275743
190	0xbf58747a	-0.8455273
191	0x4010a050	2.2597847
192	0x3fb6f1e9	1.4292575
193	0x3f437b91	0.7636042
194	0x3f88b958	1.0681562
195	0xbdcd8a14	-0.10036102
196	0xbee37b27	-0.44429895
197	0xbe856339	-0.26052263
198	0xc0182a86	-2.3775954
199	0xbe197065	-0.14984281
200	0xbf706dda	-0.9391762
201	0xbcdd81aa	-0.027039368
202	0xbe260edb	-0.16216604
203	0xbe25f2ae	-0.16205856
204	0x3eccf342	0.4002934
205	0xbce2a3ef	-0.02766606
206	0x3e8cecbb	0.2752436
207	0xbc89f878	-0.016842112
208	0xbfc27672	-1.5192397
209	0xbd8a81f7	-0.0676307
210	0xbf5ad9c6	-0.85488546
211	0x3e01dfe5	0.12683065
212	0xbf8d5690	-1.1042042
213	0x3fd26503	1.6437076
214	0xbeba6351	-0.36403897
215	0xbf0a7ccb	-0.5409667
216	0x3f91711b	1.1362642
217	0xbfd17052	-1.6362402
218	0xc0126612	-2.2874799
219	0xbf2a039c	-0.6641176
220	0x3f28b291	0.6589747
221	0xbf26a143	-0.65089816
222	0xbfa6b9fa	-1.3025506
223	0xbf817859	-1.0114852
224	0xbf0ca3a2	-0.54937184
225	0x3f39e05e	0.7260798
226	0x3f086be2	0.53289616
227	0xbf85b24a	-1.0445035
228	0xbfa86514	-1.3155847
229	0x3fa8032c	1.3125968
230	0xc01c6bc8	-2.4440784
231	0x3fa51391	1.2896596
232	0x3f4c9ba3	0.7992498
233	0xbd972651	-0.07380355
234	0xbfb2e9f9	-1.3977653
235	0xbf6bcc4a	-0.92108595
236	0x3f95d1ec	1.1704688
237	0x3e904f2e	0.2818541
238	0x3e95f072	0.29285008
239	0xbe7e071f	-0.24807404
240	0x3f9169e3	1.1360439
241	0xbf17d557	-0.59309906
242	0xbf435194	-0.76296353
243	0xbea91c60	-0.3302946
244	0xbed30063	-0.41211233
245	0x3e725763	0.23666148
246	0x3f818bfe	1.0120847
247	0xbee1f442	-0.44131666
248	0x3c97bbde	0.0185222
249	0x3f5a93e8	0.8538194
250	0x3f2a81d1	0.66604334
251	0xbfc4bedc	-1.5370746
252	0x3c849518	0.016184375
253	0x3f819b71	1.0125562
254	0xbf2267e0	-0.6343975
255	0xbf7ebae8	-0.99503946

embs.1.weight f4 [600, 16]
0	0xbf580c35	-0.84393626
1	0xc00c5a26	-2.1930022
2	0xbefb91c9	-0.49134663
3	0xbf3c9c81	-0.73676306
4	0x3e37c116	0.1794475
5	0x3f92bf8c	1.1464705
6	0x3f204035	0.6259797
7	0x3e87a6c2	0.26494414
8	0x3b29d340	0.0025913268
9	0x3e9f9841	0.31170848
10	0xbf27a450	-0.65485096
11	0xbf7f68d3	-0.99769324
12	0x3f4ef5c5	0.80843765
13	0x3fa77437	1.3082341
14	0xbf86e46e	-1.0538461
15	0x3d5b301b	0.053512674
16	0xbfba4ced	-1.4554726
17	0xc0280bed	-2.625728
18	0xbfd0873d	-1.6291271
19	0x3f06b219	0.52615505
20	0x3e964eb9	0.29356936
21	0xbf1601ce	-0.58596504
22	0xbf9143bf	-1.13488
23	0xbf3d3606	-0.7391056
24	0x3efcaf43	0.49352464
25	0x3f9c0db4	1.2191682
26	0x3f374640	0.7159157
27	0x3fb03661	1.3766595
28	0x3f745448	0.95441103
29	0xbf3d59d8	-0.73965216
30	0x39210030	0.00015354226
31	0x3c0cd27e	0.008595107
32	0x4011dbd4	2.2790422
33	0x3f8e8275	1.1133562
34	0xbce93aa6	-0.028470349
35	0x3f87bb85	1.0604101
36	0xbe4333e0	-0.19062757
37	0xbfc3c6fd	-1.5295101
38	0xc0202b6a	-2.5026498
39	0x3f44b95c	0.76845336
40	0xbfbf89a3	-1.4963878
41	0xbf6f4e3d	-0.9347876
42	0xbf992663	-1.196484
43	0x3ead3934	0.33832705
44	0xbd1ff2a0	-0.039049745
45	0xbe4ab43d	-0.19795318
46	0xbfa1e391	-1.2647573
47	0x3eeffcd6	0.46872586
48	0x3f8a3b14	1.0799279
49	0x3fa2faac	1.2732749
50	0x3eebcf5b	0.46056637
51	0xbf5aac2a	-0.8541895
52	0xbcee57cb	-0.029094597
53	0xbf5ff81d	-0.87487966
54	0xbcf05b95	-0.029340545
55	0xbfe27b51	-1.7693883
56	0x3f938188	1.1523905
57	0x3fba3ec7	1.4550408
58	0x3a27097f	0.00063719595
59	0x3f694685	0.9112323
60	0xbebb284a	-0.36554176
61	0xbf7d5062	-0.9895078
62	0x3fbf1fcc	1.4931579
63	0x3f8c5985	1.0964819
64	0x3d9580b4	0.07299939
65	0x3f860169	1.046918
66	0xbe0f8284	-0.14014632
67	0xbfa83e01	-1.3143922
68	0x3e6b0616	0.2295154
69	0x3ee6ad54	0.45054114
70	0xbfc7472b	-1.5568594
71	0xbeff1731	-0.4982238
72	0xbf81e6bc	-1.014854
73	0x3f08f645	0.5350078
74	0xbdf1a53a	-0.117990926
75	0x3f4c3cf9	0.79780537
76	0x3e084748	0.13308442
77	0x3f03629c	0.5132234
78	0x3f1edf3a	0.62059367
79	0xbdcef063	-0.10104444
80	0xc003eba6	-2.0612578
81	0x3ffb3541	1.9625627
82	0x3ebdf102	0.37097937
83	0x3f3fef4d	0.7497452
84	0xbfe95748	-1.8229761
85	0x3f9794ca	1.1842282
86	0x3e83357b	0.2562674
87	0xbf868643	-1.0509723
88	0xbfb0b723	-1.3805889
89	0x3fa605b1	1.2970487
90	0xbf46ad2d	-0.77607995
91	0xbf456f39	-0.7712284
92	0x3fcf07da	1.6174271
93	0x3f895da0	1.0731697
94	0xbe39735b	-0.18110411
95	0xbf56ed6e	-0.8395604
96	0x3f1abe31	0.6044646
97	0xbfb3f021	-1.4057657
98	0xbf48c685	-0.78427917
99	0x3fb65fca	1.4247983
100	0x3a9d7040	0.0012011603
101	0xbe0dc531	-0.13844754
102	0xbe4a802c	-0.19775456
103	0xbf772820	-0.965456
104	0xbd01f1bb	-0.031724673
105	0x3fa3afce	1.2788026
106	0xc0044ea3	-2.0672996
107	0xbe9b76a6	-0.3036396
108	0xbfe15cd1	-1.760645
109	0xbfaebf3c	-1.365211
110	0x3e621843	0.22079568
111	0xbd6f3b8b	-0.058406394
112	0x3fa29f7a	1.2704918
113	0xbfc9e462	-1.5772822
114	0xbec4630d	-0.3835682
115	0xbe49a9bb	-0.19693653
116	0x3e35974b	0.17733495
117	0x3f07a3ed	0.52984506
118	0xbea82429	-0.32840088
119	0xbcb66808	-0.022266403
120	0xbf251a3e	-0.6449317
121	0x3f450731	0.769641
122	0xc01a8476	-2.4143348
123	0x3ef18a73	0.4717594
124	0x3d805bc7	0.06267505
125	0x3fc27047	1.5190514
126	0xbf01f835	-0.5076936
127	0x3dd9396b	0.10606655
128	0xbe89d1bc	-0.26917827
129	0x3d1c5aa0	0.038172364
130	0xbfcaf236	-1.5855167
131	0xbfa92601	-1.3214723
132	0xbf0cac9b	-0.54950875
133	0xbfc01117	-1.5005215
134	0xbf875650	-1.0573215
135	0x3f74bebe	0.9560355
136	0xbf1a25cd	-0.6021393
137	0xbe96155c	-0.2931317
138	0xbf0203f2	-0.5078727
139	0x406547da	3.5825105
140	0xbf21958e	-0.6311883
141	0x3ee5b5d2	0.4486528
142	0xbc8b6463	-0.017015642
143	0xbea7913d	-0.32727996
144	0xbf09f96b	-0.53896207
145	0xbfe7b17d	-1.810104
146	0x400718c4	2.1108866
147	0xbfa52e5e	-1.2904775
148	0x3f4d2226	0.8013023
149	0x3f99e160	1.2021904
150	0xbd6c7469	-0.057728205
151	0x3e9bb70f	0.304131
152	0xbe898594	-0.26859725
153	0x3eae7c05	0.34078994
154	0xbf0ecad2	-0.5577823
155	0x3d4ea045	0.050445814
156	0x3f47509a	0.77857363
157	0xbfea6d42	-1.8314593
158	0x3efaf734	0.49016726
159	0x3f1092ce	0.56474006
160	0xbff94e82	-1.9477084
161	0xbf854883	-1.0412754
162	0x3f3a3feb	0.7275378
163	0xbfc7ace1	-1.5599633
164	0xbc8d6108	-0.017258182
165	0xbf9acb22	-1.2093241
166	0x3e8120d3	0.25220355
167	0xbf131144	-0.5744822
168	0x3ec0e574	0.3767506
169	0xbf28ba01	-0.6590882
170	0x3e9775fe	0.29582208
171	0xbf63e83b	-0.8902623
172	0xbfc795d5	-1.55926
173	0xbec82440	-0.39090157
174	0xbf0da53a	-0.5533024
175	0x3e16fa95	0.14744027
176	0xbf918a29	-1.1370288
177	0x3fa951bc	1.3228068
178	0xbf3712f6	-0.7151331
179	0x3fbd7a6d	1.4802986
180	0x3df8ad90	0.121424794
181	0xbf7c23b4	-0.9849198
182	0xbf4b485b	-0.7940728
183	0x3e8334fd	0.25626364
184	0x3e83f7ee	0.25775093
185	0x3e02a693	0.12758856
186	0x3f3c50f9	0.73561054
187	0x3f9e03e3	1.2344936
188	0x3fbe45c7	1.4865044
189	0xbf993222	-1.1968424
190	0x3d5fc4d8	0.054631084
191	0x3f802ee9	1.0014316
192	0xbccf95af	-0.02533993
193	0xbfa2c9d6	-1.2717845
194	0x3ecea136	0.4035737
195	0xbf4c0190	-0.79689884
196	0xbef3cff2	-0.47619587
197	0x3f4facf4	0.8112328
198	0xbd93738b	-0.071997724
199	0xbfb43d3b	-1.4081186
200	0xbfa53ab8	-1.2908545
201	0x3d91c62d	0.07117877
202	0xbfad8650	-1.3556614
203	0x3fb996b9	1.4499122
204	0xbfc15f11	-1.5107137
205	0x3f45bb27	0.77238697
206	0x3fb08698	1.3791075
207	0x3dfe5c5a	0.124199584
208	0xbfb16daf	-1.3861598
209	0x3f5afc38	0.85541105
210	0xbf4bde56	-0.7963613
211	0x4001c1db	2.027457
212	0xbf35d37f	-0.7102584
213	0xbefa388a	-0.4887126
214	0x3f4590d9	0.77174145
215	0xbfa34599	-1.2755615
216	0x3edec4f3	0.43509635
217	0xbefeed22	-0.49790293
218	0x3ed8bf73	0.42333564
219	0x3f2afc5e	0.6679133
220	0xbfce83a7	-1.6133927
221	0x3e893081	0.26794818
222	0x3a379da1	0.00070043845
223	0x3fd5310a	1.665559
224	0x3f5471ad	0.82985955
225	0x3eb6ecce	0.35727543
226	0x3f608ab7	0.8771166
227	0x3f8217da	1.0163529
228	0xbf9d9c34	-1.2313294
229	0x3e64d49c	0.22346729
230	0xbf152a20	-0.582674
231	0xbf80fc55	-1.0077006
232	0x3f8554c9	1.0416499
233	0x3ebdc795	0.37066332
234	0x3f7bbfa0	0.9833927
235	0x3e3889ee	0.18021366
236	0xbf2d4dc1	-0.6769677
237	0xbeb2114c	-0.3477882
238	0x3fd8506e	1.6899545
239	0x3feb687f	1.8391265
240	0x3fe63a7d	1.7986599
241	0x3ea7dc52	0.3278528
242	0xbf1e4719	-0.61827236
243	0xbe5a0b56	-0.21293387
244	0x3fa44d9a	1.2836182
245	0x3ffc4a47	1.9710168
246	0x3e3a4350	0.1818974
247	0x3d9e7f4e	0.07739125
248	0x40385d8d	2.88071
249	0xbf1b9706	-0.6077732
250	0xbf897cae	-1.0741174
251	0x3eb2fc71	0.34958223
252	0x3eb87a16	0.36030644
253	0x3e05ff12	0.13085583
254	0xbf8d8272	-1.1055434
255	0x3f1ac1eb	0.60452145

embs.2.weight f4 [600, 16]
0	0x3e83d117	0.2574546
1	0xc0019725	-2.0248501
2	0xbfb6e972	-1.4289992
3	0x3f3e24da	0.7427498
4	0xbf8c7ff9	-1.0976554
5	0x3eb0e0a3	0.34546384
6	0xbf046d97	-0.5172972
7	0x3e9e74a0	0.30948353
8	0x3f22c535	0.63582164
9	0x3fbe2296	1.4854305
10	0xbf7d4932	-0.9893981
11	0x401ed582	2.4817815
12	0xbf9038ce	-1.1267335
13	0x3e9ee680	0.31035233
14	0xbf231997	-0.6371092
15	0x3f544f7e	0.82933795
16	0xbea02a3f	-0.3128223
17	0x3e937bf7	0.28805515
18	0x3ea1e369	0.31618813
19	0x3f45900d	0.7717293
20	0xbe2d7381	-0.16938592
21	0x3ea74a7f	0.32674024
22	0xbf806720	-1.0031471
23	0x3e9f38e4	0.31098092
24	0xbf1b8737	-0.60753196
25	0x3e7f9524	0.24959236
26	0xbfd6a466	-1.676892
27	0x3dc1593f	0.094408505
28	0x3f5a43ba	0.8525959
29	0x3ce94e9d	0.028479869
30	0xbfc2473f	-1.5177993
31	0xbda62ecd	-0.08114395
32	0x3df0bfaa	0.11755307
33	0xbe3f11e2	-0.18659166
34	0x3f24d41d	0.6438616
35	0x3f6986a9	0.912211
36	0xbdd43b97	-0.10362928
37	0x3f42c838	0.7608676
38	0xbbfadc9e	-0.007655694
39	0xbfb51768	-1.4147768
40	0x3eabaccb	0.33530268
41	0x3fa25ff7	1.2685536
42	0x3f56420a	0.8369452
43	0xbfe26457	-1.7686871
44	0x3eccf242	0.40028578
45	0x3e45cdb5	0.19316752
46	0xbf81dc61	-1.0145379
47	0xbe9f6284	-0.3112985
48	0x3d9c57b3	0.07633915
49	0x3d581168	0.052750975
50	0x3fc4c993	1.5374016
51	0x3efd49b2	0.49470288
52	0xbff836dd	-1.9391743
53	0x3d57a5d0	0.052648365
54	0x3f438c9a	0.76386416
55	0x3f24c066	0.64356077
56	0x3f25eede	0.6481761
57	0xb9d39537	-0.0004035623
58	0x3eec208a	0.46118575
59	0x3ff967c1	1.9484788
60	0x3ee6f523	0.451089
61	0xbfeb4e6f	-1.8383311
62	0x3f3cc0aa	0.7373148
63	0x3f627640	0.88461685
64	0x3f6b71e5	0.91970664
65	0xbe0dfc7d	-0.13865848
66	0xbfd4711a	-1.6597016
67	0xbfaaa216	-1.3330715
68	0x3e826649	0.25468662
69	0xbf7ae23a	-0.98001444
70	0xbd2a626c	-0.04159777
71	0x3f32b1c5	0.69802505
72	0xbfb3a0cc	-1.4033446
73	0x3c84fe8e	0.016234662
74	0xbfba98c6	-1.4577873
75	0xbf71c991	-0.9444819
76	0x3f5df6af	0.86704534
77	0x3f1b0ae1	0.60563475
78	0x3decfd3c	0.11571738
79	0x3e86ca3a	0.26326162
80	0x3d7fc7db	0.062446456
81	0x3fa23f30	1.2675533
82	0xbf9ce582	-1.225754
83	0xc002819e	-2.0391612
84	0xbebb4d85	-0.3658258
85	0xbf27c8c3	-0.65540713
86	0xbf8f7469	-1.12074
87	0x3f98ee86	1.1947792
88	0xbf30b0f7	-0.69020027
89	0x3d8014b0	0.06253946
90	0xbfa2c81f	-1.2717322
91	0xbf2a01e7	-0.6640915
92	0xbdf342a5	-0.11877946
93	0xbeeec3a6	-0.46633643
94	0x3f819f24	1.0126691
95	0xbfa72df7	-1.3060902
96	0xbfc5d891	-1.5456716
97	0xbef20974	-0.47272837
98	0xbf761c38	-0.9613681
99	0x3efa098e	0.48835415
100	0xbe29ea11	-0.16593195
101	0x3fbadaa9	1.459798
102	0x3fcc37a4	1.595448
103	0x3f79bb7e	0.97551715
104	0xbe8175e0	-0.25285244
105	0xbdddfa5c	-0.10838768
106	0xbfd1d6a7	-1.6393632
107	0xbddf8269	-0.10913546
108	0x3fe18d6e	1.7621286
109	0xbfd56fcd	-1.6674744
110	0x3e8dac0b	0.2767032
111	0x3c190d45	0.009341543
112	0xbf476a49	-0.77896553
113	0xc02a7d77	-2.6639078
114	0xbfd79685	-1.684281
115	0xbf4e1552	-0.8050128
116	0xbe887cca	-0.26657706
117	0x3e85761b	0.2606667
118	0x3f835ab7	1.0262059
119	0x3e44b79b	0.19210665
120	0xbf01f6d6	-0.50767267
121	0xbf187619	-0.595552
122	0xbea1848d	-0.3154644
123	0x3c8482ec	0.01617571
124	0xbf93c01b	-1.1543001
125	0x3fae2af8	1.3606863
126	0xbf567f67	-0.8378815
127	0x3f076fbb	0.5290486
128	0x3f5ca6f0	0.86192226
129	0x3f386fc4	0.7204554
130	0x3ea49a24	0.3214885
131	0xbe5cdd5d	-0.21568818
132	0xbe55bf30	-0.20873713
133	0x3f5ff87b	0.87488526
134	0xbe1fbfad	-0.15600462
135	0xbed937cb	-0.4242538
136	0x3eb70de7	0.35752794
137	0x3f367c75	0.71283656
138	0x3e3c23a8	0.18372977
139	0x3df82cac	0.121178955
140	0xbf8dfd83	-1.1092991
141	0x3efff73c	0.49993312
142	0xbfeea0cc	-1.8642821
143	0xbc1b60f6	-0.0094835665
144	0x3ebc6e95	0.36803117
145	0x3edb944c	0.4288658
146	0x3faf0032	1.3671935
147	0x3fd8fd3b	1.695228
148	0x3e075291	0.1321509
149	0xbf2f17e9	-0.6839586
150	0xbeb6e8aa	-0.35724384
151	0xbfc6a83d	-1.5520092
152	0xbfaa46cd	-1.3302857
153	0xbf101a50	-0.5629015
154	0x3e923d79	0.28562525
155	0xbeca18c2	-0.39472014
156	0x3f1a7d98	0.6034789
157	0x3fae965d	1.3639637
158	0x3f8b2680	1.0871124
159	0x3fa7b621	1.3102456
160	0x3e2c28c1	0.16812421
161	0x3f8999bd	1.0750042
162	0x3f97dfe9	1.1865207
163	0xbfd3a8f8	-1.653594
164	0xbf503f95	-0.8134702
165	0x3f24df3d	0.64403135
166	0xbf64ac7c	-0.8932569
167	0xbf953b4e	-1.1658723
168	0xc02d734d	-2.7101624
169	0x3f47bdf9	0.7802425
170	0xbf44037b	-0.7656781
171	0xbf1c3a40	-0.6102638
172	0x3ec03f99	0.3754852
173	0x3ec3c0af	0.38232943
174	0xbe926ec7	-0.2860014
175	0xbdf532a3	-0.11972549
176	0x3f8ed890	1.115984
177	0x3f659d1e	0.89692867
178	0x3ee4ffe9	0.44726494
179	0xbf8c0669	-1.0939456
180	0xbe52c960	-0.20584631
181	0xbfd68cf9	-1.6761771
182	0x3f3689a8	0.71303797
183	0xbf04a54b	-0.5181472
184	0x3eb6af05	0.35680404
185	0xbf860dc9	-1.0472957
186	0xbfafeccf	-1.3744143
187	0xbf87ce9e	-1.060993
188	0xbe9cc8fa	-0.30622083
189	0x3fb9877b	1.449447
190	0x3d8d9e01	0.069149025
191	0xbf974897	-1.1819028
192	0x3efed060	0.49768353
193	0x3f5da9af	0.8658704
194	0xbf248c0b	-0.6427619
195	0xbee45ea9	-0.4460347
196	0x3d99dbf6	0.07512657
197	0xbf5ec1b7	-0.87014335
198	0x3f1615ab	0.5862681
199	0xbeebe4cf	-0.46073005
200	0x3d93c012	0.07214369
201	0xbf2c2dda	-0.67257464
202	0xbefbf849	-0.49212864
203	0x3fef7655	1.8707987
204	0x3e575758	0.21029413
205	0x3f350d52	0.7072345
206	0xbf351816	-0.7073988
207	0xbf9192c1	-1.1372911
208	0xbfdc4a06	-1.721009
209	0xbf149146	-0.5803417
210	0x3f8ed1d5	1.1157786
211	0xbe2ee078	-0.17077816
212	0xbfa9a0e5	-1.3252226
213	0x3f155b64	0.58342576
214	0xbf103e27	-0.56344837
215	0xbff43640	-1.9079056
216	0xbf50500d	-0.8137215
217	0x3f0b6230	0.544467
218	0x3f292a2b	0.6607997
219	0xbfaccd17	-1.3500088
220	0xbc8de274	-0.017319895
221	0x3e9e1652	0.30876404
222	0xbadf1828	-0.0017020749
223	0x3f85cc7a	1.0453026
224	0xbd684019	-0.056701753
225	0xbf401c62	-0.7504331
226	0xbf53e963	-0.82777995
227	0xbfc2e344	-1.5225606
228	0x3f5e5f01	0.86863714
229	0x3ef665f0	0.48124647
230	0xbf0b1c0c	-0.5433967
231	0xc01328de	-2.2993693
232	0x3ef99c91	0.48752263
233	0xbf8b408c	-1.0879073
234	0x3f7bf49c	0.9842012
235	0x3f5a3379	0.8523479
236	0x3f6d24a1	0.92634016
237	0x40102c62	2.252709
238	0xbe542d91	-0.20720507
239	0x3f077d5d	0.52925664
240	0xbe2837af	-0.16427492
241	0xbf5419f5	-0.8285211
242	0xbd699864	-0.057030097
243	0x3dd93884	0.106064826
244	0x3e8f57a5	0.27996555
245	0x3fc2a925	1.5207869
246	0xbf659234	-0.89676213
247	0x3e7ac349	0.24488558
248	0x3c99429c	0.01870852
249	0x3e803e90	0.2504773
250	0xbfada50f	-1.3565997
251	0x3f87bb2a	1.0603993
252	0x3f3261c5	0.69680434
253	0x3deccf68	0.11562997
254	0xbe31c951	-0.17361952
255	0xbe31c42c	-0.1735999
