models/mnist_conv_embedding_64dim.pth (torch, 109119 bytes, 10 tensors)

conv_biases.0 f4 [5]
0	0xbf26f070	-0.6521063
1	0xbeb90d01	-0.36142734
2	0xbf08d226	-0.5344566
3	0x3f24022b	0.6406581
4	0xbe0b9f57	-0.13635002

conv_biases.1 f4 [10]
0	0x3d03431c	0.032046422
1	0x3e3d3856	0.18478522
2	0x3ea322e6	0.31862563
3	0xbecbb74b	-0.3978828
4	0x3eca870f	0.39556167
5	0xbe48a5c8	-0.1959449
6	0xbe50c7db	-0.20388739
7	0x3ebd45a5	0.36967197
8	0x3e0821c9	0.13294138
9	0x3d683ea4	0.056700364

lin_biases.0 f4 [10]
0	0x3d2d2c90	0.042278826
1	0x3c577cc5	0.013152306
2	0xbc81b5e0	-0.015833795
3	0xbcd94197	-0.026520533
4	0xbc467202	-0.0121121425
5	0x3c9cec86	0.019155752
6	0xbd88fc84	-0.066887885
7	0xbcd9dde3	-0.026595062
8	0xba8f5a56	-0.0010936956
9	0x3d32ac14	0.043621138

field_embs.0.weight f4 [45, 64]
0	0xbc881ed3	-0.01661626
1	0x3dc43b20	0.0958159
2	0x3d392e23	0.045210015
3	0xbd532b80	-0.051555157
4	0xbe0f5504	-0.13997275
5	0x3ccee231	0.02525434
6	0xbb415d42	-0.002950505
7	0xbe321428	-0.17390501
8	0xbca21cb1	-0.019789072
9	0xbe5ed36e	-0.21760342
10	0x3e52a241	0.20569707
11	0x3e305056	0.17218146
12	0xbe56b826	-0.20968685
13	0xbd1da639	-0.0384886
14	0x3e609419	0.21931495
15	0xbe039030	-0.12847972
16	0xbd280a49	-0.041025434
17	0xbe527b0e	-0.20554754
18	0x3cfe8dd3	0.031073486
19	0xbca45f99	-0.020065116
20	0x3d8e0a57	0.06935566
21	0x3d934ad6	0.07192008
22	0x3d70186d	0.058617044
23	0xbddb8a86	-0.107197806
24	0xbdb2d035	-0.087311186
25	0xbe6b5f6b	-0.22985618
26	0x3e4b4ca9	0.19853462
27	0x3db15cad	0.086602546
28	0xbc93b3ff	-0.018030165
29	0x3d8f01bc	0.06982753
30	0x3d850cd6	0.06496589
31	0xbd6aeaad	-0.05735271
32	0x3d89f728	0.067365944
33	0x3c821f7b	0.015884152
34	0xbdfea7b2	-0.12434329
35	0xbed150ed	-0.40882054
36	0xbca4eea4	-0.020133324
37	0xbd8426a6	-0.06452684
38	0xbd8b254e	-0.06794225
39	0xbe1fa581	-0.15590478
40	0xbc3e12de	-0.011601178
41	0xbdf978b6	-0.12181227
42	0x3e37cd46	0.179494
43	0x3d28154a	0.041035928
44	0xbe6d6f63	-0.23187022
45	0xbdfc30dd	-0.123140074
46	0x3e4c81ae	0.19971344
47	0x3e5f4715	0.2180446
48	0xbe0dd8b0	-0.13852191
49	0x3b8a8348	0.0042270757
50	0x3dedafec	0.1160582
51	0x3cc0559f	0.023478327
52	0xbda33f48	-0.07971054
53	0x3e4d437d	0.20045276
54	0x3df9eb0e	0.12203036
55	0x3e677a84	0.2260533
56	0x3e3d6cc8	0.18498528
57	0x3e2ef54a	0.17085758
58	0x3e2e5a12	0.17026547
59	0x3ea62960	0.32453442
60	0xbc4d262b	-0.012521307
61	0x3b2306c6	0.0024875863
62	0x3de9e1a3	0.1141999
63	0x3e0fab79	0.14030255
64	0xbcdc4d9c	-0.026892476
65	0xbe1abde2	-0.15111497
66	0x3d85e392	0.06537546
67	0x3e2c2ac8	0.16813195
68	0xbdbfd3c4	-0.09366563
69	0x3d886a31	0.066608794
70	0xbd344bd7	-0.04401764
71	0x3e58d73e	0.21175858
72	0x3e5321c9	0.20618357
73	0xbe18f2f3	-0.14936428
74	0x3de74fc5	0.11294512
75	0x3dc1efbe	0.09469555
76	0xbdf76d40	-0.12081385
77	0xbd81dfde	-0.063415274
78	0xbd80763d	-0.06272552
79	0x3cd5aa7c	0.02608227
80	0x3da22c90	0.07918656
81	0xbda06b83	-0.07833006
82	0x3d619ad4	0.055079296
83	0x3dcff900	0.10154915
84	0x3e432417	0.19056736
85	0xbdca6acd	-0.09883652
86	0x3e2159fc	0.15756983
87	0xbe310ce9	-0.17290081
88	0xbc2a4812	-0.010393159
89	0xbd63c594	-0.055608347
90	0x3db2a434	0.087227255
91	0x3c7d89ab	0.015474717
92	0xbe44028c	-0.19141597
93	0x3de3d96c	0.11125454
94	0x3e4b5e75	0.19860251
95	0xbe1bbbd0	-0.15208364
96	0x3ddb75e4	0.10715845
97	0x3cebfbeb	0.028806647
98	0xbe33dacc	-0.17563933
99	0xbe80d53b	-0.25162682
100	0x3cf29f88	0.029617086
101	0x3d846431	0.064644225
102	0xbe7b7d76	-0.24559578
103	0xbda85a9c	-0.08220407
104	0x3d8ccaa1	0.06874586
105	0x3e672abd	0.22574897
106	0x3e952855	0.29132333
107	0xbc0910fb	-0.008365865
108	0xbdbf6696	-0.093457386
109	0xbe1a3a7a	-0.1506137
110	0xbe3ca8e0	-0.18423796
111	0x3ccfaab9	0.025349962
112	0xbe775926	-0.24155101
113	0xbe8ea002	-0.2785645
114	0xbddadb69	-0.106863804
115	0xbe0b4943	-0.13602166
116	0xbebe603a	-0.3718279
117	0xbe3ff96a	-0.18747488
118	0x3e1b4584	0.15163237
119	0xbe89d4b3	-0.2692009
120	0x3e5aa4f9	0.21351995
121	0xbd13b8b7	-0.03606483
122	0x3dfbfb49	0.12303788
123	0x3e6eef5a	0.23333493
124	0x3e0aabe4	0.13542134
125	0xbd53dd70	-0.05172485
126	0xbe78c2fa	-0.24293128
127	0xbcb82a2c	-0.022481047
128	0x3e467313	0.19379835
129	0x3e4dbf44	0.20092493
130	0xbdc22bc2	-0.094810024
131	0xbe61dbca	-0.22056499
132	0xbd463292	-0.04838807
133	0x3e70490d	0.23465367
134	0xbe2648c1	-0.16238691
135	0x3c2615cb	0.010137032
136	0xbe04d396	-0.12971339
137	0xbce36094	-0.027756013
138	0xbcef95f6	-0.029246312
139	0x3d69cb75	0.057078797
140	0x3e18ea3d	0.14933105
141	0xbe9a3816	-0.30120915
142	0x3df460d3	0.1193253
143	0xbe388290	-0.18018556
144	0xbe31b583	-0.17354397
145	0xbdd5496a	-0.10414393
146	0xbdaf8267	-0.08569794
147	0xbda009b3	-0.0781435
148	0x3de006af	0.10938775
149	0x3dcfcbfc	0.10146329
150	0x3e85c71e	0.26128477
151	0xbeb6ec77	-0.35727283
152	0xbde327df	-0.11091589
153	0xbe8256e5	-0.2545692
154	0x3da655bd	0.08121822
155	0x3e06b8e5	0.13156469
156	0x3d12ee8d	0.03587203
157	0xbd5f7c93	-0.054562163
158	0x3d14c8a9	0.036324177
159	0x3e173566	0.14766464
160	0xbd3e946f	-0.046528276
161	0xbe00ecf3	-0.12590389
162	0xbd82ecc9	-0.063928194
163	0xbeb6a12b	-0.35669836
164	0x3d8e8cfe	0.06960486
165	0xbeaaceef	-0.33361003
166	0xbe44e552	-0.19228104
167	0xbe245eff	-0.16051863
168	0xbcee2cd3	-0.029074108
169	0xbd663f93	-0.056212973
170	0x3d64ad41	0.05582929
171	0xbd985d20	-0.07439637
172	0xbdf370e9	-0.1188677
173	0xbe633453	-0.22187929
174	0xbd1ac520	-0.03778565
175	0xbdd303d8	-0.103034675
176	0x3d8aa2cb	0.067693315
177	0x3d55a22d	0.052156616
178	0x3d2afbb4	0.04174395
179	0x3e5205d3	0.20510034
180	0xbcf1ef2b	-0.02953299
181	0x3da7d70f	0.08195316
182	0x3e8f77c0	0.2802105
183	0xbe82e207	-0.2556307
184	0x3e2fa378	0.17152202
185	0x3e556b05	0.20841606
186	0x3e1cf921	0.1532941
187	0xbe24559d	-0.16048284
188	0x3c822123	0.015884941
189	0x3ce00570	0.027346343
190	0xbe67be8f	-0.22631286
191	0x3e28e29e	0.16492698
192	0xbe887148	-0.26648927
193	0x3d72300f	0.059127863
194	0xbd100bfb	-0.035167675
195	0x3e13e66f	0.14443372
196	0xbc34b050	-0.011028364
197	0xbe2394e7	-0.1597477
198	0x3e1fe60c	0.156151
199	0x3e74bd92	0.2390044
200	0x3dc1d216	0.09463899
201	0xbda43e12	-0.080196515
202	0xbe60366a	-0.21895757
203	0x3de631e9	0.11239988
204	0xbd917d5a	-0.07103987
205	0x3ec67fe3	0.38769445
206	0x3db9412c	0.09045634
207	0x3b1464d4	0.0022643106
208	0xbdfa3f72	-0.122191325
209	0xbe7905f2	-0.24318674
210	0xbe83f753	-0.2577463
211	0x3c940da1	0.018072905
212	0x3e3c3e05	0.18383034
213	0x3e153ab7	0.14573179
214	0xbdba77ea	-0.09104903
215	0x3ed833f0	0.42227125
216	0x3e7b07c8	0.24514687
217	0x3e1e8055	0.15478642
218	0x3df810ae	0.121125564
219	0x3da47af2	0.080312625
220	0x3e64a2d6	0.22327742
221	0x3d00e599	0.03146896
222	0x3e2681fa	0.1626052
223	0x3dcc6dca	0.09981878
224	0xbd394d9f	-0.04524004
225	0xbccf5ac0	-0.025311828
226	0x3db13860	0.08653331
227	0x3e829b1a	0.25508958
228	0x3c05fc7b	0.008177872
229	0xbda14aff	-0.078756325
230	0x3d3d4f68	0.046218306
231	0xbd814a1e	-0.06312965
232	0xbda42801	-0.08015443
233	0xbe4ed7df	-0.20199536
234	0xba8991aa	-0.0010495682
235	0xbd53df8c	-0.051726863
236	0x3c31b0cc	0.010845374
237	0x3d2b687a	0.041847683
238	0xbd9bc5cf	-0.07606088
239	0x3d82973e	0.063765034
240	0xbe3f3101	-0.18671037
241	0x3dcd80cb	0.10034331
242	0x3d0d8dde	0.034559123
243	0x3d041131	0.032242958
244	0x3db2b167	0.08725243
245	0x3e78a043	0.24279885
246	0xbe8557e6	-0.26043624
247	0xbd889c97	-0.06670492
248	0xbe0c0346	-0.13673124
249	0xbe9b3ba7	-0.3031895
250	0xbf0e1b1a	-0.55510104
251	0x3e2fc126	0.17163524
252	0xbe5e2f29	-0.21697678
253	0x3dc30f3f	0.09524392
254	0xbd9d4c81	-0.076806076
255	0xbe51cc38	-0.2048806

field_embs.1.weight f4 [90, 64]
0	0xbdfd8a8d	-0.12379942
1	0xbe245aec	-0.16050309
2	0x3de47c2e	0.11156498
3	0x3e1a7d38	0.1508683
4	0x3e38ac27	0.18034421
5	0x3d9aa43d	0.07550857
6	0x3db4750e	0.08811389
7	0x3d4a3213	0.04936416
8	0xbe275dac	-0.16344327
9	0x3da5b045	0.08090261
10	0x3eb7513d	0.35804167
11	0x3e3beda0	0.18352365
12	0x3d41ba2f	0.0472967
13	0x3e51613e	0.20447251
14	0x3ec70dbd	0.3887767
15	0xbd5fe085	-0.054657478
16	0x3ef20835	0.47271886
17	0x3e08c32d	0.13355704
18	0x3e8fd15c	0.28089416
19	0x3cf3ee0e	0.0297766
20	0x3dfed62e	0.12443195
21	0x3d3cb360	0.046069503
22	0x3ec16a37	0.37776348
23	0x3cf0d949	0.029400485
24	0x3e47e232	0.1951988
25	0x3d47ac79	0.048748467
26	0xbdd024ff	-0.101633064
27	0xbd333672	-0.043753095
28	0x3dc17202	0.094455734
29	0xbd913558	-0.07090253
30	0x3db5d825	0.08879117
31	0x3d24debd	0.040251482
32	0xbd96a89d	-0.07356379
33	0x3d4aa1fa	0.04947088
34	0xbb984403	-0.0046467795
35	0xbe1b2dc9	-0.15154184
36	0x3e82905f	0.2550077
37	0x3e11ef73	0.14251499
38	0xbd581b07	-0.05276015
39	0xbe334487	-0.1750661
40	0x3e2eea3a	0.17081538
41	0x3ddd6ad6	0.10811393
42	0x3d83e1b1	0.064395316
43	0xbe01ea3e	-0.12687013
44	0xbc07d3dc	-0.008290257
45	0x3ea36ae0	0.31917477
46	0x3ca0fe28	0.019652441
47	0x3db38a19	0.087665744
48	0x3d272bbb	0.04081319
49	0xbdc6e701	-0.09712029
50	0xbe86710b	-0.2625812
51	0x3ebbe6e4	0.36699593
52	0xbd85d355	-0.06534449
53	0x3e01a65f	0.12661122
54	0xbd4f75b3	-0.050649356
55	0x3e55eb8a	0.20890632
56	0xbcb4b7a9	-0.022060232
57	0xbc6199c2	-0.013769569
58	0xbe807511	-0.25089315
59	0xbe462161	-0.1934867
60	0xbe30491d	-0.1721539
61	0xbe86b7cc	-0.263121
62	0x3db7f72d	0.08982692
63	0x3da6c736	0.08143465
64	0x3e29f5f9	0.16597737
65	0xbe18122e	-0.14850685
66	0x3da8dd1b	0.082452975
67	0x3e3939dd	0.1808848
68	0x3d396929	0.045266304
69	0xbd6e0ef2	-0.05811972
70	0x3d5835d5	0.052785713
71	0xbec8812f	-0.3916106
72	0xbe655861	-0.22396995
73	0xbdf10589	-0.11768634
74	0x3e91473d	0.28374663
75	0xbcea9e12	-0.028639827
76	0x3c915cc3	0.017744428
77	0x3ec58e0d	0.3858494
78	0x3e26286f	0.16226362
79	0x3d950cd6	0.07277839
80	0xbe503b81	-0.20335199
81	0xbe0432bf	-0.12909983
82	0x3e2a70f1	0.16644646
83	0xbbf16151	-0.0073663373
84	0x3e2c7353	0.16840868
85	0x3e5e01cc	0.21680373
86	0x3eaf8769	0.34282997
87	0x3e56b03f	0.2096567
88	0x3c752337	0.014962009
89	0x3c4eeabc	0.012629207
90	0xbdec5886	-0.11540322
91	0xbe97dc00	-0.29660034
92	0xbd134bbb	-0.035960894
93	0xbbf480d2	-0.0074616456
94	0xbd9320cc	-0.0718399
95	0xbdd4ec6d	-0.10396657
96	0xbe989a17	-0.2980506
97	0x3b837094	0.004011223
98	0x3c82338e	0.015893724
99	0xbe882747	-0.26592466
100	0x3dbe75c4	0.09299806
101	0x3eacea3a	0.3377245
102	0xbd822e4f	-0.06356489
103	0xbb115d76	-0.0022180951
104	0x3dad1ff3	0.084533595
105	0xbccc6037	-0.024948223
106	0xbe024ca8	-0.12724555
107	0x3e332c45	0.17497356
108	0xbc07889d	-0.008272317
109	0xbe9687d9	-0.2940052
110	0x3d4d9a7c	0.050196156
111	0x3c510732	0.012758063
112	0x3e57d3c4	0.21076876
113	0x3e265367	0.16242753
114	0x3b392b8a	0.002825471
115	0xbdb9c878	-0.090714395
116	0xbd31b7b0	-0.04338807
117	0xbe27c77b	-0.1638469
118	0xbc52b253	-0.012859899
119	0x3e97179e	0.29510206
120	0x3d9557e9	0.07292158
121	0x3e126dc6	0.14299688
122	0x3e3cb458	0.1842817
123	0x3db45c5f	0.08806681
124	0xbd7dbce8	-0.061947733
125	0x3cba4b8c	0.022741102
126	0x3d9e31df	0.07724356
127	0x3e94a276	0.29030198
128	0x3e3b5404	0.18293768
129	0xbdfba39a	-0.12287064
130	0x3e069d87	0.1314603
131	0x3e4f636a	0.20252767
132	0xbda5ce6a	-0.08096011
133	0x3e5980f6	0.21240601
134	0xbd23c0e6	-0.039978884
135	0xbeafe7a4	-0.34356415
136	0xbdce261e	-0.10065864
137	0xbef8de19	-0.48606947
138	0x3eb55bdf	0.35421655
139	0x3d378d9d	0.044812787
140	0xbe05d316	-0.13068804
141	0x3e211481	0.15730478
142	0x3d80838a	0.06275089
143	0x3c845c4a	0.016157288
144	0xbd91f265	-0.07126311
145	0x3e4f805d	0.2026381
146	0x3ea6d401	0.3258362
147	0x3e07b515	0.13252671
148	0x3e3a3a6c	0.18186349
149	0x3d08a07e	0.033356182
150	0x3da30fa5	0.07961968
151	0x3da1cda9	0.07900555
152	0xbe43ed11	-0.19133402
153	0x3e7511a3	0.23932509
154	0xbe388b39	-0.18021859
155	0x3bf52433	0.007481122
156	0x3e14f82b	0.14547794
157	0x3e78de69	0.24303593
158	0x3eb1244c	0.34598005
159	0x3d7c35a3	0.06157459
160	0xbe22d5d9	-0.15901889
161	0xbe35f6db	-0.17769949
162	0xbde60913	-0.112321995
163	0xbe282806	-0.16421518
164	0xbd836924	-0.06416538
165	0xbd1546f7	-0.03644463
166	0x3e6f37e1	0.2336116
167	0xbd9d1855	-0.076706566
168	0xbea75d2f	-0.3268828
169	0xbc8df386	-0.017328035
170	0xbceb0783	-0.028690105
171	0xbdb25b84	-0.087088615
172	0x3e69721a	0.22797433
173	0x3dab66f3	0.083692454
174	0xbcb45e39	-0.022017585
175	0x3aa31b2e	0.0012444013
176	0xbe5a05e5	-0.21291311
177	0xbe04c708	-0.1296655
178	0xbbd80b9c	-0.006593181
179	0x3ca534bc	0.020166747
180	0x3e354a5d	0.17704149
181	0x3e1b2311	0.15150096
182	0x3d4b1e1c	0.04958926
183	0x3ccc34ba	0.024927486
184	0x3f0169fd	0.5055235
185	0xbd965efc	-0.073423356
186	0x3c58fde2	0.013244124
187	0xbda407ab	-0.08009275
188	0xbe1ddf00	-0.15417099
189	0xbdf5522c	-0.11978564
190	0xbe0f4572	-0.13991335
191	0xbc80af1c	-0.015708499
192	0x3cc6a298	0.024247453
193	0x3dd5ac32	0.10433234
194	0x3e04956e	0.12947628
195	0x3e05f597	0.13081966
196	0xbda0c409	-0.07849891
197	0xbd484c5c	-0.048900947
198	0x3ca9701b	0.020683339
199	0xbdb3d78d	-0.087813474
200	0xbd470266	-0.04858627
201	0xbe184bd4	-0.14872676
202	0xbe3309f1	-0.17484261
203	0xbc6f48f7	-0.0146047985
204	0xbe0f1b4c	-0.13975257
205	0x3e137bec	0.14402741
206	0x3d1f0a54	0.03882821
207	0x3dc710a7	0.09719973
208	0xbdae16cb	-0.08500441
209	0xbde7c44a	-0.11316736
210	0x3d1319f4	0.035913423
211	0x3db4f748	0.08836228
212	0x3c951f6b	0.018203458
213	0xbe8d7ca3	-0.27634153
214	0x3d77adbc	0.06046842
215	0x3e059f2d	0.13049002
216	0x3c884c55	0.01663796
217	0x3e3ec722	0.1863065
218	0x3e59ca05	0.2126847
219	0xbe29e0d1	-0.16589667
220	0x3d1f8b46	0.03895118
221	0xbe216979	-0.15762891
222	0xbd04c2f2	-0.032412477
223	0x3e4211c2	0.18952087
224	0xbc23dfc5	-0.010002081
225	0xbc7e0666	-0.015504455
226	0xbc56d735	-0.013112833
227	0xbe6482d2	-0.22315529
228	0x3c831cdd	0.016004974
229	0x3da89774	0.082320124
230	0xbda860b0	-0.08221567
231	0xbe34de6d	-0.17662974
232	0x3dc4fbb0	0.09618318
233	0xbd8005c1	-0.062510975
234	0x3da41bae	0.08013092
235	0xbe2dd8d3	-0.16977243
236	0xbe48fe70	-0.1962831
237	0xbe819b53	-0.25313815
238	0xbda1e192	-0.07904352
239	0xbdb3845c	-0.0876548
240	0xbcc92d98	-0.024557874
241	0xbdc1f6aa	-0.094708756
242	0x3d8a021b	0.06738683
243	0x3e1f10cf	0.15533756
244	0xbd05fbfc	-0.032711014
245	0xbe8c178c	-0.27361715
246	0x3cf3896a	0.02972861
247	0x3cd3aae3	0.025838321
248	0xbca87f6a	-0.020568568
249	0xbb9a9c20	-0.0047183186
250	0xbe338e03	-0.17534642
251	0xbed15697	-0.40886375
252	0x3d9b0237	0.07568782
253	0x3d9623b0	0.073310256
254	0xbe3f4867	-0.18679963
255	0xbd5e06e6	-0.054205798

conv_embs.0.weight f4 [1, 64]
0	0xbd4c5b2a	-0.04989163
1	0x3e673e63	0.22582392
2	0xbd0ffbc0	-0.035152197
3	0x3d4a6f89	0.049422774
4	0x3e86d6fe	0.263359
5	0x3e578ae7	0.21049081
6	0x3e151fb6	0.14562878
7	0x3dc445c9	0.09583623
8	0xbde642a6	-0.11243181
9	0x3e3c51cb	0.18390577
10	0xbc9ed230	-0.019387335
11	0xbde1d295	-0.110264935
12	0xbd75a75a	-0.059974052
13	0x3db69e97	0.08916967
14	0xbe080805	-0.13284309
15	0x3d21964f	0.039449986
16	0xbdaea70d	-0.08527956
17	0x3e485309	0.19562925
18	0xbd9061f9	-0.07049937
19	0x3e34d0a5	0.17657717
20	0xbdb06c42	-0.086143985
21	0x3e6337de	0.2218928
22	0xbe45865c	-0.19289535
23	0x3e91e3f6	0.28494233
24	0x3d3ee45f	0.04660451
25	0x3e1c3cc0	0.1525755
26	0xbe2a7e74	-0.166498
27	0x3dbfbe7f	0.09362506
28	0x3dfff8eb	0.12498649
29	0xbde69e4b	-0.11260661
30	0xbe0ab295	-0.13544686
31	0x3db9cddc	0.09072468
32	0xbd97b56e	-0.07407652
33	0xbd711b95	-0.058864195
34	0x3e18559a	0.14876404
35	0x3e036d96	0.12834772
36	0xbdaa5a48	-0.08318001
37	0x3dd9d1bd	0.106357075
38	0x3e3a4429	0.18190064
39	0xbc56ad17	-0.013102791
40	0x3dc5d13a	0.096590474
41	0x3e0e236a	0.13880697
42	0xbe125ed7	-0.14293991
43	0xbe1ad1d3	-0.15119104
44	0x3d2e19a2	0.042504914
45	0x3e030be2	0.12797502
46	0xbd803997	-0.062609844
47	0xbd78b17f	-0.06071615
48	0x3d1979b4	0.03746958
49	0x3c7784c4	0.015107337
50	0xbd5f89e0	-0.054574847
51	0xbdda55e8	-0.106609166
52	0x3dd98a4b	0.106220804
53	0xbd0e04ad	-0.034672428
54	0xbda59b1e	-0.08086227
55	0xbe6554f1	-0.22395684
56	0xbcb62ec1	-0.02223909
57	0xbe5b6947	-0.21426879
58	0xbd56a875	-0.052406747
59	0xbe64cd10	-0.2234385
60	0xbdc0c109	-0.094118185
61	0xbe0e7550	-0.13911939
62	0x3d7542ff	0.059878346
63	0xbe2b3c82	-0.167223

conv_embs.1.weight f4 [5, 64]
0	0xbe563b08	-0.20920956
1	0xbd9e4ef9	-0.077299066
2	0xbe5b6776	-0.21426186
3	0xbc52e955	-0.0128730135
4	0xbc92ba63	-0.017911142
5	0xbcbc76f5	-0.023005942
6	0x3e24d895	0.16098244
7	0x3dbfa4d4	0.0935761
8	0xbe5f8c1a	-0.21830788
9	0x3e2d1115	0.16901048
10	0xbeb030bc	-0.3441218
11	0x3d48f6cc	0.04906349
12	0x3dc55a22	0.09636332
13	0xbdf54384	-0.11975768
14	0xbdf9963d	-0.12186859
15	0xbc11d620	-0.008901149
16	0x3e05a316	0.13050494
17	0xbdc543b3	-0.09632053
18	0x3de0ae75	0.10970775
19	0x3e7acdd8	0.24492586
20	0x3c4d34eb	0.012524824
21	0xbbdc6295	-0.006725619
22	0x3d95fe83	0.07323935
23	0x3e18f034	0.1493538
24	0x3cb24a55	0.02176396
25	0x3db6c14e	0.08923589
26	0x3d19e008	0.03756717
27	0x3dee9f79	0.11651511
28	0x3cbb7420	0.022882521
29	0xbe887187	-0.26649114
30	0xbe77b982	-0.2419186
31	0xbe07e739	-0.13271798
32	0x3cd0b042	0.025474671
33	0x3e19b132	0.15009001
34	0xbdb286b6	-0.087171
35	0x3aa88268	0.0012856247
36	0x3e2dcf80	0.16973686
37	0xbd4f3b7c	-0.050593838
38	0xbdc055f8	-0.09391397
39	0xbd8131b9	-0.06308312
40	0xbe3abb26	-0.18235454
41	0xbddfd864	-0.10929945
42	0xbc9b786b	-0.018978318
43	0x3e27ed9a	0.16399232
44	0x3e4607dc	0.19338936
45	0xbc33768d	-0.010953558
46	0x3e3af3b8	0.18257034
47	0x3dc38cb2	0.0954832
48	0xbdbc95ba	-0.092082456
49	0xbd11e19a	-0.03561554
50	0xbdda9ed3	-0.106748246
51	0x3dc33f68	0.09533578
52	0x3da365fb	0.079784356
53	0x3ea3ee98	0.3201797
54	0x3d1c68db	0.038185935
55	0x3e0b1e2a	0.13585725
56	0xbf045b04	-0.5170138
57	0xbdf81700	-0.12113762
58	0xbd7edd86	-0.06222298
59	0x3d818a60	0.06325221
60	0xbe16f846	-0.14743146
61	0x3be12ac2	0.006871552
62	0x3deb3884	0.11485389
63	0x3d8d3d6e	0.068964824
64	0xbe051e38	-0.12999809
65	0x3dc111aa	0.09427197
66	0xbe42acdd	-0.19011255
67	0x3e5925b8	0.21205795
68	0xbe5ef9ec	-0.21775025
69	0x3c5758c7	0.013143725
70	0x3e908a7b	0.28230652
71	0x3cd0ea33	0.0255023
72	0x3db22490	0.0869838
73	0xbde8b694	-0.11362949
74	0x3b738fa0	0.0037164465
75	0x3d7743e3	0.060367476
76	0xbdc79ce3	-0.09746721
77	0x3ba29fa2	0.0049628774
78	0xbde84f37	-0.11343234
79	0xbdb527c2	-0.08845474
80	0xbacad9a7	-0.0015476242
81	0xbe53ce24	-0.20684105
82	0xbcd360c7	-0.025802983
83	0x3c2e17a7	0.010625756
84	0xbdbcb74f	-0.09214651
85	0x3e401343	0.18757348
86	0xbd8539cd	-0.06505165
87	0x3bff5555	0.007792155
88	0xbd5e321b	-0.054247003
89	0xbd9d395e	-0.076769575
90	0xbd48762f	-0.048940834
91	0x3c091764	0.008367393
92	0x3c1390af	0.009006663
93	0xbde4c7cf	-0.11170923
94	0xbe327c86	-0.17430314
95	0x3e574c63	0.21025233
96	0xbc8bcdef	-0.01706597
97	0xbe6d9e9f	-0.2320504
98	0xbe83f6ff	-0.2577438
99	0xbcbb17fc	-0.022838585
100	0x3dcf8099	0.1013195
101	0x3cfd1f08	0.030898586
102	0xbceb7e68	-0.028746799
103	0x3e489a27	0.19590054
104	0xbdb1c0a0	-0.086793184
105	0xbe80143f	-0.25015447
106	0xbe7b49e3	-0.24539904
107	0x3ce714c7	0.02820815
108	0x3de6a5c6	0.112620875
109	0x3e03fc24	0.12889153
110	0x3de646b9	0.11243958
111	0x3dc90254	0.09814897
112	0xbe642fab	-0.22283809
113	0xbe6176f9	-0.2201804
114	0x3d587cb4	0.0528533
115	0x3ddc018a	0.10742481
116	0xbd0ee1a1	-0.034883145
117	0x3d80f0c4	0.062959224
118	0x3d7a06da	0.06104169
119	0x3e8d6341	0.27614787
120	0x3cc4f80f	0.024044065
121	0xbddbd172	-0.10733308
122	0x3e063bc7	0.13108741
123	0xbdeebf90	-0.116576314
124	0x3d774947	0.060372617
125	0xbd851076	-0.0649728
126	0x3ed1a6e2	0.40947634
127	0xbdbf2e10	-0.093349576
128	0x3d780ced	0.060559202
129	0x3dc9cd5b	0.098536216
130	0x3dab4fb4	0.083648115
131	0x3e9725e9	0.2952111
132	0x3e7efb91	0.24900652
133	0x3e8bfc46	0.27340907
134	0xbda71d3b	-0.08159872
135	0xbe336074	-0.17517263
136	0xbca5c4ae	-0.020235386
137	0x3e35f54c	0.17769355
138	0x3e7ef8d6	0.24899611
139	0x3dc57cbf	0.09642934
140	0xbc726481	-0.01479447
141	0xbb45675d	-0.0030121424
142	0x3d997e5b	0.074948035
143	0xbdbc0dca	-0.091823176
144	0x3e172066	0.14758453
145	0x3d68e367	0.056857493
146	0x3cb1e7d4	0.02171699
147	0xbd7ee4ec	-0.062230036
148	0x3daa1bc2	0.08306076
149	0x3e03860f	0.12844108
150	0x3e1fdee1	0.15612365
151	0x3d9d566a	0.07682498
152	0x3e92ea1f	0.28694245
153	0x3d4beb0c	0.049784705
154	0xbe1ac3b7	-0.15113722
155	0x3d19ec37	0.037578788
156	0xbb8e2b61	-0.0043386673
157	0x3cefbff8	0.029266343
158	0xbde714be	-0.11283253
159	0xbcaf3eff	-0.021392344
160	0xbe513d40	-0.20433521
161	0x3db0e26f	0.08636939
162	0xbe0c88c8	-0.13724053
163	0xbeb25dac	-0.3483709
164	0x3d364a61	0.044504527
165	0x3e1d4021	0.15356494
166	0xbe0f4566	-0.13991317
167	0xbc804bdd	-0.015661174
168	0x3e674259	0.22583903
169	0x3e17defd	0.14831157
170	0xbe61c675	-0.22048362
171	0x3e8b6bb7	0.27230617
172	0xbe946e40	-0.28990364
173	0xbc204478	-0.009781949
174	0xbe3351b9	-0.17511643
175	0xbde56e33	-0.112026595
176	0x3dd42e0e	0.10360347
177	0xbe1ec180	-0.15503502
178	0xbe689ee4	-0.22716862
179	0x3d17d6b9	0.03707001
180	0xbd132c10	-0.035930693
181	0xbe0eb048	-0.13934433
182	0xbd7fa573	-0.062413644
183	0x3d3f732b	0.046740692
184	0x3da32f99	0.07968063
185	0xbe90ef35	-0.283075
186	0xbd957593	-0.07297816
187	0x3caa8af3	0.02081821
188	0x3dfb9876	0.12284939
189	0xbd1efc91	-0.038815085
190	0x3dc24e11	0.09487546
191	0xbe4c3541	-0.1994219
192	0xbd8a706d	-0.06759725
193	0xbd0a5e06	-0.033781074
194	0xbd4f79cd	-0.050653268
195	0x3c8cff75	0.017211655
196	0x3dae00b4	0.08496228
197	0x3e422445	0.18959148
198	0x3e40c435	0.18824847
199	0xbd2a6aea	-0.041605867
200	0x3e0bfb28	0.13670027
201	0x3c53b6c1	0.01292199
202	0xb93cc053	-0.00018000724
203	0x3d45d808	0.048301727
204	0x3afb18d7	0.0019157183
205	0xbcc947ea	-0.024570424
206	0xbd3c555a	-0.045979835
207	0xbd292cc0	-0.041302443
208	0xbd8c29b6	-0.06843893
209	0xbe0c47dd	-0.13699289
210	0x3e099123	0.13434272
211	0xbda512ae	-0.080602035
212	0x3c812c13	0.015768087
213	0x3e6ce8a7	0.23135625
214	0x3cb848ff	0.022495745
215	0x3dc44af0	0.09584606
216	0x3e1026a5	0.14077242
217	0xbe2e9fde	-0.17053172
218	0x3d657da7	0.056028035
219	0x3dcbe36a	0.09955485
220	0xbd7262c0	-0.059176207
221	0x3e06cf28	0.13164961
222	0xbc18ca9a	-0.009325648
223	0x3ea0aaf4	0.31380427
224	0x3cdcad27	0.026938034
225	0x3e89e5b5	0.26933065
226	0x3e31960e	0.17342398
227	0xbcd2c35f	-0.025727926
228	0x3d8deaed	0.06929574
229	0x3c749948	0.014929123
230	0x3db3b836	0.0877537
231	0x3e0667ed	0.13125582
232	0xbc5f88b6	-0.013643434
233	0xbd89235b	-0.06696197
234	0x3e767a9e	0.24070212
235	0x3d81f141	0.06344844
236	0xbe741892	-0.23837498
237	0x3c3ddfae	0.011588974
238	0xbdf3e4ff	-0.11908912
239	0xbe065dd0	-0.13121724
240	0x3ea0216b	0.31275496
241	0xbdae625d	-0.08514855
242	0xbe805bf3	-0.25070152
243	0x3c40ef1d	0.011775759
244	0xbe1e25b7	-0.15444075
245	0x3e2fd6dc	0.17171806
246	0x3e52f41e	0.20600936
247	0xbd94a4bc	-0.07257983
248	0xbd2b4885	-0.041817207
249	0x3a23b9b5	0.0006245629
250	0xbd8036c6	-0.06260447
251	0xbe33da1c	-0.17563671
252	0xbd95c521	-0.0731299
253	0xbdfdc39b	-0.123908244
254	0x3eec3e6b	0.4614137
255	0x3e45c749	0.19314303

conv_embs.2.weight f4 [10, 64]
0	0x3c118d01	0.008883716
1	0x3d4a3716	0.04936894
2	0xbe3c500c	-0.1838991
3	0xbe8e2e90	-0.277699
4	0x3c8f5875	0.017498234
5	0x3de27a44	0.110584766
6	0x3d68ed86	0.056867145
7	0x3e0f000b	0.1396486
8	0x3c1a44fa	0.009415859
9	0xbd3ed963	-0.046594035
10	0x3ddbeb6e	0.10738264
11	0xbe387893	-0.18014745
12	0xbeb2879a	-0.3486908
13	0xbdb802bc	-0.089848965
14	0x3c99b47c	0.01876282
15	0x3e377e73	0.1791933
16	0x3d9bb9a7	0.0760377
17	0xbe0561b1	-0.13025548
18	0x3d6c1f38	0.05764696
19	0xbd8569bd	-0.065143086
20	0x3e0be43c	0.13661283
21	0xbcb9f350	-0.022699028
22	0x3da85173	0.0821866
23	0xbba01b4c	-0.0048860665
24	0xbd4948e8	-0.049141794
25	0x3d645e66	0.055754088
26	0xbc59aa6d	-0.013285262
27	0xbdea77b1	-0.114486106
28	0xbc37a7a2	-0.0112094
29	0xbd2ba04b	-0.041900914
30	0x3e3bda7b	0.18345062
31	0x3d49730f	0.049181994
32	0xbd922b06	-0.07137112
33	0x3d5f66e4	0.054541484
34	0x3dbb7e87	0.091549926
35	0x3e49816f	0.19678281
36	0xbd313041	-0.04325891
37	0x3c85fa39	0.016354667
38	0xbdd5a386	-0.1043158
39	0xbe455b65	-0.19273145
40	0x3d98172c	0.07426295
41	0x3da6e219	0.081485935
42	0xbe592103	-0.21203999
43	0xbda5d90b	-0.08098038
44	0xbe5792f7	-0.21052156
45	0x3d66ee39	0.05637953
46	0x3d476292	0.04867799
47	0x3d3664fd	0.044529904
48	0x3e0a5364	0.13508373
49	0xbda87a1b	-0.08226415
50	0x3d6a314c	0.05717592
51	0xbcaa2d59	-0.020773577
52	0xbd081a06	-0.033227943
53	0xbe5738d1	-0.21017767
54	0x3daa23ef	0.08307635
55	0xbc23257b	-0.0099576665
56	0x3ec19177	0.37806293
57	0x3d84a129	0.06476051
58	0xbe1c8160	-0.15283728
59	0x3bc852d8	0.0061133914
60	0xbe0bbbe8	-0.136459
61	0xbe3056c2	-0.17220595
62	0xbd9680b2	-0.073487654
63	0xbd4f3ae3	-0.050593268
64	0xbce04410	-0.027376205
65	0xbb73edde	-0.0037220637
66	0xbea2a6a3	-0.3176776
67	0xbdef763b	-0.116924725
68	0x3d9cd372	0.076575175
69	0x3d4f847f	0.050663467
70	0x3d6ad27c	0.05732964
71	0x3e8687e9	0.26275566
72	0xbe106416	-0.1410068
73	0xbd5a3dea	-0.053281702
74	0xbe4776ff	-0.19478987
75	0x3c81a53b	0.015825858
76	0x3d3b9f55	0.045806248
77	0x3e1314f2	0.14363459
78	0x3e531750	0.20614362
79	0x3dc4fc8a	0.096184805
80	0xbcf23385	-0.029565582
81	0xbcdcc71d	-0.026950413
82	0xbda8684e	-0.082230195
83	0x3e8cc7e1	0.27496246
84	0xbe47fb1a	-0.19529381
85	0x3d4f4c42	0.050609834
86	0xbe5da152	-0.2164357
87	0x3e693db5	0.22777446
88	0xbdda8ddf	-0.10671591
89	0x3c98b497	0.0186408
90	0x3e86f63c	0.26359737
91	0x3df4d26e	0.11954199
92	0xbdecf84d	-0.11570797
93	0xbe6af4a4	-0.22944885
94	0x3e50be5d	0.20385118
95	0xbd91cb80	-0.07118893
96	0xbdf49e45	-0.1194425
97	0xbd5af4c8	-0.053456098
98	0xbe0fe50d	-0.1405222
99	0x3e36da9c	0.1785683
100	0x3d3306ce	0.04370766
101	0x3d1f217f	0.038850304
102	0xbe62db51	-0.22153975
103	0x3db07137	0.08615344
104	0xbce63991	-0.028103622
105	0x3e268178	0.16260326
106	0xbe0603fb	-0.13087456
107	0x3e3b9774	0.18319494
108	0x3e07c0ca	0.13257137
109	0x3d9bae97	0.0760166
110	0x3e8516fa	0.25994092
111	0xbe21cb0d	-0.15800114
112	0x3e560a19	0.2090229
113	0x3da0af10	0.078458905
114	0xbd968614	-0.07349792
115	0x3e258d34	0.16167146
116	0x3e1d4225	0.15357263
117	0xbcbfc31a	-0.023408461
118	0xbe120783	-0.14260678
119	0xbe1b794e	-0.15182993
120	0x3dc157a9	0.09440548
121	0x3d1ffe1e	0.039060704
122	0x3e087e88	0.13329518
123	0x3de2e170	0.11078155
124	0xbca0186b	-0.019542893
125	0x3e069ffd	0.13146968
126	0x3de42039	0.111389585
127	0xbdea414f	-0.11438238
128	0x3e3a16d9	0.18172778
129	0x3dd50dae	0.10403
130	0xbca8ee8d	-0.020621562
131	0x3e6eeb6a	0.23331991
132	0xbba907a3	-0.005158381
133	0x3e626464	0.22108608
134	0x3b0fc117	0.002193516
135	0xbdd4711e	-0.10373138
136	0xbddac744	-0.10682538
137	0xbdde17aa	-0.10844357
138	0x3d161df6	0.036649667
139	0xb9f66614	-0.0004699683
140	0x3d4ef47a	0.05052612
141	0xbcdbdb67	-0.026838018
142	0x3e0ce9f9	0.13761128
143	0x3d96fe97	0.07372778
144	0xbd69441f	-0.05694973
145	0x3d3b6e05	0.04575922
146	0xbe678821	-0.22610523
147	0x3dddf238	0.10837215
148	0xbd80aaac	-0.06282553
149	0x3a71d56a	0.00092252216
150	0xbe987550	-0.29777002
151	0x3e617b80	0.22019768
152	0x3cca7279	0.024712788
153	0x3e3f8c2c	0.18705815
154	0xbde01bb4	-0.10942784
155	0xbd093dd8	-0.033506244
156	0x3d2de0b0	0.042450607
157	0xbd1457b1	-0.03621644
158	0x3ce87e5a	0.028380562
159	0x3df18f94	0.117949635
160	0x3e164276	0.1467379
161	0xbe0e562d	-0.13900061
162	0xbcf19f36	-0.029494863
163	0xbe0eb300	-0.1393547
164	0xbdc4798e	-0.09593497
165	0xbe79f494	-0.24409705
166	0xbdf72e73	-0.12069406
167	0xbdbf5d54	-0.09343973
168	0xbdbe36e3	-0.092878126
169	0x3df8221c	0.12115881
170	0xbe21bbfc	-0.15794367
171	0x3bfdf5d3	0.007750252
172	0x3adabaf0	0.0016687792
173	0xbced0320	-0.028932154
174	0xbde46c6e	-0.11153494
175	0x3e12fa6a	0.14353338
176	0x3e85d22d	0.26136914
177	0xbd24db80	-0.040248394
178	0xbe1c907d	-0.15289493
179	0x3dfd6a23	0.123737596
180	0x3bea5729	0.0071515036
181	0xbe0cb7f8	-0.13742054
182	0x3e4b3043	0.19842629
183	0x3e0aaf82	0.13543513
184	0xbe1556ae	-0.14583847
185	0x3d56aa4f	0.052408513
186	0xbd1280b2	-0.035767265
187	0x3de32769	0.11091501
188	0x3dadb835	0.084824
189	0xbd0aebef	-0.03391641
190	0xbd00bf85	-0.031432647
191	0x3eb3d622	0.35124308
192	0x3d986f65	0.07443122
193	0xbc91f610	-0.017817527
194	0x3a298032	0.0006465941
195	0xbe043b34	-0.12913209
196	0x3deb3a6d	0.11485753
197	0x3e1ea097	0.15490948
198	0xbe120307	-0.14258967
199	0xbd9aafb8	-0.07553047
200	0xbd4ef537	-0.050526824
201	0xbd3a9889	-0.045555625
202	0x3e4aa9ea	0.1979138
203	0x3dc8db27	0.09807425
204	0xbcde0bfc	-0.027105324
205	0x3daae443	0.08344319
206	0x3e8a6ebb	0.27037606
207	0x3da385fa	0.079845384
208	0xbdbaf498	-0.09128684
209	0x3de86af0	0.11348522
210	0x3e352caa	0.17692819
211	0x3defcff1	0.117095836
212	0xbe619533	-0.22029571
213	0x3de369f8	0.11104196
214	0x3d870a33	0.06593742
215	0xbb79b831	-0.0038104171
216	0xbd1df40f	-0.03856283
217	0xbd3a09c1	-0.04541946
218	0x3cacc705	0.021090994
219	0xbddd735f	-0.10813021
220	0xbc19dc65	-0.009390925
221	0x3e7a5850	0.24447751
222	0x3e6c5d6c	0.23082513
223	0x3ddf9c81	0.109185226
224	0xbe1926ed	-0.14956255
225	0x3deb4150	0.11487067
226	0x3e0e40a7	0.1389185
227	0xbe57d840	-0.21078587
228	0x3e6efa4f	0.23337673
229	0x3e26067b	0.1621341
230	0xbc392d54	-0.011302311
231	0xbbe8afb5	-0.007101024
232	0x3c6fc7ca	0.014635036
233	0xbd9582a0	-0.07300305
234	0x3e32dd76	0.17467293
235	0xbd805434	-0.062660605
236	0x3d89746c	0.06711659
237	0x3cd6db8a	0.026227731
238	0xbd99b70f	-0.07505619
239	0x3e99af7e	0.30016702
240	0x3c9b0af2	0.018926118
241	0x3b36b347	0.0027877854
242	0xbdc24d58	-0.094874084
243	0xbd5b0762	-0.053473838
244	0x3d801ebe	0.062558636
245	0xbdb48514	-0.08814445
246	0xbe41d1ef	-0.1892774
247	0xbdbc5b44	-0.09197095
248	0xbc0c2549	-0.008553811
249	0xbcd5fab4	-0.026120521
250	0xbdd45832	-0.103683844
251	0x3e5d0d8e	0.21587202
252	0x3b7c59c5	0.0038505655
253	0xbda4537a	-0.080237344
254	0xbc8fbabc	-0.017545097
255	0xbc0c5500	-0.008565187

lin_embs.0.weight f4 [250, 64]
0	0x3e5c1195	0.21491082
1	0xba3be40a	-0.00071674644
2	0xbd8c4605	-0.06849293
3	0x3d179520	0.03700745
4	0x3d7e0fce	0.06202679
5	0x3dc254d0	0.09488833
6	0xbcfc45b9	-0.030794965
7	0xbdb8e88e	-0.09028731
8	0x3d48b0ef	0.048996862
9	0xbe1c2d72	-0.15251711
10	0xbe60b55e	-0.21944186
11	0x3be53bd4	0.0069956575
12	0x3e3e7b24	0.18601662
13	0x3e230153	0.15918474
14	0x3e1562f8	0.14588535
15	0x3e1e5989	0.15463842
16	0xbe733793	-0.23751669
17	0xbc87d577	-0.01658128
18	0x3c3b9230	0.011448428
19	0xbd86b402	-0.065773025
20	0x3d0c07f0	0.034187257
21	0xbe1a88ab	-0.15091197
22	0xbdaeb2d5	-0.08530203
23	0xbe4f088e	-0.20218107
24	0xbc82f7ed	-0.01598736
25	0x3e06dc1e	0.13169906
26	0xbd87ae9b	-0.066251
27	0x3e0dbeea	0.13842359
28	0x3e1b9d51	0.1519673
29	0xbd5f0639	-0.054449294
30	0x3dac2a74	0.08406535
31	0x3ca4dbd7	0.020124359
32	0xbd3f7d44	-0.046750322
33	0xbe1a3e4c	-0.15062827
34	0x3d176034	0.03695698
35	0xbe2a2b53	-0.1661809
36	0xbe6159a2	-0.22006848
37	0xbd020300	-0.031741142
38	0x3e7bb0fc	0.24579233
39	0x3d95feb8	0.07323974
40	0xbe1a1d68	-0.1505028
41	0x3dd849d8	0.105609596
42	0xbdad1201	-0.084506996
43	0xbe145468	-0.14485323
44	0xbc868425	-0.016420433
45	0x3c1a32f1	0.009411559
46	0xbdf88a4a	-0.121357515
47	0x3d7f4c59	0.06232867
48	0xbbb00250	-0.0053713694
49	0x3dde37cb	0.108504854
50	0xbe313fc4	-0.17309481
51	0xbd7acafa	-0.06122873
52	0x3dc6c9b4	0.097064406
53	0x3adbf8c6	0.0016782514
54	0xbe054988	-0.13016331
55	0x3d8851c3	0.0665622
56	0xbe51596e	-0.20444271
57	0xbe11323a	-0.14179316
58	0xbe25f4df	-0.16206692
59	0x3e0ff7d1	0.14059378
60	0x3dd129d5	0.10213057
61	0xbd0199f8	-0.031640977
62	0x3e4e9051	0.2017224
63	0x3d170fb5	0.036880214
64	0xbe0ea4b9	-0.13930024
65	0xbdbc0997	-0.091815166
66	0x3d9644df	0.07337355
67	0x3dfa7fb1	0.122313865
68	0xbac4d13c	-0.001501597
69	0x3e799b62	0.2437568
70	0x3d8f0870	0.06984031
71	0x3d2e78ac	0.04259555
72	0xbda95dba	-0.0826983
73	0x3c4e7947	0.012602157
74	0x3d800075	0.06250087
75	0xbd00b930	-0.03142661
76	0x3e4ff14e	0.20306894
77	0xbdc2da5b	-0.09514304
78	0x3dca8150	0.09887946
79	0xbdc79d40	-0.0974679
80	0xbd97d554	-0.07413736
81	0xbded79e1	-0.11595512
82	0x3e543bec	0.20725983
83	0x3cd670e4	0.026176877
84	0xbddab632	-0.10679282
85	0xbd837ac9	-0.06419904
86	0xbdca572b	-0.09879907
87	0x3dbec8e9	0.09315664
88	0xbd0239e2	-0.031793483
89	0x3c328824	0.010896716
90	0xbd42353a	-0.047414042
91	0x3dfd3815	0.123642124
92	0x3cf86a17	0.030324025
93	0xbda316f1	-0.0796336
94	0x3db5227a	0.088444665
95	0x3cb76f11	0.022391828
96	0xbdeb859c	-0.11500093
97	0xbdfc4e15	-0.123195805
98	0x3e13b67a	0.14425078
99	0xbd2b4177	-0.04181048
100	0xbe80d96f	-0.2516589
101	0x3d8298c5	0.06376795
102	0xbcbd1c39	-0.023084747
103	0xbdd1432b	-0.102178894
104	0x3d744455	0.05963548
105	0xbe258560	-0.1616416
106	0x3cb40baf	0.021978227
107	0xbe43b9bd	-0.19113822
108	0xbe4f74b7	-0.20259367
109	0x3d4f312e	0.05058401
110	0x3d9ca337	0.07648318
111	0x3e122c52	0.1427472
112	0xbcd80720	-0.026370585
113	0xbda618ff	-0.081102364
114	0x3e90b193	0.28260478
115	0xbe08c920	-0.13357973
116	0x3d0d5bed	0.034511495
117	0x3e3b525e	0.1829314
118	0x3e4cfe17	0.20018803
119	0xbe21ca5d	-0.15799852
120	0xbcd37a66	-0.0258152
121	0xbd91ec34	-0.0712513
122	0x3e249869	0.16073765
123	0x3d9557c5	0.07292131
124	0x3d8bb3dc	0.06821415
125	0x3ded4b9d	0.11586688
126	0xbd9c999b	-0.076464854
127	0x3d8a95ff	0.06766891
128	0x3e1b2b16	0.15153155
129	0xbd0da62d	-0.034582306
130	0xbe896bde	-0.2684011
131	0x3d2f2f05	0.04276945
132	0xbc835fcd	-0.016036892
133	0xbca62631	-0.020281883
134	0xbe2b969f	-0.16756676
135	0x3da93dc8	0.08263737
136	0xbd54028c	-0.05176024
137	0xbe93d243	-0.28871354
138	0x3d871a48	0.065968096
139	0x3d1933c0	0.03740287
140	0x3e3b2e14	0.18279296
141	0x3d7e6ecc	0.062117383
142	0x3e123497	0.14277874
143	0x3d172265	0.036898036
144	0x3b90fade	0.004424437
145	0xbe3a7355	-0.18208058
146	0xbdcb8416	-0.09937303
147	0xbc430c49	-0.0119047845
148	0x3ce9f341	0.028558375
149	0x3d0f8061	0.03503454
150	0x3e0a7bfd	0.1352386
151	0x3da7fe7e	0.082028374
152	0xbd7d85f6	-0.061895333
153	0xbc156997	-0.009119413
154	0x3cc54ae3	0.02408356
155	0x3cb2aceb	0.02181097
156	0xbd4e28de	-0.050331943
157	0xbe2d24a5	-0.1690851
158	0x3e37a6fd	0.17934795
159	0x3e7b4c6c	0.24540871
160	0x3d689b47	0.05678871
161	0xbd69fbe3	-0.057124984
162	0x3e6eecee	0.23332569
163	0x3e216612	0.15761593
164	0x3dadd565	0.084879674
165	0xbdbaef62	-0.0912769
166	0x3dbf6158	0.09344739
167	0x3d413841	0.04717279
168	0xbdd051c7	-0.10171848
169	0x3b4dab47	0.0031382607
170	0xbe79cea1	-0.24395229
171	0x3d119f49	0.035552297
172	0xbce29326	-0.027658056
173	0xbe092a87	-0.13395129
174	0xbdccd51b	-0.10001584
175	0x3e99f957	0.30073044
176	0x3ec12677	0.3772466
177	0x3d5193e4	0.05116643
178	0x3dad2c06	0.084556624
179	0xbcb75fe7	-0.022384597
180	0xbaedcc8d	-0.0018142626
181	0xbca957e9	-0.020671802
182	0xbc0cbb25	-0.008589541
183	0x3d18ad3a	0.037274577
184	0xbe823246	-0.2542898
185	0x3e3dc572	0.1853235
186	0xbd50477f	-0.050849434
187	0xbe4d5589	-0.2005216
188	0xbdb90b62	-0.09035374
189	0xbe09c6dd	-0.13454767
190	0x3e525063	0.20538478
191	0xbe210474	-0.15724355
192	0x3d4cf614	0.050039366
193	0x3d06e6a0	0.032934785
194	0xbc68887e	-0.0141926985
195	0xbdccae15	-0.09994141
196	0xbdfb3db4	-0.12267628
197	0xbc1e977b	-0.00967967
198	0xbe5aec1e	-0.21379134
199	0xbd58dd0c	-0.05294518
200	0xbdcfc631	-0.10145224
201	0x3df45232	0.1192974
202	0xbd8f538a	-0.06998356
203	0xbd8a8509	-0.06763656
204	0x3dd21f6c	0.102598995
205	0x3dc9b5f2	0.098491564
206	0x3dc19488	0.09452158
207	0xbd553574	-0.05205293
208	0xbc925bef	-0.017866103
209	0x3df075b3	0.11741199
210	0x3d0ff66d	0.03514712
211	0xbd8e5d85	-0.06951431
212	0x3da14853	0.07875123
213	0x3e0b31b7	0.13593183
214	0x3d04afbd	0.03239416
215	0x3e21f8c5	0.15817554
216	0x3d2c5027	0.042068627
217	0xbe29b0df	-0.16571377
218	0xbe133688	-0.14376271
219	0xbe3f64bd	-0.18690772
220	0xbe16ff57	-0.14745842
221	0x3c23cb7c	0.009997245
222	0x3a51ab36	0.00079982297
223	0x3d915330	0.07095945
224	0x3cfcf6a4	0.030879326
225	0xbdb468e6	-0.0880907
226	0x3da6e280	0.0814867
227	0xbd9f6691	-0.07783235
228	0xbe7d0441	-0.24708654
229	0x3d76999a	0.06020508
230	0xbce8e1f4	-0.028428055
231	0xbcfa9c3b	-0.030592075
232	0xbcde4bb9	-0.027135717
233	0x3e3d8d5f	0.1851096
234	0xbcbb9385	-0.022897491
235	0xbd991379	-0.07474417
236	0xbd4949b6	-0.04914256
237	0x3e676f3e	0.2260103
238	0xbe19f710	-0.15035653
239	0x3e054a67	0.13016663
240	0xbdee4e33	-0.11636009
241	0x3e102500	0.14076614
242	0xbd5ad067	-0.053421404
243	0x3dabf534	0.08396378
244	0x3e0f7937	0.14011084
245	0xbe5cef86	-0.21575746
246	0xbd37e99c	-0.04490052
247	0xbcfdb305	-0.030969152
248	0xbe8d7472	-0.27627903
249	0xbdf652e6	-0.1202753
250	0xbbd1f4b8	-0.0064073466
251	0x3e23bd9a	0.15990296
252	0x3ba25131	0.0049535264
253	0x3d8cb45d	0.06870339
254	0x3d1ad452	0.03780014
255	0xbe64ce26	-0.22344264

lin_embs.1.weight f4 [10, 64]
0	0x3dcc6359	0.099798866
1	0xbe06ebde	-0.13175914
2	0x3ded51ce	0.11587869
3	0xbe21fa79	-0.15818204
4	0xbb94b2c8	-0.004537914
5	0xbd447773	-0.04796548
6	0x3d248adc	0.04017149
7	0x3b09bbf0	0.002101656
8	0x3d1e60b3	0.03866644
9	0x3e9db0d0	0.3079896
10	0x3cc54c4b	0.02408423
11	0x3d099ed4	0.033598736
12	0x3db7f2f4	0.089818865
13	0xbe7d2441	-0.24720861
14	0xbdc87955	-0.09788767
15	0x3da3c714	0.079969555
16	0x3dee8633	0.1164669
17	0xba504fc5	-0.0007946457
18	0xbdc5e01d	-0.09661887
19	0x3d5d4585	0.054021377
20	0xbdb98203	-0.09058001
21	0xbe8ab0ed	-0.2708811
22	0x3dc5b064	0.096527845
23	0xbcfd4f35	-0.030921558
24	0x3d93ecde	0.07222913
25	0x3dd10244	0.1020551
26	0xbe8e2d99	-0.27769163
27	0xbe2866f3	-0.16445522
28	0x3d1f7ae0	0.038935542
29	0xbdefef04	-0.117155105
30	0xbd919307	-0.07108121
31	0x3c808a07	0.015690817
32	0xbddd371b	-0.10801526
33	0xbe889f3b	-0.26683983
34	0x3e05d788	0.130705
35	0x3d4f5813	0.050621103
36	0x3c88f5a2	0.01671869
37	0x3c71e3b0	0.014763758
38	0xbd8dcafb	-0.06923481
39	0x3d960dd8	0.07326859
40	0x3d95642e	0.072944984
41	0x3e3c2881	0.18374826
42	0x3e0987b9	0.1343068
43	0xbe4783c0	-0.19483852
44	0xbdde537e	-0.108557686
45	0xbd15bce0	-0.03655708
46	0x3e4eab67	0.20182572
47	0x3db140c5	0.08654932
48	0xbb9829ec	-0.0046436694
49	0xbe0a4872	-0.13504198
50	0x3d4af3a7	0.04954877
51	0x3d341e35	0.04397412
52	0xbc74bf88	-0.014938243
53	0xbd9399aa	-0.072070435
54	0x3c69a82c	0.014261287
55	0x3d958d35	0.07302324
56	0xbdcb8d9e	-0.09939121
57	0xbd01a49d	-0.031651128
58	0x3ebce303	0.36891946
59	0x3e02f930	0.1279037
60	0xbda661c9	-0.0812412
61	0xbd43e391	-0.047824446
62	0xbe518f89	-0.2046491
63	0x3d5e6340	0.05429387
64	0xbd52732f	-0.05137938
65	0xbe135e86	-0.14391527
66	0x3e307fc7	0.17236243
67	0x3e3863fc	0.18006891
68	0x3e182f46	0.14861783
69	0xbd923cce	-0.07140504
70	0x3c3b249d	0.0114223035
71	0x3e8eb246	0.27870387
72	0xbd5f9fc4	-0.054595724
73	0x3e1f22e8	0.1554066
74	0x3e9947a3	0.29937467
75	0x3db15fbb	0.08660837
76	0x3e8794cd	0.26480713
77	0xbe08816d	-0.13330622
78	0xbe8c9dec	-0.27464235
79	0xbdce1b12	-0.10063757
80	0xbdc87e98	-0.09789771
81	0x3e4a2692	0.19741276
82	0xbe0adc37	-0.13560568
83	0xbda8a20c	-0.08234033
84	0x3e8add50	0.27121973
85	0xbd71708d	-0.058945227
86	0x3dc54f1d	0.0963423
87	0xbc74029a	-0.014893198
88	0x3e18615b	0.14880888
89	0x3e064a6f	0.13114332
90	0x3df6e4e9	0.1205538
91	0xbaee06a0	-0.0018159933
92	0xbe610a82	-0.21976665
93	0x3d68ca65	0.056833643
94	0xbebb98da	-0.36640054
95	0x3e175f28	0.14782393
96	0x3dfc54f5	0.12320892
97	0x3d66db7d	0.056361664
98	0xbda25bd8	-0.07927674
99	0x3e26b433	0.16279678
100	0x3e15f0b3	0.146426
101	0x3da25c32	0.07927741
102	0x3dcf1190	0.10110772
103	0x3d8d3641	0.06895114
104	0xbec4e4ea	-0.38455898
105	0x3e37f601	0.17964937
106	0xbd92f233	-0.07175102
107	0x3d459593	0.04823835
108	0x3b3ca317	0.0028783733
109	0xbc98de7c	-0.018660776
110	0x3e062fa4	0.13104111
111	0xbe46122c	-0.1934287
112	0x3dbaedc6	0.09127383
113	0x3e0902d8	0.13379991
114	0xbe1539e0	-0.14572859
115	0xbe82345a	-0.25430566
116	0x3e31b9fd	0.17356105
117	0x3d8577a7	0.065169625
118	0xbdce4483	-0.10071661
119	0x3d9b8272	0.0759324
120	0xbd4a0cea	-0.049328722
121	0x3be65f45	0.0070304
122	0xbcbf238e	-0.023332383
123	0x3c288d97	0.010287664
124	0x3d9e24b7	0.077218466
125	0x3cfeca3f	0.031102298
126	0xbd8d56e3	-0.06901338
127	0x3e6e2c4f	0.2325909
128	0x3df10f77	0.11770528
129	0x3e0bc750	0.1365025
130	0x3d078d94	0.033094004
131	0xbdbc9b7e	-0.09209345
132	0xbdf94713	-0.121717595
133	0x3d8a226b	0.06744846
134	0x3d87fb21	0.06639696
135	0x3e572104	0.21008688
136	0xbe59745c	-0.21235794
137	0x3c4d4b4e	0.012530161
138	0x3e3cfe7d	0.18456455
139	0xbd307f35	-0.043090064
140	0x3d8b0607	0.06788259
141	0x3d8910a6	0.066926286
142	0xbdb9bba8	-0.09068996
143	0x3e21773b	0.15768139
144	0x3d945f5d	0.072447516
145	0xbe0bc15e	-0.13647982
146	0x3e3d623d	0.18494506
147	0xbe77eacf	-0.24210666
148	0xbd51f58c	-0.051259562
149	0xbe2aaf02	-0.16668323
150	0xbe982f32	-0.29723507
151	0x3cfdf0d8	0.030998632
152	0xbe1fb65f	-0.15596913
153	0x3df838c9	0.12120206
154	0x3d8e08fb	0.06935307
155	0xbdce8d57	-0.10085552
156	0x3dc371de	0.09543203
157	0xbe77af3f	-0.24187945
158	0xbe003ae2	-0.12522462
159	0x3e1fe996	0.1561645
160	0x3cdc772c	0.026912294
161	0x3dd7d27d	0.10538194
162	0x3d1d170f	0.03835207
163	0xbe83468b	-0.25639758
164	0xbcf36ab8	-0.029713973
165	0x3e26bed9	0.1628374
166	0xbe49189d	-0.19638295
167	0x3c7d33d2	0.015454249
168	0x3d6f2c8a	0.058392085
169	0x3e2eca08	0.17069256
170	0x3c655d71	0.013999329
171	0x3d0d8c68	0.03455773
172	0x3b8bb9ac	0.004264077
173	0xbd35e4ce	-0.04440766
174	0x3cda4b55	0.02664725
175	0x3e2dc649	0.16970171
176	0x3e0396be	0.12850472
177	0xbbd4b415	-0.006491194
178	0x3d811f22	0.06304766
179	0xbca8146e	-0.020517554
180	0x3e3a44f5	0.18190368
181	0x3cc852f9	0.024453627
182	0xbd1dae94	-0.03849657
183	0xbde730ec	-0.11288628
184	0x3d463743	0.048392545
185	0x3e1cc43d	0.15309234
186	0x3d870f64	0.065947324
187	0xbd951e84	-0.07281211
188	0xbe2a9f12	-0.16662243
189	0x3db9c2c5	0.090703525
190	0xba305257	-0.0006726137
191	0x3e452b4b	0.19254796
192	0x3c5075de	0.012723414
193	0x3d983a6e	0.074330196
194	0xba746f4d	-0.00093244464
195	0xbe3d352b	-0.18477313
196	0xbd91f95c	-0.0712764
197	0x3eb09ed9	0.3449619
198	0x3de364aa	0.111031845
199	0x3bdd520c	0.0067541655
200	0x3ce0fb19	0.027463483
201	0xbc41c79c	-0.011827376
202	0x3cd107e3	0.025516456
203	0xbc7e72ae	-0.015530271
204	0x3c2c9ac6	0.010534948
205	0xbe327aa6	-0.17429599
206	0xbe24c038	-0.1608895
207	0xbd55a7cd	-0.05216198
208	0xbe828939	-0.25495318
209	0xbd8d1018	-0.06887835
210	0x3d2b2a2b	0.04178826
211	0x3d45fd98	0.04833755
212	0x3d9809a2	0.07423712
213	0x3d039649	0.032125745
214	0x3e08c1a1	0.13355114
215	0xbe41a044	-0.18908793
216	0xbc30a0b9	-0.010780507
217	0x3cdea39b	0.027177623
218	0x3e5e27f0	0.21694922
219	0xbc8c7a94	-0.017148294
220	0xbd96759b	-0.0734665
221	0xbe90a471	-0.2825046
222	0xbd88c0d6	-0.066774055
223	0x3dcabf41	0.0989976
224	0xbc9c212e	-0.01905879
225	0x3e304f41	0.17217733
226	0xbd60380f	-0.05474096
227	0xbd4d6695	-0.050146658
228	0x3e70dc60	0.23521566
229	0xbe2480af	-0.16064714
230	0xbe202a56	-0.1564115
231	0x3c689294	0.014195103
232	0xbd4cc343	-0.049990904
233	0xbdaab181	-0.083346374
234	0x3d63ed8a	0.055646457
235	0x3e00f27a	0.12592497
236	0xbe1f5162	-0.15558389
237	0x3af33716	0.0018555846
238	0xbd41f61e	-0.047353856
239	0x3c9f89a0	0.019474804
240	0xbe6da556	-0.23207602
241	0x3c8cc928	0.017185763
242	0xbe0636b1	-0.131068
243	0xbe299055	-0.16558965
244	0xbe171217	-0.14752994
245	0xbe0c101e	-0.13678023
246	0xbe2289ce	-0.15872881
247	0x3e39c2bd	0.18140693
248	0x3e8b7e3d	0.2724475
249	0xbd71a712	-0.05899722
250	0xbe608e5e	-0.21929309
251	0x3e6b2050	0.22961545
252	0x3d4228ee	0.047402315
253	0x3da4cf6b	0.08047374
254	0x3d58f89f	0.05297148
255	0x3e4bf735	0.19918521
