models/tmp.pth (torch, 309399 bytes, 5 tensors)

biases.0 f4 [400]
0	0xbc41c7b5	-0.011827399
1	0xbd3381da	-0.043825008
2	0xbb3341df	-0.0027352495
3	0x3cc4e551	0.024035128
4	0xbc26c760	-0.010179371
5	0xbd04e070	-0.032440603
6	0xbcae7741	-0.0212971
7	0x3c297066	0.010341739
8	0x3cf4aa8e	0.029866483
9	0xbcfbbc3f	-0.030729411
10	0x3bef517d	0.0073034153
11	0xbd3572c1	-0.04429889
12	0xbc3fb9d1	-0.011702017
13	0xbb65cb9f	-0.0035063995
14	0x3c551ef8	0.013007872
15	0xbc29edc1	-0.010371626
16	0xbd111800	-0.03542328
17	0x3c9460be	0.018112537
18	0x3d2230e1	0.039597396
19	0x3ca84f79	0.020545708
20	0xbc8e2905	-0.017353544
21	0x3d092b37	0.03348848
22	0xbd312ead	-0.043257404
23	0x3c9286e5	0.017886588
24	0xbc34c55d	-0.011033383
25	0xbcebf583	-0.028803593
26	0x3c6eab8e	0.014567269
27	0x3beacde9	0.0071656597
28	0x3cbcb260	0.023034275
29	0x3b3fe39d	0.0029279955
30	0x3cdcd0b6	0.02695499
31	0x3bc2350e	0.005926735
32	0xbca6672b	-0.020312866
33	0x3d180f4c	0.037123963
34	0xbcf21862	-0.029552642
35	0x3c9f8333	0.01947174
36	0xbd297819	-0.0413743
37	0xbca80bd1	-0.020513447
38	0xbd1b17ad	-0.037864376
39	0x3d016e6e	0.031599455
40	0x3c934849	0.017978804
41	0xbcbd6e53	-0.023123896
42	0xbd172e34	-0.036909297
43	0xbc8ff52f	-0.017572967
44	0x3bb2c239	0.005455282
45	0x3c658f7c	0.01401126
46	0x3c91484f	0.017734675
47	0x3c4cbd01	0.012496234
48	0xbbb577ef	-0.005537979
49	0xbc68d1cd	-0.014210177
50	0xbd0f02c9	-0.034914766
51	0x3c323cca	0.010878751
52	0x3c3d8b3f	0.011568843
53	0x396eb223	0.0002276381
54	0xbcc8ef20	-0.024528086
55	0xbbc09b60	-0.005877897
56	0xbd1048b4	-0.035225585
57	0xbb26c1f4	-0.0025445195
58	0xbd13a2c7	-0.03604391
59	0x3ca85d66	0.020552348
60	0xbc7188cd	-0.0147420885
61	0xbd07fae7	-0.033198263
62	0x3ca98796	0.020694535
63	0xbca7729e	-0.020440396
64	0x3c8835fb	0.016627302
65	0x3c92a38f	0.017900256
66	0x3c9bbed1	0.019011887
67	0xbd35bfd8	-0.04437241
68	0x3a94309f	0.0011305994
69	0xbc5be7d7	-0.013421974
70	0x3c28f368	0.010311939
71	0xbcab10fd	-0.020882124
72	0xbcdd093f	-0.026981948
73	0xbc12edf1	-0.008967862
74	0xbccfe22f	-0.025376407
75	0xbceaf595	-0.028681556
76	0xbd0fc176	-0.035096608
77	0x3cd99286	0.026559126
78	0xbd0cbfa5	-0.034362454
79	0xbd0e7e29	-0.034788284
80	0x3caa3d26	0.020781111
81	0x3c1a96f6	0.009435406
82	0xbd0d8648	-0.03455189
83	0xbd11e6ba	-0.03562043
84	0xbcebd493	-0.028787887
85	0x3d1f8c42	0.03895212
86	0x3c05b9c3	0.008161965
87	0x3c57268f	0.013131752
88	0xbb9a9999	-0.0047180173
89	0x3cd49c26	0.025953364
90	0xbc8f2c87	-0.017477287
91	0xbc0b1ee1	-0.008491249
92	0x3d007618	0.031362623
93	0xbc371f2c	-0.011176866
94	0xbc99b199	-0.018761443
95	0x3cb1d078	0.021705851
96	0xbc40877b	-0.011751051
97	0x3bca0008	0.0061645545
98	0xbc8c9b53	-0.017163908
99	0x3bbae517	0.005703579
100	0x3c8eef73	0.017448163
101	0x3c15d06f	0.009143933
102	0x3c5f6065	0.013633822
103	0x3d022528	0.031773716
104	0xbb0ba8fa	-0.0021310435
105	0xbc351cb7	-0.011054209
106	0xbc2526b1	-0.0100800255
107	0xbcd72e51	-0.026267203
108	0xbc34d0b6	-0.011036089
109	0x3c66a252	0.014076786
110	0x3cae9c26	0.021314692
111	0x3c5ce640	0.01348263
112	0xbc5f8208	-0.013641842
113	0xbc031e69	-0.008002856
114	0xbd340b7c	-0.043956265
115	0xbc9624a5	-0.01832802
116	0xbc86ebeb	-0.016469916
117	0xbc1a1a53	-0.00940569
118	0xbc300755	-0.010743936
119	0xbaf8029b	-0.0018921675
120	0x3c9b6284	0.018967874
121	0xbc7c7dc9	-0.015410849
122	0x3c0ac0af	0.008468791
123	0xbc42657a	-0.011865014
124	0x3c9c99ba	0.019116271
125	0x3b117904	0.0022197375
126	0xbca52bc2	-0.020162467
127	0xbd3cced6	-0.04609569
128	0xbc209219	-0.009800457
129	0xbd1e3798	-0.038627237
130	0xbc280ae3	-0.010256502
131	0xbc3ac1ee	-0.0113987755
132	0xbc4bd8d9	-0.012441837
133	0xbca3dafe	-0.020001885
134	0xbcabd60e	-0.020976093
135	0xbc9cbe66	-0.019133758
136	0xbc871caf	-0.01649317
137	0xbd387a22	-0.04503835
138	0x3d069ad2	0.032862492
139	0xbc01b911	-0.007917658
140	0xbc079ab9	-0.008276635
141	0xbcd55968	-0.026043609
142	0xbd1a64fe	-0.03769397
143	0xbc9b4ec2	-0.018958453
144	0xbc8bb6e4	-0.017054982
145	0x3c5c71ed	0.013454896
146	0x38a0e04d	7.671174e-05
147	0xbc36c21c	-0.011154678
148	0x3c1dda4e	0.009634567
149	0xbbc9b624	-0.006155746
150	0xbba23f3e	-0.0049513867
151	0xbc3e4a20	-0.011614352
152	0x3c1895d8	0.009313069
153	0xbd1405cf	-0.036138352
154	0xbd15ec2c	-0.036602184
155	0x3bafd697	0.0053661573
156	0xbd32c4cd	-0.043644715
157	0x3c8cb4d3	0.017176067
158	0xbb7c6e7f	-0.003851801
159	0x3d097d62	0.03356684
160	0xbc4ff24b	-0.0126920445
161	0xbd3cbeca	-0.046080388
162	0xbc1607a4	-0.009157095
163	0xbd0e7208	-0.034776717
164	0x3cf2712d	0.029594982
165	0xbd067c4b	-0.03283338
166	0xbc24d128	-0.010059632
167	0x3bb6c364	0.0055774916
168	0xbb34204e	-0.0027485075
169	0xbb9c4560	-0.0047690123
170	0x3c786dc3	0.015162888
171	0x3d1fc475	0.039005715
172	0xbb46e41c	-0.0030348366
173	0x3d075e3c	0.033048853
174	0xbc9ea1fb	-0.019364348
175	0x3ca25ca7	0.01981957
176	0xbca5a699	-0.020221042
177	0xbccafc9d	-0.024778659
178	0xbca72e4a	-0.020407815
179	0x3bebefc3	0.0072002127
180	0xbcb3b738	-0.021937951
181	0x3c869d66	0.016432475
182	0xbd1aac41	-0.03776193
183	0x3c86f074	0.016472079
184	0x3d356ceb	0.044293325
185	0xbc2acd22	-0.010424884
186	0x3d1a0751	0.037604634
187	0x3b179552	0.0023129773
188	0xbd0bcb5c	-0.034129485
189	0x3beec70d	0.0072869123
190	0xbd12fe05	-0.035886783
191	0x3c8a17a3	0.016856974
192	0xbcacae61	-0.021079244
193	0x3c1f652c	0.009728711
194	0xbcbe4884	-0.023227938
195	0x3d40939e	0.04701578
196	0xbcaf1434	-0.021371938
197	0xbcf78e1d	-0.030219132
198	0xbc5fcba5	-0.0136593925
199	0x3b57aaa5	0.0032908109
200	0x3aa7474d	0.0012762338
201	0xbcb2752e	-0.021784391
202	0xbbe8f5d4	-0.007109383
203	0xbc2321a4	-0.009956751
204	0x3bb2e110	0.0054589584
205	0xbd32acc0	-0.04362178
206	0xbca22ce1	-0.01979679
207	0x3c09c364	0.008408401
208	0xbb19eee4	-0.0023488337
209	0x3a91931d	0.0011106465
210	0xbc676e76	-0.014125457
211	0x3c5b555d	0.013387051
212	0xba6b7cfe	-0.0008983164
213	0xbbab2031	-0.0052223434
214	0x3cb78cb5	0.022405962
215	0x3b97bb79	0.004630503
216	0x3c221fb4	0.009895254
217	0xbcc469a2	-0.02397615
218	0x3d0adb49	0.033900533
219	0xbc6487ee	-0.013948424
220	0x3c2cb069	0.010540106
221	0xbbe426f5	-0.006962652
222	0x3cbcf709	0.023067014
223	0x3b4cbc6b	0.0031240236
224	0xbc93e203	-0.018052107
225	0xbc9a53bd	-0.018838758
226	0xbc3619fd	-0.0111145945
227	0x3c90c9b1	0.017674299
228	0xbbe25d46	-0.0069080917
229	0xbc17f693	-0.0092750965
230	0xbc578f9f	-0.0131568005
231	0xbb6c5bb1	-0.0036065395
232	0x3c377094	0.011196274
233	0x3d16519e	0.03669893
234	0xbd09a665	-0.03360595
235	0x3c6b4f21	0.0143621275
236	0xbcfe2baf	-0.03102669
237	0x3ca1a3d6	0.019731443
238	0xbca569b2	-0.020192001
239	0x3cd29a5c	0.02570837
240	0x3bd5dec8	0.0065268017
241	0x3c89b89d	0.016811663
242	0xbcc394d1	-0.023874672
243	0x3d0d0721	0.034430627
244	0xbd25f994	-0.04052122
245	0xbd132631	-0.035925094
246	0x3cc39115	0.023872891
247	0xbc47cc8e	-0.012194766
248	0xbd3ddd28	-0.04635349
249	0xb9abf006	-0.00032794493
250	0xbc750b71	-0.014956341
251	0xbcc0fb5f	-0.023557363
252	0xbd4165de	-0.04721629
253	0x3c964a22	0.018345896
254	0x3c14bcaa	0.009078184
255	0x3b86b8f1	0.004111402

biases.1 f4 [10]
0	0x3ac17160	0.001475852
1	0xbd0be656	-0.034155212
2	0xbd067dd2	-0.032834835
3	0x3ca9f562	0.02074689
4	0x3c927362	0.017877284
5	0xbd2cce9a	-0.042189218
6	0x3cd0514e	0.025429394
7	0xbd0782d2	-0.033083744
8	0xbd211e9a	-0.039335825
9	0x3c0a2738	0.008432202

embs.0.weight f4 [784, 64]
0	0x3d0f41fb	0.034975033
1	0xbd17f642	-0.037100084
2	0xbd113a4c	-0.035455987
3	0x3cf10947	0.02942337
4	0x3c5338f0	0.012891993
5	0x3d3e508c	0.046463534
6	0xbc3c69c6	-0.011499828
7	0xbcd5bde4	-0.026091523
8	0x3c92ab89	0.01790406
9	0xbc17a891	-0.009256498
10	0xbb6da0a6	-0.0036259084
11	0xbcaac65c	-0.020846538
12	0x3c17213e	0.009224234
13	0x3c3f10dd	0.011661735
14	0x3c7aaf37	0.015300564
15	0xbd06a520	-0.03287232
16	0x3b396867	0.0028290988
17	0x3baab728	0.005209822
18	0x3cd9c80f	0.026584653
19	0x3cc451e2	0.023964826
20	0x3d39b5ed	0.045339514
21	0xbbf59b34	-0.0074953083
22	0x3c24f2a7	0.010067618
23	0x3d039e1b	0.032133203
24	0xbc38a260	-0.011269182
25	0xbd0a8c49	-0.033825193
26	0x3b87d0f3	0.0041447817
27	0xbc69d2c9	-0.0142714465
28	0xbca105ca	-0.01965608
29	0xbd157a52	-0.036493607
30	0x3c5b6157	0.013389907
31	0xbc11801e	-0.008880643
32	0xbc5455dd	-0.0129599245
33	0x3cfea5e9	0.031084972
34	0xba43f0d7	-0.00074745476
35	0x3c8d8841	0.017276885
36	0xbc771133	-0.015079784
37	0x3c81d277	0.015847428
38	0x3ca30d12	0.019903693
39	0xbcbddfc2	-0.023177985
40	0xbc0d667b	-0.00863039
41	0x3bb804be	0.0056157997
42	0x3c91b485	0.017786274
43	0x3d06f444	0.032947794
44	0x3c95d267	0.018288804
45	0x3b99df30	0.0046957955
46	0x3cae2a35	0.02126036
47	0x3d1476d9	0.036246154
48	0x3ca3002b	0.019897541
49	0xbc971ce7	-0.018446399
50	0xbd207f9b	-0.039184194
51	0x3d49254f	0.049107846
52	0x3a3ff946	0.00073232164
53	0x3c233c71	0.009963141
54	0x3c95d1ea	0.018288571
55	0x3c178686	0.0092483815
56	0xbc9dbb69	-0.019254403
57	0x3c803fff	0.015655516
58	0x3c277cf0	0.0102226585
59	0xbc66bea2	-0.014083536
60	0x3c98769d	0.018611247
61	0xba5126d8	-0.00079785055
62	0xbceed731	-0.029155346
63	0xbd5c3dc8	-0.053769857
64	0xbce89baf	-0.028394548
65	0xbc283978	-0.010267608
66	0xbd3b449d	-0.04571973
67	0x3d4dfa95	0.0502878
68	0xba3c52dc	-0.0007183978
69	0x3c90b36f	0.017663686
70	0x3a0dac3c	0.0005404388
71	0xbb43580d	-0.002980712
72	0x3cf893b2	0.030343864
73	0xbc983b45	-0.01858295
74	0x3c03c1ec	0.00804184
75	0x3cd90bb8	0.026494846
76	0x3ccbc1da	0.024872709
77	0x3bc4ddcc	0.0060078856
78	0x3cd2ff3b	0.025756469
79	0x3a974c9d	0.0011543218
80	0x3d37c66d	0.044866968
81	0x3bc81d24	0.0061069895
82	0x3bb31763	0.0054654344
83	0x3bb9cdd4	0.0056702886
84	0x3d28cf22	0.041213162
85	0xbc48f86a	-0.012266258
86	0x3cdf319a	0.027245332
87	0xbca9490b	-0.020664712
88	0x3b960e53	0.0045793443
89	0xbc6ccfb5	-0.014453818
90	0xbb75c8d4	-0.0037503736
91	0xbc6490b6	-0.013950517
92	0x3b82d282	0.0039923796
93	0xbb18b0e3	-0.0023298792
94	0x3d10e74f	0.035376843
95	0xbcca0a3c	-0.024663083
96	0xbc7eb7b3	-0.015546727
97	0x3cf254af	0.029581396
98	0x3d2b2733	0.04178543
99	0xbc5e0f8e	-0.013553513
100	0x3c1e7fc8	0.00967402
101	0x3d5da74b	0.05411462
102	0x3d3bf561	0.04588831
103	0xbbe0a7a5	-0.0068559223
104	0xb9d852dd	-0.00041260468
105	0xbb8cc37e	-0.0042957654
106	0xbca8d77e	-0.020610567
107	0x3d4f627e	0.05063104
108	0x3ce606b2	0.028079364
109	0x3ca3b326	0.019982886
110	0x3cc6dc9c	0.024275117
111	0xbb9b82fd	-0.0047458396
112	0xbacdb391	-0.0015693774
113	0xbbef37f3	-0.007300371
114	0x3c81dce6	0.015852403
115	0x3dbfc7c2	0.09364273
116	0x3c47fcd2	0.012206273
117	0x3c9c742e	0.019098368
118	0xbd14ba46	-0.036310457
119	0xbc1bf14b	-0.009517978
120	0x3c9bed67	0.0190341
121	0x3c077047	0.008266515
122	0x3cb05fbb	0.021530023
123	0xbcf99392	-0.030465875
124	0x3ac972d5	0.0015369306
125	0xbcbde84b	-0.023182055
126	0xbd10bb29	-0.03533474
127	0x3c63b253	0.013897496
128	0x3d4374d4	0.047718838
129	0xbc1cf27e	-0.009579299
130	0xbd8ccd01	-0.06875039
131	0x3cf0d99c	0.02940064
132	0xbc11a95e	-0.008890478
133	0x3d101dbe	0.035184614
134	0xbc8c9273	-0.017159676
135	0xbc584ad9	-0.013201439
136	0x3b59cec5	0.0033234817
137	0xbcdd5027	-0.027015759
138	0xbc988be1	-0.018621387
139	0x3d5ee995	0.05442198
140	0xbc8def42	-0.017326001
141	0x3b97ca50	0.004632272
142	0x3c51e8ac	0.012811821
143	0xbc84c3b5	-0.016206602
144	0xbb5580cf	-0.0032577997
145	0xbc976aa7	-0.018483473
146	0xbb935179	-0.0044957963
147	0x3d1b55cb	0.037923615
148	0xbc3afb6c	-0.011412483
149	0x3be9c69b	0.0071342713
150	0x3c552d0e	0.01301123
151	0xbd22bb19	-0.03972921
152	0x3bd309ba	0.0064403685
153	0xbd2c8764	-0.042121306
154	0x3d3f87f0	0.0467605
155	0xbcf39aa0	-0.029736817
156	0xb89c4f97	-7.4534844e-05
157	0xbd1dd0fe	-0.03852939
158	0xbbe3493a	-0.0069362195
159	0x3c653ba0	0.0139912665
160	0xbcb2905a	-0.021797348
161	0x3d75235e	0.059848182
162	0xbc088dc0	-0.008334577
163	0xbc611798	-0.013738535
164	0x3c5cc006	0.013473516
165	0xbcc0ced4	-0.023536123
166	0x3d8b71ed	0.06808839
167	0xbb78d521	-0.0037968832
168	0x3c824d21	0.015905919
169	0xbcfc829c	-0.030823998
170	0xbd09a980	-0.033608913
171	0x3cb9d225	0.022683213
172	0x3ca65719	0.020305203
173	0x3c924b29	0.017858105
174	0x3b95fc30	0.0045771822
175	0xba0e7612	-0.0005434464
176	0xbc9f66bd	-0.01945817
177	0x3d25afa2	0.0404507
178	0xbd1591c4	-0.036515966
179	0x3d9cf27d	0.076634385
180	0x3ba8ce08	0.005151514
181	0xbc5377e9	-0.012907007
182	0xbcceaeab	-0.025229773
183	0xbcb4c010	-0.022064239
184	0x3c9e5611	0.019328149
185	0x3c345cf9	0.0110084945
186	0x3d8b31db	0.067966186
187	0x3b87612e	0.004131458
188	0x3b9c0c09	0.004762177
189	0x3bf5d1f5	0.0075018355
190	0xbcaa5e27	-0.020796848
191	0xbbed328b	-0.007238691
192	0x3d8ac572	0.06775941
193	0xbc706119	-0.014671587
194	0xbbbd773b	-0.0057820356
195	0x3d190e01	0.03736687
196	0xbaa9830a	-0.001293273
197	0x3d6398aa	0.055565514
198	0xbc66690d	-0.014063132
199	0x3bdda550	0.0067640916
200	0xbb9a0901	-0.0047007804
201	0xbd05e074	-0.03268476
202	0xbd1fd6c2	-0.03902317
203	0x3cdad3b6	0.02671228
204	0xbbfd9a9a	-0.007739377
205	0x39bc2b04	0.00035890203
206	0x3c811d69	0.015761094
207	0xba7ee6fc	-0.00097237504
208	0x3cc83b32	0.024442289
209	0x3cfccf9a	0.03086071
210	0xbcf2658e	-0.02958944
211	0x3c0e5f8b	0.008689771
212	0x3cce1f7f	0.025161503
213	0x3cea1eb2	0.02857909
214	0x3cac0db3	0.021002626
215	0xbcb4eb91	-0.022084983
216	0x3a0c17b7	0.000534411
217	0xbcc4fec0	-0.024047256
218	0xbb38b335	-0.0028182988
219	0xbc3f9381	-0.0116928825
220	0xbcb1ae00	-0.021689415
221	0xbcffc93a	-0.031223882
222	0x3d1c73e2	0.038196452
223	0xbc837732	-0.016048048
224	0xbc3378c9	-0.01095409
225	0x3d874c00	0.06606293
226	0xbcfac528	-0.03061159
227	0xbcd1523d	-0.02555191
228	0x3c93f1e1	0.018059673
229	0xbd0d5c74	-0.034512
230	0x3da129b0	0.078692794
231	0xbcf8c682	-0.030368093
232	0xbc02bf51	-0.007980184
233	0xbbb229f2	-0.005437129
234	0xba9dfa91	-0.0012052824
235	0x3c58968a	0.013219485
236	0x3ca95035	0.020668129
237	0x3c696e43	0.01424748
238	0x3c43f5f9	0.0119605
239	0x3cb880f7	0.022522433
240	0xbd0bde5d	-0.03414761
241	0x3b262bf1	0.002535578
242	0x3bca4154	0.0061723385
243	0x3d73a99c	0.059487924
244	0x3cf0c09e	0.029388722
245	0xbbad145c	-0.005281968
246	0xbb8e2e5b	-0.004339022
247	0xbc0b1f91	-0.008491413
248	0xbbf99e4c	-0.0076177474
249	0x3bf13f37	0.007362272
250	0x3cbace31	0.022803398
251	0xbb98e052	-0.004665413
252	0xbb473c62	-0.0030400981
253	0x3bf30ce6	0.007417309
254	0xbcd02033	-0.025405979
255	0xbc7c9401	-0.015416146

embs.1.weight f4 [400, 64]
0	0xbce67c32	-0.028135393
1	0xbd3aeb28	-0.04563442
2	0xbe571148	-0.21002686
3	0xbd1cd4fd	-0.03828906
4	0xbe82ee3a	-0.25572377
5	0xbc9d10ed	-0.01917311
6	0x3e29a2eb	0.16566055
7	0xbdcda7c5	-0.10041765
8	0x3df7ea3d	0.12105224
9	0x3e519d4b	0.20470159
10	0xbe3e9dca	-0.18614879
11	0x3dc51066	0.096222684
12	0xbda7c12e	-0.08191143
13	0xbe10a00c	-0.14123553
14	0xbcf4a6c5	-0.029864678
15	0xbdbb6430	-0.091499686
16	0x3d6e2386	0.058139347
17	0xbde70345	-0.112799205
18	0x3ce5b926	0.028042387
19	0xbddbb41d	-0.10727713
20	0x3e86a525	0.2629787
21	0x3d9dfeec	0.07714638
22	0x3ccf8514	0.025332011
23	0xbe812f38	-0.25231338
24	0xbdbf458b	-0.09339436
25	0x3eb46a72	0.3523746
26	0xbe0b9f2c	-0.13634938
27	0xbdaaf47a	-0.083474115
28	0x3cc3587f	0.02384591
29	0x3d61fb3c	0.055171236
30	0xbaf49a5f	-0.0018661729
31	0x3db37953	0.08763375
32	0xbe98d50d	-0.29850045
33	0xbdeeed3d	-0.11666343
34	0xbcbd663e	-0.023120042
35	0xbe0f3406	-0.13984689
36	0x3d4d021c	0.05005084
37	0xbdbfd8b5	-0.093675055
38	0x3d61fadb	0.055170875
39	0xbd63f9ff	-0.055658337
40	0x3e404817	0.187775
41	0x3d6ff8d7	0.05858692
42	0xbd9ecb25	-0.077535905
43	0xbdb47085	-0.08810524
44	0xbda59584	-0.080851585
45	0x3da71a5e	0.08159326
46	0xbd16c9d9	-0.03681359
47	0xbd81c80d	-0.06336985
48	0xbe0f41bb	-0.13989918
49	0xbb1c41da	-0.0023842962
50	0x3db69086	0.089142844
51	0x3be3f1c1	0.0069563095
52	0xbe326889	-0.1742269
53	0x3e1d1d8b	0.15343301
54	0x3d759936	0.059960566
55	0x3d7ae3e3	0.061252486
56	0x3d9356e7	0.0719431
57	0x3db88c10	0.0901109
58	0x3e930138	0.28711867
59	0xbe9fa3e5	-0.3117973
60	0xbe8dea7f	-0.2771797
61	0xbdfaa75d	-0.12238953
62	0xbdf63442	-0.12021686
63	0xbe55a8d6	-0.20865187
64	0x3b406e81	0.002936274
65	0x3d4c0598	0.049810022
66	0xbd1a5cbd	-0.0376861
67	0x3d29179a	0.041282274
68	0x3da03874	0.078232676
69	0x3d804156	0.06262462
70	0x3d7ba66d	0.061438013
71	0xbdb289d9	-0.087176986
72	0xbd43097c	-0.047616467
73	0xbe09c5fa	-0.13454428
74	0xbcdbc671	-0.026828023
75	0xbd9a2b49	-0.07527787
76	0x3d7e2a1c	0.062051877
77	0x3d6472f5	0.055773694
78	0x3ba4e975	0.005032713
79	0x3dab507b	0.0836496
80	0x3cf00752	0.029300366
81	0x3d1055b5	0.035237987
82	0x3c8d6e09	0.017264383
83	0xbd1a4db7	-0.03767177
84	0x3d50f3eb	0.05101387
85	0xbce2b243	-0.027672892
86	0x3d62422d	0.05523889
87	0x3d1900b3	0.037354182
88	0x3c8b0f50	0.016975075
89	0x3d05856b	0.03259794
90	0x3bda7cd7	0.006667714
91	0xbc46af39	-0.012126737
92	0x3ce03ff6	0.027374249
93	0x3c85ab04	0.016316898
94	0x3c1e2d94	0.009654421
95	0xbcee07c0	-0.02905643
96	0xbd544d22	-0.051831372
97	0x3c94158c	0.01807668
98	0x3c9fec75	0.019521931
99	0xbd869f8e	-0.065734014
100	0xbce2d071	-0.027687283
101	0xbb508685	-0.003181846
102	0x3bb9d24d	0.0056708218
103	0xbb359fcf	-0.0027713662
104	0x3d537dfe	0.051633827
105	0xbcb2f77f	-0.021846531
106	0xbd9e07e7	-0.07716351
107	0xbc8466b5	-0.016162256
108	0x3d2fd98a	0.04293207
109	0x3c188666	0.009309387
110	0xbd4a5e49	-0.049406324
111	0x3c146306	0.009056812
112	0xbdbf9642	-0.09354831
113	0xbd0bdc50	-0.034145653
114	0xbd01a650	-0.03165275
115	0x3c9a0d44	0.018805154
116	0xbbc8eecb	-0.006131982
117	0x3d9dbf17	0.07702463
118	0x3c7b78f3	0.015348661
119	0x3d94099b	0.072283946
120	0x3da82c40	0.08211565
121	0x3d4691ea	0.048479
122	0xbdeb0acf	-0.11476671
123	0xbc8808ec	-0.016605817
124	0x3c69e6a0	0.014276177
125	0x3dea7866	0.114487454
126	0xbcde4e4c	-0.027136944
127	0xbd65455e	-0.055974357
128	0x3d91e907	0.071245246
129	0xbcf7515a	-0.030190159
130	0xbd6038fd	-0.05474185
131	0x3d839ee6	0.06426792
132	0xbcfafc36	-0.030637842
133	0xbc6c6e09	-0.014430531
134	0xbcd5b1d9	-0.026085781
135	0x3e058fa6	0.13043079
136	0xbd9f8618	-0.07789248
137	0xbcf94823	-0.030429905
138	0x3d2e47ae	0.042548828
139	0x3d340137	0.04394647
140	0xbc8e9851	-0.017406614
141	0x3d168d61	0.036755923
142	0x3d7fe670	0.06247562
143	0xbd79365b	-0.060842853
144	0x3cb65d16	0.022261184
145	0x3c361ce1	0.011115284
146	0x3ddc034b	0.107428156
147	0xbbe1e97f	-0.00689429
148	0x3d588c53	0.0528682
149	0x3d47bf27	0.04876628
150	0x3d5dee86	0.05418255
151	0xbbbefeec	-0.005828729
152	0xbd4c6c12	-0.04990775
153	0xbac4bd0b	-0.0015009952
154	0x3d497a7f	0.049189087
155	0x3d4f8ff5	0.050674397
156	0xbd666783	-0.05625106
157	0x3ae60946	0.0017550371
158	0xbbb985a5	-0.0056616836
159	0x3ccc4204	0.024933822
160	0xbce0cd5e	-0.027441677
161	0xbbf26659	-0.0073974547
162	0x3cea6f0a	0.0286174
163	0x3cadf77b	0.021236172
164	0xbc1c35d2	-0.009534316
165	0xbc84354f	-0.0161387
166	0x3d80466d	0.06263433
167	0xbbb09cac	-0.0053897705
168	0xbc8430d3	-0.016136562
169	0x3d616b77	0.055034127
170	0x3bdf6d61	0.006818459
171	0xbd440975	-0.04786058
172	0x3b6e39b6	0.0036350316
173	0x3ce3c9f7	0.027806265
174	0x3c946221	0.018113198
175	0xbd3fad83	-0.046796333
176	0x3d4a22f0	0.049349725
177	0xbba76547	-0.0051085087
178	0x3d0688b8	0.03284523
179	0x3c39694f	0.011316611
180	0x3ca39089	0.01996638
181	0xbce74b49	-0.028234141
182	0xbc4f6bce	-0.01265998
183	0xbe0296d0	-0.12752843
184	0xbdb7fc1f	-0.08983635
185	0xb9a27f01	-0.00030993673
186	0x3d686605	0.05673792
187	0x3cf5967a	0.02997898
188	0x3da5b38c	0.080908865
189	0xbd011b80	-0.031520367
190	0x3d7f6ff4	0.062362626
191	0x3c197295	0.009365697
192	0xbcbf0f00	-0.023322582
193	0xbdf567fa	-0.119827226
194	0x3ce59381	0.028024437
195	0x3d7a626e	0.061129026
196	0x3db31e63	0.0874603
197	0xbdf4e729	-0.11958153
198	0x3cb13ef4	0.021636464
199	0x3de06ec7	0.10958629
200	0x3cc6c222	0.024262492
201	0xbd093221	-0.033495072
202	0xbd9b5238	-0.07584041
203	0xbd9416f8	-0.072309434
204	0xbc018514	-0.007905263
205	0x3c881137	0.016609771
206	0x3dceeb30	0.10103452
207	0x3d3c83ef	0.04602426
208	0xbdc3eb1a	-0.095663264
209	0xbd155d46	-0.036465906
210	0x3e09e527	0.13466321
211	0x3c50e58e	0.012750043
212	0xbdcccf42	-0.10000469
213	0xbd0e79c1	-0.034784082
214	0x3d844d84	0.064600974
215	0x3d871e07	0.06597524
216	0xbe12cc16	-0.14335665
217	0x3dc85a34	0.0978283
218	0xbb93e128	-0.0045129247
219	0x3db599c7	0.08867221
220	0xbd1ae01e	-0.03781139
221	0xbd2aa826	-0.041664265
222	0xbd0d54e0	-0.03450477
223	0x3d2991cb	0.041398805
224	0x3e0b2ba2	0.13590863
225	0xbcd80dd0	-0.026373774
226	0x3dd5e429	0.10443909
227	0xbd6dc351	-0.058047596
228	0x3d4d2fba	0.050094344
229	0x3c3b673b	0.011438186
230	0x3e032340	0.12806416
231	0xbd88f1da	-0.066867545
232	0x3e4e1489	0.20125021
233	0x3c3d825a	0.011566723
234	0xbd90ba47	-0.070667796
235	0xbc8b41d4	-0.016999163
236	0xbcd83184	-0.026390798
237	0xbba515f6	-0.0050380183
238	0x3daa86c1	0.083264835
239	0xbdafc595	-0.08582608
240	0x3c74c1dc	0.014938798
241	0x3cc839ad	0.024441564
242	0x3d6d4846	0.057930253
243	0xbbcf49a4	-0.0063259173
244	0x3d53939f	0.051654454
245	0xbd0a5f5b	-0.033782344
246	0x3d1ec4c1	0.038761858
247	0x3bc1b049	0.0059109074
248	0xbccee322	-0.02525479
249	0xbccfbfa0	-0.025359929
250	0xbd41252e	-0.047154598
251	0x3b540093	0.0032348975
252	0x3db57600	0.08860397
253	0x3cc8f1d6	0.024529379
254	0x3daf745a	0.08567114
255	0xbb9dcdf5	-0.0048158118

embs.2.weight f4 [10, 64]
0	0xbd44d36a	-0.048053183
1	0xbd4e2294	-0.050325945
2	0x3d069a7d	0.032862175
3	0x3d3a4fca	0.04548625
4	0x3a6d6125	0.0009055308
5	0xbdb80509	-0.089853354
6	0x3dae7b2b	0.08519586
7	0x3c73948c	0.014866959
8	0x3d8c43a6	0.068488404
9	0xb9683ce5	-0.00022147929
10	0xbc44932a	-0.011997977
11	0x3d37d085	0.044876594
12	0x3d91b774	0.07115069
13	0xbd5e8a30	-0.054331005
14	0xba2ee44c	-0.0006671592
15	0x3dd673fe	0.104713425
16	0x3d841d27	0.06450873
17	0xbdc94ce6	-0.0982912
18	0xbd7599ce	-0.059961133
19	0x3de71b59	0.11284513
20	0x3d980c22	0.07424189
21	0x3cabf2b8	0.02098976
22	0xbe0db0ab	-0.13836925
23	0xbdf5528a	-0.11978634
24	0x3d177a15	0.03698166
25	0xbe08a6f8	-0.13344944
26	0x3e092e13	0.13396482
27	0xbd25c30f	-0.040469225
28	0x3db8fd10	0.09032643
29	0x3de32708	0.11091429
30	0xbda21142	-0.07913448
31	0xbd5d9a32	-0.05410213
32	0xbd71cd7d	-0.05903386
33	0x3d2221d3	0.03958304
34	0xbd5f8bad	-0.054576565
35	0x3e05b386	0.13056764
36	0x3dc54719	0.096327014
37	0x3dfa6def	0.122279994
38	0xbce5d17e	-0.028053995
39	0xbdc0dae8	-0.09416753
40	0x3dbb3179	0.091402955
41	0xbdd9cd2b	-0.10634836
42	0x3e56a0bd	0.20959754
43	0x3e05cf69	0.13067402
44	0xbd60cc80	-0.054882526
45	0x3d78601e	0.06063854
46	0xbe0055b4	-0.12532693
47	0xbd77db06	-0.06051161
48	0x3d6f753c	0.058461413
49	0x3cba5b6a	0.022748668
50	0xbd923c4f	-0.07140409
51	0x3cca42a0	0.024689972
52	0xbd51d1cf	-0.05122548
53	0x3d42c8e7	0.047554877
54	0x3dc90255	0.09814898
55	0x3e26cdb7	0.16289411
56	0x3d2b4cf5	0.04182144
57	0xbcdbe5aa	-0.02684291
58	0xbd8ca674	-0.06867686
59	0xbd34d818	-0.044151396
60	0x3cc5268e	0.024066236
61	0xbdfce8d7	-0.12349098
62	0x3e03f762	0.12887338
63	0x3d70f495	0.058827
64	0x3e208258	0.15674722
65	0x3d553691	0.05205399
66	0x3dadd108	0.08487135
67	0xbd84d01d	-0.06485007
68	0x3da88841	0.08229113
69	0x3e1cef37	0.15325628
70	0x3d0b8280	0.03406
71	0x3c25ee40	0.010127604
72	0x3cd8944e	0.026437905
73	0x3df2bac6	0.118520305
74	0x3d4914a9	0.04909197
75	0xbdeeef4f	-0.11666738
76	0xbddc8a72	-0.10768594
77	0x3c1e84f3	0.009675252
78	0xbd409be1	-0.047023658
79	0x3d2a028f	0.041506346
80	0x3cb2fd1b	0.021849206
81	0xbce1ea85	-0.027577648
82	0xbde3d18d	-0.11123953
83	0xbc9f3963	-0.019436544
84	0xbdbd6f9c	-0.092498034
85	0xbd4b6e13	-0.04966552
86	0x3dd005fd	0.10157392
87	0x3dc959dc	0.098315924
88	0x3dbe7bb1	0.09300936
89	0x3c8cbe91	0.017180713
90	0x3e282e36	0.16423878
91	0xbb309a36	-0.0026947386
92	0xbd10b5f6	-0.03532978
93	0xbdb310e7	-0.08743458
94	0xbc48252d	-0.012215895
95	0x3db3b556	0.087748215
96	0x3d3719b6	0.044702254
97	0x3b98a579	0.0046583978
98	0x3dbc9875	0.09208766
99	0x3b6bd727	0.0035986395
100	0xbd8a3299	-0.06747932
101	0x3dc22de9	0.09481413
102	0xbcf3249e	-0.029680546
103	0xbd26eeb6	-0.040754996
104	0xbde230ca	-0.11044462
105	0xbdc0d2b6	-0.0941519
106	0x3c182d94	0.00928821
107	0xbcb79197	-0.02240829
108	0x3d313941	0.043267492
109	0xbd055887	-0.03255513
110	0x3be96003	0.007122041
111	0xbdac5777	-0.0841512
112	0xbd989254	-0.07449785
113	0x3d8894fe	0.06669043
114	0x3e006836	0.12539753
115	0xbd9a3a24	-0.07530621
116	0xbd578d61	-0.052625064
117	0x3a09b571	0.0005253172
118	0xbc2194e3	-0.0098621575
119	0x3ce5e163	0.028061574
120	0x3dbeff86	0.09326081
121	0xbd67731f	-0.056506272
122	0x3e8664be	0.26248735
123	0xbce9518d	-0.02848127
124	0xbde9d306	-0.11417203
125	0xbc9e0e9c	-0.019294076
126	0xbe066776	-0.13125405
127	0xbda02d26	-0.078211114
128	0x3da90baf	0.082541816
129	0xbe244073	-0.1604021
130	0x3e0b4c1b	0.1360325
131	0x3daed238	0.0853619
132	0x3db87740	0.0900712
133	0x3d1929e9	0.037393484
134	0xbc79bab7	-0.01524227
135	0x3c392caf	0.011302157
136	0xbd7beaee	-0.061503343
137	0x3c1effa2	0.009704502
138	0xbe0ea9d0	-0.13931966
139	0xbe0cf106	-0.13763818
140	0x3c6552ec	0.013996821
141	0x3da106b9	0.0786261
142	0x3c3ec39c	0.011643317
143	0x3e1a1bcf	0.1504967
144	0x3d7250e0	0.05915916
145	0x3d791860	0.06081426
146	0xbdb930e5	-0.09042529
147	0x3d2a88ee	0.041634493
148	0xbe1830ec	-0.14862412
149	0xbe26f676	-0.16304955
150	0xbd21b452	-0.039478607
151	0xbdb58e33	-0.08865013
152	0x3d962597	0.073313884
153	0xbdeac53b	-0.114634
154	0xbccfb507	-0.025354875
155	0x3cd33bda	0.025785375
156	0xbc3ee062	-0.011650177
157	0xbd995159	-0.07486219
158	0xbdb4ee4e	-0.088345155
159	0x3db26bb2	0.087119475
160	0x3e4dfe39	0.2011651
161	0x3df811e8	0.1211279
162	0xbd791bab	-0.0608174
163	0x3d6ac8bf	0.057320353
164	0x3d733331	0.05937499
165	0x3cf86214	0.030320205
166	0x3db7621a	0.08954258
167	0x3d80a9de	0.062823996
168	0x3d04b62d	0.0324003
169	0x3de86f6d	0.11349378
170	0xbdd2a1d7	-0.10284775
171	0xbe1663d6	-0.14686522
172	0x3d4df79e	0.050284974
173	0x3bc223bf	0.0059246714
174	0x3e0e06dc	0.13869804
175	0xbbb7a9c5	-0.005604955
176	0x3dcb89a0	0.09938359
177	0x3caca9a1	0.02107698
178	0x3d01159b	0.031514745
179	0xbd80089a	-0.062516406
180	0xbd2e78f4	-0.04259582
181	0x3dfc4636	0.12318079
182	0xbd480c57	-0.048839893
183	0x3d9ab229	0.075535126
184	0x3c6da5bc	0.014504846
185	0x3d109faf	0.035308536
186	0xbc4290ed	-0.011875373
187	0x3e1aa9d3	0.15103845
188	0x3c75b759	0.014997327
189	0xbca761b2	-0.020432327
190	0x3dc88888	0.09791666
191	0xbd34cd42	-0.04414106
192	0x3d8a80b7	0.06762832
193	0xbdabcde6	-0.083888814
194	0xbc1e4395	-0.0096596675
195	0x3d56e62d	0.052465606
196	0xbb611c42	-0.0034349118
197	0x3da51b31	0.08061827
198	0xbdc320d7	-0.09527748
199	0x3e1db007	0.1539918
200	0x3c0f13e1	0.008732767
201	0x3c9e4902	0.019321922
202	0x3a9d8441	0.0012017564
203	0x3d84b342	0.06479503
204	0x3dfca2dd	0.12335751
205	0x3d10caeb	0.035349768
206	0xbe5b31c4	-0.21405703
207	0x3cfdb0e0	0.03096813
208	0x3d6e1059	0.05812106
209	0xbd8d42d6	-0.068975136
210	0xbe1b0533	-0.15138702
211	0x3d55520f	0.05208021
212	0xbc24d171	-0.0100597
213	0xbbe8a6ae	-0.007099948
214	0x3dc1ae95	0.09457127
215	0x3d8ab103	0.067720436
216	0x3c93c33e	0.018037435
217	0xbdaccb0c	-0.084371656
218	0x3d3a164d	0.045431424
219	0x3dc7d2b1	0.09756983
220	0xbd192f8a	-0.037398852
221	0x3dd29f22	0.102842584
222	0xbc0aefcf	-0.008480026
223	0x3ceafddd	0.028685505
224	0xbd2e4ca8	-0.042553574
225	0xbd67f838	-0.056633204
226	0x3cffb454	0.031213917
227	0x3ddf3f37	0.10900729
228	0x3df893db	0.12137576
229	0xbe0d7e61	-0.13817741
230	0x3d5e8103	0.054322254
231	0x3c8c46f7	0.017123682
232	0x3cab2057	0.020889444
233	0x3d99b5e9	0.075054
234	0xbd1035d7	-0.035207596
235	0xbdbec937	-0.093157224
236	0xbe0e2bde	-0.13883922
237	0xbde15e90	-0.110043645
238	0x3d154b0f	0.036448535
239	0x3dbf4726	0.09339742
240	0xbd8bf1b8	-0.068332136
241	0x3e0771d8	0.13227022
242	0x3d66f184	0.05638267
243	0x3aa97df0	0.0012931209
244	0xbe1c4fab	-0.15264766
245	0x3e010828	0.12600768
246	0x3aa0e27a	0.0012274527
247	0x3e059874	0.13046438
248	0x3bcb91ec	0.0062124636
249	0x3e0750fc	0.13214487
250	0xbd1d18b4	-0.038353637
251	0xbd71ea1b	-0.05906115
252	0xbdff9986	-0.12480454
253	0x3d3fa60a	0.046789207
254	0xbd82563f	-0.063641064
255	0xbcd0791a	-0.02544837
