models/trained_to_ref_2.pth (torch, 309399 bytes, 5 tensors)

biases.0 f4 [400]
0.01471499 -0.018170377 -0.015947882 0.042291258 -0.00418327 -0.028031062 -0.00049435085 -0.027468184
0.003130107 0.04623333 -0.0416918 0.0026519084 -0.015104787 0.010710356 0.014175382 -0.0137352245
0.019658616 -0.029680358 -0.042398937 -0.043230794 0.023521831 0.0056725317 0.01681736 0.019979428
0.0058610793 -0.04617586 0.008522919 0.020097911 0.009515796 0.0116589945 -0.02204991 -0.011306451
-0.04466133 -0.023069192 0.007396187 -0.020693118 -0.0029327695 -0.010713651 0.011557298 -0.017025271
0.024132244 -0.0007205628 -0.028422313 -0.016408488 -0.011532683 0.00036401412 -0.012158207 -0.009176784
-0.0020248285 -0.027845671 0.0064550773 0.038659222 -0.0047902227 -0.04630902 0.01498254 -0.010108254
-0.020550704 0.04849058 0.03700464 -0.02744014 0.040455796 0.0064657996 0.0017603441 0.0036041618
0.0022871715 0.028862212 -0.012079443 -0.022266604 -0.0117879165 -0.025432643 -0.030936686 0.008477722
0.009387094 -0.0015747751 0.016410757 -0.021758098 0.01056304 -0.021783412 -0.04014012 0.0005301964
0.0011733299 -0.018866042 0.037097994 -0.006267856 -0.020472068 -0.009794168 -0.0059815776 -0.020801546
-0.0036057797 -0.016195083 -0.022055032 -0.03324808 -0.039152533 -0.004574339 0.017603224 -0.0032041695
-0.013544355 -0.01843723 0.022711903 -0.01408483 -0.0055907825 9.2552626e-05 0.015443449 -0.027583893
0.03584162 0.014249245 0.008069159 -0.006884353 -0.021163814 -0.044611398 -0.027404767 -0.03195599
0.034596384 0.008519698 -0.00016846262 -0.02233381 -0.022077082 0.013592656 -0.032355804 0.038341183
-0.04409114 0.044403777 0.028358629 0.03575544 0.0022811973 -0.030992439 0.0011254246 -0.03273553
0.015694996 -0.0099758 -0.0031684744 -0.02428206 -0.030298425 -0.02437336 0.016735919 -0.014226627
-0.02252118 0.009500907 -0.0073025175 0.01801457 -0.0009023709 0.0210818 0.02953657 -0.030597452
0.0064573525 0.008879457 0.011918102 -0.019938597 -0.039969362 -0.0013052151 -0.011672739 -0.04129777
-0.022285433 -0.038931638 0.03078216 -0.020924032 0.015939303 -0.046270933 -0.016631905 -0.0043581123
0.013785272 0.0024419613 0.0016300598 0.014549617 -0.0322415 -0.0018424839 0.035012122 -0.021448461
0.019496012 -0.016800674 -0.00096487027 -0.001923376 0.020875009 -0.017835675 0.0322217 0.010347965
-0.03299559 -0.024287384 0.037096884 -0.007597711 0.008910593 0.013689343 0.009861536 0.036272503
0.022307713 -0.020096919 -0.030740283 -0.04705481 -0.0027598725 -0.025311194 -0.023231294 0.02807895
-0.02476768 -0.005163216 0.010855844 -0.024303649 -0.021950971 -0.00761145 -0.04584167 -0.03342383
-0.022610512 0.016499015 0.021124179 -0.02924062 -0.02923328 -0.021956079 0.01493881 -0.044460762
-0.029243838 0.018965289 -0.017559135 -0.041394025 0.012635243 0.027197188 0.01244984 -0.033045642
0.0024483786 -0.0075451275 0.00190648 0.0045639873 0.01807597 0.0037746008 0.019227533 0.0053678122
0.017040474 -0.01662587 0.02423099 0.017075477 0.0029215314 0.028395336 -0.011202032 -0.026940096
-0.00029651762 0.00050119456 0.019825373 -0.013513361 -0.012220079 -0.006985829 -0.0014592864 -0.020859111
-0.008741731 -0.007304757 -0.026385423 0.009032943 0.04298937 0.020742925 0.008459798 -0.023588415
-0.029367354 0.014307302 0.034338202 -0.004167331 -0.040588565 0.021413483 -0.016627837 0.019811258
00000000: 2417 713c 0bda 94bc 22a5 82bc 9939 2d3d
00000010: d013 89bb 66a1 e5bc 5397 01ba f504 e1bc
00000020: 7b22 4d3b 295f 3d3d 05c5 2abd a4cb 2d3b
00000030: 127a 77bc 7d7a 2f3c dd3f 683c b509 61bc
00000040: 1b0b a13c 3924 f3bc 82aa 2dbd c612 31bd
00000050: dbb0 c03c a5e0 b93b 8fc4 893c e6ab a33c
00000060: 4c0e c03b e622 3dbd b7a3 0b3c 60a4 a43c
00000070: 24e8 1b3c 5e05 3f3c 03a2 b4bc b13e 39bc
00000080: ccee 36bd 9afb bcbc b75b f23b 9d84 a9bc
00000090: b533 40bb 4f88 2fbc d25a 3d3c 9578 8bbc
000000a0: fcb0 c53c 27e4 3cba e9d5 e8bc 186b 86bc
000000b0: 94f3 3cbc 26d9 be39 3733 47bc 395a 16bc
000000c0: fcb2 04bb 9b1c e4bc 1d85 d33b 2259 1e3d
000000d0: 4df7 9cbb 87ae 3dbd 5479 753c 179d 25bc
000000e0: f359 a8bc 0f9e 463d 2d92 173d 25ca e0bc
000000f0: fab4 253d 0fdf d33b 59bb e63a cd33 6c3b
00000100: 5fe4 153b 7270 ec3c dbe8 45bc 7468 b6bc
00000110: 1b22 41bc 1e58 d0bc ef6e fdbc 25e6 0a3c
00000120: 53cc 193c af68 ceba da6f 863c 0a3e b2bc
00000130: 9a10 2d3c 2073 b2bc f769 24bd e1fc 0a3a
00000140: 6bca 993a f58c 9abc 11f4 173d 9662 cdbb
00000150: 0ab5 a7bc b877 20bc 1c01 c4bb 0168 aabc
00000160: f24e 6cbb 8dab 84bc c1ac b4bc 242f 08bd
00000170: 685e 20bd 56e4 95bb a334 903c 0bfd 51bb
00000180: 24e9 5dbc ac09 97bc 500e ba3c 0fc4 66bc
00000190: e232 b7bb d018 c238 8506 7d3c 9ef7 e1bc
000001a0: aace 123d aa75 693c 8234 043c 2396 e1bb
000001b0: bc5f adbc 71ba 36bd f67f e0bc 49e4 02bd
000001c0: f0b4 0d3d 3496 0b3c 57a5 30b9 65f5 b6bc
000001d0: ffda b4bc bbb3 5e3c 8587 04bd a50b 1d3d
000001e0: e998 34bd bce0 353d 5b50 e83c 4c74 123d
000001f0: 2480 153b dbe3 fdbc fc82 933a b115 06bd
00000200: cb92 803c 8a71 23bc 2ea6 4fbb 2ceb c6bc
00000210: 6734 f8bc a4aa c7bc c419 893c cc16 69bc
00000220: 567e b8bc b1a9 1b3c f549 efbb 4b93 933c
00000230: 168d 6cba bdb3 ac3c adf6 f13c 82a7 fabc
00000240: 3398 d33b 247b 113c 2544 433c 4556 a3bc
00000250: eab6 23bd c013 abba 043f 3fbc da27 29bd
00000260: f18f b6bc c876 1fbd de2a fc3c e068 abbc
00000270: 2493 823c 9786 3dbd a23f 88bc 7fce 8ebb
00000280: 9fdb 613c 5009 203b bba7 d53a 8461 6e3c
00000290: aa0f 04bd 807f f1ba df68 0f3d afb4 afbc
000002a0: 1ab6 9f3c 91a1 89bc 59ef 7cba ca19 fcba
000002b0: 1102 ab3c 1f1c 92bc e7fa 033d 838a 293c
000002c0: 6226 07bd 56f6 c6bc e7f2 173d 38f6 f8bb
000002d0: bcfd 113c 4449 603c 4892 213c 7a92 143d
000002e0: aabe b63c 4ba2 a4bc 0cd3 fbbc 8bbc 40bd
000002f0: fade 34bb 6c59 cfbc 8e4f bebc d305 e63c
00000300: 97e5 cabc 3230 a9bb b6dc 313c 7218 c7bc
00000310: 86d2 b3bc 7869 f9bb 7ac4 3bbd 6de7 08bd
00000320: ae39 b9bc f128 873c 9d0c ad3c 068a efbc
00000330: a27a efbc 3cdd b3bc e9c1 743c 7d1c 36bd
00000340: c690 efbc 185d 9b3c 2dd8 8fbc c88c 29bd
00000350: 0d04 4f3c a3cc de3c 6afa 4b3c de5a 07bd
00000360: fa74 203b 1e3d f7bb dbe2 f93a 808d 953b
00000370: 0e14 943c 4b5f 773b 0f83 9d3c 79e4 af3b
00000380: 7798 8b3c fa32 88bc 1280 c63c dfe1 8b3c
00000390: 2a77 3f3b 569d e83c ba88 37bc 7ab1 dcbc
000003a0: ec75 9bb9 9962 033a d268 a23c 2567 5dbc
000003b0: ba36 48bc 62e9 e4bb 8745 bfba bae0 aabc
000003c0: 7a39 0fbc be5c efbb 3e26 d8bc e9fe 133c
000003d0: 9f15 303d 11ed a93c f79a 0a3c 7e3c c1bc
000003e0: ce93 f0bc 2d69 6a3c 37a6 0c3d 1b8e 88bb
000003f0: 3240 26bd 546b af3c 1a37 88bc 384b a23c

biases.1 f4 [10]
-0.0014488026 -0.02710548 -0.035187908 0.030164491 -0.03134755 0.048513804 0.038933467 -0.020283801
-0.04710862 0.025422323
00000000: c0e5 bdba 500c debc 3221 10bd 861b f73c
00000010: 4a66 00bd 69b6 463d b378 1f3d 372a a6bc
00000020: f8f4 40bd 7a42 d03c

embs.0.weight f4 [784, 64]
-0.0065952726 0.009835675 0.020854898 0.017431516 -0.029251378 0.009447892 -0.010106347 -0.023624966
-0.017937617 0.008362492 0.034129005 0.028159793 -0.02428586 0.009343892 0.00036537886 -0.008702273
0.022349644 -0.010608378 -0.025201062 0.016198965 0.016867355 -0.0018539495 0.01240957 -0.042628456
0.016561234 0.022503821 0.010988582 -0.044604693 -0.061559357 -0.06883558 0.0139662465 0.00950945
-0.01829716 -0.04256656 0.016300568 -0.009592504 -0.010883237 0.03292048 0.015294406 0.005560831
-0.019836016 -0.027165506 -0.0021834054 -0.014565299 0.02535201 -0.0011125943 -0.0018812062 0.022571493
0.021236354 0.03678262 -0.01020187 -0.027471233 -0.015789771 0.0066603925 0.06415338 -0.039629582
-0.024183309 -0.024553623 0.03776001 -0.009735812 0.029601067 -0.008323331 0.011188179 0.006225212
0.026283477 0.007032936 0.00983296 0.010867359 -0.025010487 0.029223459 0.01572249 -0.0019960252
-0.04213415 -0.016737385 0.044555403 -0.0060286997 -0.014546399 -0.011157446 0.0070464737 0.035839435
0.04870536 -0.022367418 0.0014888534 0.017240983 0.00047418117 -0.00226163 0.046478458 -0.027541673
0.025605287 0.016993592 0.005624603 0.010534488 -0.006392452 -0.042461894 -0.0139198825 0.013543625
-0.0047149556 -0.019152218 -0.006938803 -0.060542148 -0.010877707 0.028631873 -0.045204032 -0.029805217
-0.004182572 -0.024805097 -0.010444986 -0.033935104 -0.0037413447 -0.0060907984 -0.010014611 0.012847153
0.014901447 -0.015199862 -0.041711893 -0.03866074 0.020705003 0.003888009 0.03361115 -0.051029224
0.0111546535 0.00015375082 -0.003186756 -0.032544725 0.0029586079 -0.0047078254 -0.010111631 0.009970312
0.019432463 -0.007995088 -0.041517194 0.020360695 0.0073452247 0.00852055 0.006272041 -0.013044839
-0.07296075 0.020709123 -0.004614944 0.009654107 0.0032953373 0.009745427 -0.034942355 -0.017662171
0.034758452 -0.01684666 -0.026765527 -0.021336524 0.027825579 0.018292394 0.018405704 -0.07882641
0.0076734014 0.015365707 0.008101154 -0.001042351 -0.08067617 -0.05018745 -0.016415097 -0.020767208
0.0065713776 -0.019255431 -0.016433949 -0.008237584 0.0010067692 0.023805708 -0.0068637524 0.0046737343
-0.052035775 0.024181545 0.027921215 0.0070096035 -0.009170011 -0.016601762 -0.041062385 0.047278397
0.026610253 -0.0015474231 0.013918981 -0.02758262 -0.03119973 0.006686661 0.038955044 -0.04455819
0.012158896 -0.02835397 0.020366628 0.01611124 0.024989204 -0.013304244 -0.021448962 -0.04317191
0.026282981 -0.027663922 -0.008942179 0.030413827 -0.019920195 0.005546599 -0.011010053 0.0008085566
-0.066514455 0.001173557 -0.00070573244 -0.019275937 0.018239655 0.020616824 0.004708825 -0.027150752
-0.011475 0.009800186 0.02171117 0.04200473 0.02609228 -0.006238542 0.00894107 -0.033070516
-0.011145406 0.036415007 0.04540861 0.029004227 -0.037109863 0.012288496 -0.031268507 0.039380956
-0.0041993866 -0.024069931 -0.028387694 -0.01979027 0.029682674 -0.0077142976 -0.027882747 0.014848905
-0.043122802 0.024568371 0.018555902 -0.025190907 -0.022075653 -0.030946037 -0.014649331 0.0029113295
0.018939551 -0.009683024 -0.023860648 -0.013211511 0.00045437 0.027485754 0.05162004 -0.022628548
-0.0026865574 -0.009284563 0.033544954 -0.02071908 0.02981293 -0.009559476 -0.038798537 -0.012822383
00000000: 281d d8bb d025 213c e4d7 aa3c 8acc 8e3c
00000010: 96a0 efbc 55cb 1a3c 1795 25bc 2589 c1bc
00000020: e9f1 92bc d502 093c dbca 0b3d 5eaf e63c
00000030: 24f3 c6bc 2017 193c 5290 bf39 fa93 0ebc
00000040: 9a16 b73c c3ce 2dbc 7572 cebc b1b3 843c
00000050: 682d 8a3c 3900 f3ba 8251 4b3c 2d9b 2ebd
00000060: 6dab 873c ef59 b83c 7409 343c 69b3 36bd
00000070: aa25 7cbd abf9 8cbd afd2 643c 86cd 1b3c
00000080: ede3 95bc 465a 2ebd c588 853c e129 1dbc
00000090: 9b4f 32bc a0d7 063d 6395 7a3c a237 b63b
000000a0: 247f a2bc 328a debc 7717 0fbb 4ba3 6ebc
000000b0: 05af cf3c 78d4 91ba ce92 f6ba dae7 b83c
000000c0: ddf7 ad3c 5fa9 163d bf25 27bc 5a0b e1bc
000000d0: 8d59 81bc 6c3f da3b d962 833d a152 22bd
000000e0: 131c c6bc ae24 c9bc 3eaa 1a3d f582 1fbc
000000f0: f07d f23c 955e 08bc a04e 373c ddfc cb3b
00000100: 7250 d73c 8b74 e63b 6c1a 213c 020d 323c
00000110: cbe2 ccbc 0966 ef3c 74cc 803c bfcf 02bb
00000120: dc94 2cbd d71c 89bc ba7f 363d 668c c5bb
00000130: 0554 6ebc b8cd 36bc 1be6 e63b 5fcc 123d
00000140: 467f 473d e03b b7bc a125 c33a f63c 8d3c
00000150: 859b f839 db37 14bb 3260 3e3d 139f e1bc
00000160: 2ec2 d13c 2536 8b3c 974e b83b d898 2c3c
00000170: c677 d1bb 86ec 2dbd 3810 64bc 15e6 5d3c
00000180: ea7f 9abb 1de5 9cbc e65e e3bb 0bfb 77bd
00000190: 6938 32bc 648d ea3c dd27 39bd 122a f4bc
000001a0: f50d 89bb 0f34 cbbc 7221 2bbc 89ff 0abd
000001b0: 5931 75bb 5295 c7bb 5314 24bc dd7c 523c
000001c0: 3325 743c d808 79bc 17da 2abd b95a 1ebd
000001d0: 8a9d a93c f8cd 7e3b d8ab 093d 0504 51bd
000001e0: 02c2 363c 2c38 2139 e5d8 50bb 9e4d 05bd
000001f0: 34e5 413b 1a44 9abb 41ab 25bc 855a 233c
00000200: d430 9f3c d4fd 02bc ef0d 2abd 79cb a63c
00000210: 36b0 f03b c799 0b3c b185 cd3b 05ba 55bc
00000220: 726c 95bd 2ea6 a93c f538 97bb 422c 1e3c
00000230: 96f6 573b 49ab 1f3c b71f 0fbd 42b0 90bc
00000240: e15e 0e3d 0202 8abc 6143 dbbc efc9 aebc
00000250: 78f2 e33c eed9 953c 8fc7 963c be6f a1bd
00000260: 2871 fb3b 72c0 7b3c b4ba 043c 7f9f 88ba
00000270: 8c39 a5bd 5b91 4dbd f478 86bc fe1f aabc
00000280: b654 d73b 91bd 9dbc 7da0 86bc eef6 06bc
00000290: 92f5 833a 3004 c33c 54e9 e0bb 2026 993b
000002a0: 7723 55bd 6018 c63c 08bb e43c d1b0 e53b
000002b0: d03d 16bc 6b00 88bc 0831 28bd fea6 413d
000002c0: bffd d93c e7d2 caba 700c 643c f2f4 e1bc
000002d0: 9396 ffbc c71b db3b 538f 1f3d a682 36bd
000002e0: 1b36 473c 9646 e8bc ead7 a63c b8fb 833c
000002f0: 29b6 cc3c 0bfa 59bc bcb5 afbc 07d5 30bd
00000300: 684f d73c 739f e2bc 3882 12bc 6b26 f93c
00000310: ad2f a3bc 3fc0 b53b 8263 34bc 51f5 533a
00000320: bb38 88bd 0ad2 993a e700 39ba 92e8 9dbc
00000330: 546b 953c 9de4 a83c 7d4c 9a3b 416b debc
00000340: a301 3cbc f690 203c a0db b13c 270d 2c3d
00000350: 7abf d53c af6c ccbb 917d 123c f374 07bd
00000360: 399b 36bc e727 153d 61fe 393d 469a ed3c
00000370: 8300 18bd b055 493c 6813 00bd ed4d 213d
00000380: 029b 89bb 4e2e c5bc 4f8d e8bc 341f a2bc
00000390: 1429 f33c 38c8 fcbb 5c6a e4bc d248 733c
000003a0: 89a1 30bd 9c43 c93c 8c02 983c 295d cebc
000003b0: 00d8 b4bc 8b82 fdbc bf03 70bc 01cc 3e3b
000003c0: 1e27 9b3c 8ca5 1ebc 6877 c3bc 1875 58bc
000003d0: 8238 ee39 ce29 e13c 896f 533d 815f b9bc
000003e0: f410 30bb 481e 18bc 6f66 093d 0fbb a9bc
000003f0: 3f3a f43c 599f 1cbc 37eb 1ebd f914 52bc

embs.1.weight f4 [400, 64]
-0.16887236 0.016005935 -0.008658535 -0.06918733 0.12606934 -0.06541441 -0.00050531136 -0.01314276
0.029738352 0.09360173 0.11364734 -0.1760785 0.20683086 0.062363774 0.13264076 -0.09120754
0.029547215 -0.0014593437 -0.011952151 -0.06077304 0.13083977 -0.18976255 0.097654805 -0.0600789
0.17467669 -0.08632356 0.09223195 -0.047917087 0.14263386 -0.060454957 0.027973508 0.03786159
-0.048520286 -0.086641535 -0.08610107 -0.068808734 -0.094121434 -0.007884269 0.08054028 0.106796674
-0.13252072 -0.0039661354 -0.01215112 -0.057754368 0.0063521164 0.02038041 -0.038619254 -0.056836035
-0.19994906 0.032776255 -0.02686557 -0.16862194 0.014901595 0.032278996 0.06347197 -0.04899255
0.25860104 -0.036768887 -0.104434915 0.07915164 -0.1188252 0.07995135 0.012072518 0.0921937
0.010253386 -0.036230464 -0.020711016 0.020739563 -0.0035788554 -0.017825643 -0.017045261 -0.0006012894
-0.0069459397 -0.036820076 -0.037151635 -0.029340405 0.046401232 -0.062255327 0.052791107 0.0046788086
0.07391464 0.015067708 0.052412547 -0.0456835 0.035901867 -0.030932264 -0.027280275 -0.0340326
0.022179276 0.057140056 0.02698049 -0.022176867 -0.014010153 -0.025871105 -0.035867937 0.006317438
0.022895453 0.0047825295 -0.006239347 0.055299312 0.005942958 0.09288972 0.05131252 0.020249395
0.0829124 -0.015795585 -0.029577091 -0.045909684 -0.00980247 0.0010870514 0.016560793 0.09057709
-0.015022288 0.037849206 -0.006352636 0.09551648 -0.057029147 0.054646846 0.05715378 -0.024506597
-0.01214217 -0.004488614 0.040245134 -0.015626043 0.035443135 -0.021545399 -0.03306293 -0.028765699
0.16177233 -0.013170662 -0.1139271 -0.04049118 0.041672755 0.09286952 -0.18598431 0.11465234
-0.011924625 -0.01215662 0.044655073 0.13025466 -0.1704906 -0.037855264 -0.055766985 0.18534482
-0.1568261 -0.051208705 -0.051401664 0.014310871 -0.11670849 0.18924762 -0.07520706 -0.01613797
-0.082895935 0.015372223 -0.060107812 -0.13290146 -0.058136065 -0.12242693 0.04257223 -0.055078015
-0.05010543 0.033808067 0.023113664 -0.049020126 0.06163861 -0.09759732 -0.01316895 -0.030427754
-0.16405521 0.097736016 0.02619427 -0.028021498 -0.005281584 0.00062666263 0.0448345 -0.06363351
-0.00022008104 -0.16061708 -0.024105927 -0.040713947 0.0011198772 -0.006901863 -0.081590675 0.035501882
-0.03877884 0.12443896 -0.08543348 0.06699482 0.08523904 -0.005311061 -0.12521756 -0.0935159
-0.15790686 -0.08377178 -0.0612955 0.42539984 0.03075295 0.40372187 -0.11653584 0.08815901
-0.19404997 -0.16017294 0.262044 -0.16078441 -0.10047029 -0.060739443 -0.12286067 -0.012582492
0.03900026 0.18465428 0.11943511 -0.23229621 0.106164426 -0.0526897 0.19481988 0.19552383
-0.07799327 -0.251685 -0.10658294 0.021047678 -0.14204358 0.026818564 0.0011320064 0.24984336
-0.2003038 0.29386622 0.041650638 0.26437065 0.13125171 -0.00503164 0.17252688 -0.10996451
0.15096924 0.20179155 0.0131190065 -0.10542765 0.47322035 0.052091233 -0.17030309 -0.20572443
-0.23944385 -0.21640831 -0.029757207 0.049915303 -0.29709762 -0.26474345 0.08976339 0.2874688
0.004111805 -0.106873825 0.14228599 0.0077694333 -0.36849946 -0.19944392 0.030073496 0.03428636
00000000: e0ec 2cbe e11e 833c 87dc 0dbc 16b2 8dbd
00000010: 5218 013e fdf7 85bd df76 04ba bb54 57bc
00000020: d89d f33c 44b2 bf3d f0bf e83d ec4d 34be
00000030: 78cb 533e 2871 7f3d fbd2 073e 05cb babd
00000040: 000d f23c 7347 bfba f4d2 43bc 27ed 78bd
00000050: dcfa 053e 1d51 42be 3eff c73d 4b15 76bd
00000060: 72de 323e 68ca b0bd 1be4 bc3d b544 44bd
00000070: 9c0e 123e 9e9f 77bd b328 e53c c114 1b3d
00000080: 35bd 46bd 1e71 b1bd c255 b0bd 98eb 8cbd
00000090: bdc2 c0bd 052d 01bc 4df2 a43d 37b8 da3d
000000a0: 83b3 07be 5bf6 81bb 7e15 47bc d88f 6cbd
000000b0: 6a25 d03b d1f4 a63c 392f 1ebd e7cc 68bd
000000c0: 72bf 4cbe 6540 063d 2f15 dcbc 3bab 2cbe
000000d0: d225 743c fb36 043d 98fd 813d 69ac 48bd
000000e0: 5b67 843e f99a 16bd f9e1 d5bd 411a a23d
000000f0: a05a f3bd 89bd a33d cfcb 453c 0dd0 bc3d
00000100: d1fd 273c 6566 14bd 26aa a9bc 04e6 a93c
00000110: 3b8b 6abb 1507 92bc 81a2 8bbc d99f 1dba
00000120: c49a e3bb a6d0 16bd 502c 18bd 4a5b f0bc
00000130: 380f 3e3d 71ff 7ebd 7d3b 583d b150 993b
00000140: 8f60 973d 8cde 763c 8aae 563d 9f1e 3bbd
00000150: d60d 133d a965 fdbc e27a dfbc c465 0bbd
00000160: 50b1 b53c b10b 6a3d 3006 dd3c 43ac b5bc
00000170: d78a 65bc a4ef d3bc 42ea 12bd 8302 cf3b
00000180: 3f8f bb3c c4b6 9c3b 7073 ccbb 8881 623d
00000190: 25bd c23b f73c be3d 142d 523d 0fe2 a53c
000001a0: facd a93d be65 81bc a84b f2bc cb0b 3cbd
000001b0: 8a9a 20bc 647b 8e3a 80aa 873c 7b80 b93d
000001c0: 0b20 76bc c507 1b3d c629 d0bb 259e c33d
000001d0: 6597 69bd 5fd5 5f3d 151a 6a3d 0fc2 c8bc
000001e0: f4ef 46bc 3915 93bb 15d8 243d 3002 80bc
000001f0: d22c 113d fa7f b0bc ff6c 07bd 0ba6 ebbc
00000200: a5a7 253e c3c9 57bc 9d52 e9bd 14da 25bd
00000210: 0db1 2a3d 6032 be3d ac72 3ebe d9ce ea3d
00000220: 815f 43bc 8f2c 47bc 3de8 363d 7a61 053e
00000230: 1695 2ebe 1f0e 1bbd ec6b 64bd 08cb 3d3e
00000240: 0597 20be 38c0 51bd 8d8a 52bd 2578 6a3c
00000250: dc04 efbd 21ca 413e 2906 9abd c733 84bc
00000260: 58c5 a9bd c7db 7b3c 9c33 76bd 5217 08be
00000270: 1520 6ebd f8ba fabd 3860 2e3d 7c99 61bd
00000280: 5a3b 4dbd 547a 0a3d de58 bd3c 54c9 48bd
00000290: c478 7c3d 1be1 c7bd 94c2 57bc a043 f9bc
000002a0: 17fe 27be d229 c83d 5e95 d63c 578d e5bc
000002b0: 2311 adbb 9e46 243a 61a4 373d 4952 82bd
000002c0: 8ec5 66b9 ce78 24be cb79 c5bc abc3 26bd
000002d0: d8c8 923a 0629 e2bb 0319 a7bd 6c6a 113d
000002e0: 90d6 1ebd dad9 fe3d c0f7 aebd 9534 893d
000002f0: ce91 ae3d 6908 aebb 0839 00be 4485 bfbd
00000300: 56b2 21be 8a90 abbd fd10 7bbd 02ce d93e
00000310: 9ced fb3c a2b4 ce3e 58aa eebd b68c b43d
00000320: 09b5 46be 6004 24be a22a 863e aba4 24be
00000330: 5ec3 cdbd ecc9 78bd 609e fbbd cc26 4ebc
00000340: bdbe 1f3d 0316 3d3e 659a f43d 0fdf 6dbe
00000350: bc6c d93d 28d1 57bd dd7e 473e 6637 483e
00000360: efba 9fbd dbdc 80be 2848 dabd 2e6c ac3c
00000370: df73 11be 9bb2 db3c d55f 943a f0d6 7f3e
00000380: 701c 4dbe a275 963e dc99 2a3d 975b 873e
00000390: d966 063e 75e0 a4bb e3aa 303e 1335 e1bd
000003a0: ae97 1a3e 72a2 4e3e 1af1 563c 74ea d7bd
000003b0: f049 f23e 9e5d 553d ef63 2ebe 6da9 52be
000003c0: c530 75be 249a 5dbe 63c5 f3bc fd73 4c3d
000003d0: 2e1d 98be 748c 87be ded5 b73d 1c2f 933e
000003e0: 52bc 863b aae0 dabd 6bb3 113e bb96 fe3b
000003f0: f6ab bcbe 073b 4cbe b15c f63c db6f 0c3d

embs.2.weight f4 [10, 64]
0.02346513 0.2761432 -0.22629479 -0.1640519 0.12873113 0.14214648 -0.6644976 0.200455
-0.41328132 0.037282307 -0.39408162 -0.021098893 0.041083302 -0.30205584 -0.2934997 -0.11344401
-0.044378493 -0.5180165 0.0701214 -0.03625984 -0.13399383 0.09607486 0.020624593 0.095314436
0.28645888 0.09914164 0.019042606 -0.066926144 -0.09139728 -0.15591294 -0.2724685 0.36356616
0.18761222 -0.085385494 0.0076359436 -0.34724575 -0.19806343 0.07065552 0.0550674 -0.10828799
-0.06278388 -0.24288958 0.059206024 -0.08448592 0.11069557 0.00984045 -0.045377895 -0.02448873
-0.024407437 -0.42332986 0.4460224 0.0648288 0.04926186 -0.2580091 -0.004543926 -0.07292934
-0.11425653 -0.37393367 -0.1342068 -0.23760566 -0.04379878 -0.08231644 -0.15843676 0.042015918
0.023801502 -0.1588386 0.39691997 -0.014104019 -0.09044971 -0.012790452 0.19731879 0.13717663
-0.15849991 -0.20406221 0.028701069 0.2684947 -0.017794946 0.0005832499 0.2817273 -0.108540125
-0.4932437 -0.08498546 0.12405625 -0.32880014 0.14125137 0.029766867 -0.23357378 0.122653276
0.18382633 0.07892686 -0.10574208 0.18214743 -0.32654208 -0.10783559 0.32397437 0.017002318
-0.037486505 -0.14389654 -0.011210621 0.11521394 0.13866216 0.2542424 0.06818736 0.12539373
-0.15767738 -0.06899067 0.12529948 -0.18662253 -0.11821817 -0.08451017 -0.25680998 0.48409656
0.11036312 0.111824006 -0.23705256 -0.1248646 -0.22656941 -0.28603032 -0.12929924 0.480007
-0.16562168 0.23762265 -0.10588849 0.18544108 0.06606028 0.00709456 -0.26980358 0.69256604
0.06809954 -0.036815815 -0.28053063 -0.13293861 -0.11940723 0.19266193 -0.41838843 -0.23961698
0.032762896 0.0074002086 -0.1729737 -0.23483285 -0.106228225 -0.24689892 0.021637863 0.07285157
0.051882934 0.16674903 -0.42779785 -0.20471634 0.024612686 -0.13533144 0.09342195 0.27157715
0.08635496 -0.26260233 0.024354769 -0.005364772 0.015929436 0.1909361 0.1709764 -0.44807398
-0.028634608 -0.33181223 -0.11519865 -0.22152238 -0.72274697 -0.32329056 0.2509688 0.2543834
-0.32414332 -0.15424402 -0.053530987 0.35766312 0.081784636 -0.19683458 0.020111859 0.08867839
-0.039430883 -0.059885 -0.10797464 0.16229571 0.115525186 -0.102830306 0.007867903 -0.10061873
-0.23532556 -0.008153789 0.029897925 0.3259267 0.16457883 0.06657923 -0.0038453077 0.061809592
-0.13732201 -0.1961452 0.055089727 0.2373362 -0.16351162 -0.062597364 0.26648024 0.16088769
-0.057428163 -0.044868544 -0.17896953 0.10399725 0.026824811 -0.15654789 0.15232906 0.3090167
-0.25240347 -0.09588024 0.041836545 0.16269092 0.009194784 -0.0024398398 0.20276046 0.058677793
-0.20460294 0.24548694 -0.07941438 0.07806064 0.42524275 0.32107437 0.3824833 -0.14538068
0.17205797 -0.07904953 0.23483573 -0.335023 -0.29539683 0.08512051 0.2545374 -0.014653552
-0.17824505 0.13025352 -0.043337256 -0.15668565 0.044426817 0.100156896 -0.0906463 -0.11790459
-0.085357994 0.07987805 0.13309973 -0.0016657308 0.052361622 -0.04696709 -0.07085695 -0.097604275
0.15523674 -0.09379673 -0.04984206 -0.08567853 0.1512859 0.12933663 0.1130243 -0.010014076
00000000: f239 c03c a462 8d3e d2b9 67be 39fd 27be
00000010: 18d2 033e d98e 113e 841c 2abf 1344 4d3e
00000020: 9c99 d3be 55b5 183d 11c5 c9be 96d7 acbc
00000030: f746 283d 10a7 9abe 9845 96be 5555 e8bd
00000040: 39c6 35bd bb9c 04bf cf9b 8f3d 3385 14bd
00000050: ae35 09be e5c2 c43d e8f4 a83c 3734 c33d
00000060: bdaa 923e c60a cb3d 3dff 9b3c 9310 89bd
00000070: 7f2e bbbd a4a7 1fbe fe80 8bbe 5825 ba3e
00000080: 6b1d 403e 97de aebd f036 fa3b 32ca b1be
00000090: 24d1 4abe d7b3 903d 5b8e 613d 18c6 ddbd
000000a0: d694 80bd 0cb8 78be 0482 723d f406 adbd
000000b0: 5cb4 e23d d739 213c 2cde 39bd 979c c8bc
000000c0: 1bf2 c7bc b1be d8be 0c5d e43e f6c4 843d
000000d0: cec6 493d c519 84be 37e5 94bb fa5b 95bd
000000e0: 54ff e9bd 3c74 bfbe 826d 09be e64e 73be
000000f0: 5966 33bd 8695 a8bd 3f3d 22be e218 2c3d
00000100: 5efb c23c 96a6 22be 1839 cb3e 8b14 67bc
00000110: b33d b9bd 0b8f 51bc f00d 4a3e 0878 0c3e
00000120: cd4d 22be aff5 50be 811e eb3c 2378 893e
00000130: b5c6 91bc 3de5 183a 903e 903e 494a debd
00000140: 708a fcbe db0c aebd 3411 fe3d 7e58 a8be
00000150: 33a4 103e a5d9 f33c f72d 6fbe a431 fb3d
00000160: f83c 3c3e 68a4 a13d 4e8f d8bd db84 3a3e
00000170: 8630 a7be e8d8 dcbd f8df a53e 7248 8b3c
00000180: 738b 19bd 9d59 13be c1ac 37bc 49f5 eb3d
00000190: 74fd 0d3e 0f2c 823e d1a5 8b3d 3767 003e
000001a0: 2e76 21be fb4a 8dbd 824e 003e fa19 3fbe
000001b0: 5e1c f2bd ab13 adbd 997c 83be 81db f73e
000001c0: 0f06 e23d fc03 e53d e8bd 72be 03b9 ffbd
000001d0: d001 68be 9172 92be 0567 04be 7ac3 f53e
000001e0: bb98 29be 5a53 733e 11dc d8bd 44e4 3d3e
000001f0: 9d4a 873d 7c79 e83b b223 8abe 024c 313f
00000200: c677 8b3d 2ecc 16bd b6a1 8fbe 0f21 08be
00000210: c78b f4bd 2b49 453e 0237 d6be 275e 75be
00000220: 6332 063d 737d f23b 0520 31be 0678 70be
00000230: 2f8e d9bd 12d3 7cbe e341 b13c 3433 953d
00000240: 3383 543d 42c0 2a3e 5208 dbbe 29a1 51be
00000250: 8ba0 c93c 5394 0abe 0254 bf3d 290c 8b3e
00000260: dfda b03d d073 86be a783 c73c f8ca afbb
00000270: 737e 823c c184 433e 7014 2f3e f469 e5be
00000280: 2093 eabc 4be3 a9be 45ed ebbd c3d6 62be
00000290: f205 39bf 5786 a5be fc7e 803e 8a3e 823e
000002a0: 1df6 a5be 25f2 1dbe 4f43 5bbd 9f1f b73e
000002b0: b47e a73d 018f 49be a0c1 a43c 049d b53d
000002c0: 4782 21bd f949 75bd cf21 ddbd d930 263e
000002d0: 7898 ec3d b298 d2bd 61e8 003c 3111 cebd
000002e0: 2ff9 70be 7897 05bc 7eec f43c dddf a63e
000002f0: 5a87 283e b15a 883d 8f01 7cbb 0e2c 7d3d
00000300: 249e 0cbe 4ada 48be c4a5 613d 4308 733e
00000310: 976f 27be 0c33 80bd 1970 883e bebf 243e
00000320: cb39 6bbd 14c8 37bd ca43 37be 83fc d43d
00000330: b5bf db3c 174e 20be 26fc 1b3e 7037 9e3e
00000340: 073b 81be dc5c c4bd cc5c 2b3d 7398 263e
00000350: b8a5 163c b8e5 1fbb 70a0 4f3e 2058 703d
00000360: 6f83 51be ee60 7b3e 02a4 a2bd 42de 9f3d
00000370: 6bb9 d93e dc63 a43e dad4 c33e acde 14be
00000380: f72f 303e b8e4 a1bd c778 703e 2288 abbe
00000390: 413e 97be a953 ae3d ba52 823e 7415 70bc
000003a0: df85 36be 2e61 053e 6882 31bd 3472 20be
000003b0: e5f8 353d 0f1f cd3d c4a4 b9bd f677 f1bd
000003c0: 2cd0 aebd 1a97 a33d 4c4b 083e a754 daba
000003d0: 2479 563d 9060 40bd 731d 91bd c0e4 c7bd
000003e0: 61f6 1e3e 8018 c0bd 3027 4cbd 3a78 afbd
000003f0: b1ea 1a3e d270 043e 4979 e73d 1412 24bc
