models/trained_to_ref_1.pth (torch, 309399 bytes, 5 tensors)

biases.0 f4 [400]
-0.011827399 -0.043825008 -0.0027352497 0.024035126 -0.01017937 -0.032440603 -0.0212971 0.010341739
0.029866483 -0.030729411 0.007303415 -0.04429889 -0.011702017 -0.003506399 0.013007873 -0.010371627
-0.03542328 0.018112537 0.039597392 0.020545704 -0.017353548 0.03348848 -0.043257404 0.017886588
-0.011033383 -0.028803589 0.014567267 0.00716566 0.02303427 0.0029279955 0.026954992 0.005926734
-0.02031286 0.037123963 -0.029552642 0.019471742 -0.0413743 -0.020513447 -0.037864376 0.03159945
0.017978804 -0.023123894 -0.036909293 -0.017572965 0.005455282 0.014011258 0.017734673 0.012496232
-0.0055379784 -0.014210175 -0.03491477 0.01087875 0.011568844 0.00022763811 -0.024528086 -0.005877896
-0.035225585 -0.0025445195 -0.036043905 0.02055235 -0.014742088 -0.03319826 0.020694532 -0.020440396
0.016627302 0.017900258 0.019011889 -0.04437241 0.0011305993 -0.013421972 0.010311938 -0.020882122
-0.026981948 -0.0089678615 -0.025376406 -0.028681556 -0.035096608 0.026559126 -0.03436245 -0.03478829
0.020781111 0.009435405 -0.034551885 -0.03562043 -0.028787889 0.03895212 0.008161965 0.013131752
-0.0047180164 0.025953364 -0.017477285 -0.008491249 0.031362627 -0.011176865 -0.018761443 0.021705851
-0.01175105 0.0061645545 -0.01716391 0.00570358 0.017448163 0.009143933 0.013633822 0.031773716
-0.0021310432 -0.01105421 -0.010080025 -0.0262672 -0.011036089 0.014076786 0.021314692 0.013482631
-0.013641841 -0.008002857 -0.043956265 -0.018328022 -0.016469913 -0.009405688 -0.010743936 -0.0018921675
0.018967872 -0.01541085 0.008468791 -0.011865012 0.01911627 0.0022197375 -0.020162465 -0.04609569
-0.009800458 -0.038627237 -0.010256501 -0.011398776 -0.012441837 -0.020001883 -0.02097609 -0.019133756
-0.01649317 -0.04503835 0.032862492 -0.0079176575 -0.008276633 -0.026043609 -0.03769397 -0.018958455
-0.017054982 0.013454897 7.6711745e-05 -0.011154678 0.009634567 -0.006155746 -0.004951387 -0.011614353
0.00931307 -0.036138356 -0.036602184 0.0053661587 -0.043644715 0.01717607 -0.0038518007 0.03356684
-0.012692045 -0.04608039 -0.009157095 -0.034776717 0.029594982 -0.032833382 -0.010059633 0.005577491
-0.0027485078 -0.004769012 0.015162889 0.03900572 -0.0030348364 0.03304885 -0.019364348 0.019819573
-0.020221042 -0.02477866 -0.02040781 0.0072002127 -0.02193795 0.016432477 -0.03776193 0.016472079
0.044293325 -0.010424885 0.037604634 0.0023129776 -0.03412948 0.0072869123 -0.035886783 0.016856976
-0.021079244 0.009728713 -0.02322794 0.04701578 -0.02137194 -0.030219132 -0.013659393 0.0032908106
0.0012762339 -0.021784391 -0.0071093827 -0.009956752 0.005458958 -0.04362178 -0.019796792 0.008408401
-0.0023488335 0.0011106465 -0.014125457 0.013387051 -0.00089831627 -0.005222344 0.022405962 0.0046305032
0.009895255 -0.02397615 0.033900533 -0.013948424 0.010540105 -0.0069626514 0.023067014 0.0031240238
-0.018052107 -0.018838754 -0.0111145945 0.0176743 -0.0069080917 -0.009275096 -0.0131568005 -0.0036065397
0.011196274 0.03669893 -0.033605956 0.0143621275 -0.031026691 0.019731445 -0.020192001 0.025708372
0.0065268027 0.016811663 -0.023874672 0.034430627 -0.040521223 -0.035925098 0.023872891 -0.012194766
-0.04635349 -0.00032794496 -0.014956341 -0.023557365 -0.04721629 0.018345894 0.009078184 0.004111402
00000000: b5c7 41bc da81 33bd e041 33bb 50e5 c43c
00000010: 5fc7 26bc 70e0 04bd 4177 aebc 6670 293c
00000020: 8eaa f43c 3fbc fbbc 7c51 ef3b c172 35bd
00000030: d1b9 3fbc 9dcb 65bb f91e 553c c2ed 29bc
00000040: 0018 11bd be60 943c e030 223d 774f a83c
00000050: 0729 8ebc 372b 093d ad2e 31bd e586 923c
00000060: 5dc5 34bc 81f5 ebbc 8cab 6e3c eacd ea3b
00000070: 5eb2 bc3c 9de3 3f3b b7d0 dc3c 0c35 c23b
00000080: 2867 a6bc 4c0f 183d 6218 f2bc 3483 9f3c
00000090: 1978 29bd d10b a8bc ad17 1bbd 6d6e 013d
000000a0: 4948 933c 526e bdbc 332e 17bd 2ef5 8fbc
000000b0: 39c2 b23b 7a8f 653c 4e48 913c ffbc 4c3c
000000c0: ee77 b5bb cbd1 68bc ca02 0fbd c93c 323c
000000d0: 408b 3d3c 24b2 6e39 20ef c8bc 5e9b c0bb
000000e0: b448 10bd f4c1 26bb c6a2 13bd 675d a83c
000000f0: cc88 71bc e6fa 07bd 9487 a93c 9e72 a7bc
00000100: fb35 883c 90a3 923c d2be 9b3c d8bf 35bd
00000110: 9e30 943a d5e7 5bbc 67f3 283c fc10 abbc
00000120: 3f09 ddbc f0ed 12bc 2ee2 cfbc 95f5 eabc
00000130: 76c1 0fbd 8692 d93c a4bf 0cbd 2a7e 0ebd
00000140: 263d aa3c f596 1a3c 4786 0dbd bae6 11bd
00000150: 94d4 ebbc 428c 1f3d c3b9 053c 8f26 573c
00000160: 9799 9abb 269c d43c 862c 8fbc e11e 0bbc
00000170: 1976 003d 2b1f 37bc 99b1 99bc 78d0 b13c
00000180: 7a87 40bc 0800 ca3b 549b 8cbc 19e5 ba3b
00000190: 73ef 8e3c 6fd0 153c 6560 5f3c 2825 023d
000001a0: f9a8 0bbb b81c 35bc b026 25bc 502e d7bc
000001b0: b6d0 34bc 52a2 663c 269c ae3c 41e6 5c3c
000001c0: 0782 5fbc 6a1e 03bc 7c0b 34bd a624 96bc
000001d0: e9eb 86bc 511a 1abc 5507 30bc 9b02 f8ba
000001e0: 8362 9b3c ca7d 7cbc afc0 0a3c 7865 42bc
000001f0: b999 9c3c 0479 113b c12b a5bc d6ce 3cbd
00000200: 1a92 20bc 9837 1ebd e20a 28bc efc1 3abc
00000210: d9d8 4bbc fdda a3bc 0dd6 abbc 65be 9cbc
00000220: af1c 87bc 227a 38bd d29a 063d 10b9 01bc
00000230: b79a 07bc 6859 d5bc fe64 1abd c34e 9bbc
00000240: e4b6 8bbc ee71 5c3c 4ee0 a038 1cc2 36bc
00000250: 4eda 1d3c 24b6 c9bb 3f3f a2bb 214a 3ebc
00000260: d995 183c d005 14bd 2cec 15bd 9ad6 af3b
00000270: cdc4 32bd d4b4 8c3c 7e6e 7cbb 627d 093d
00000280: 4cf2 4fbc cbbe 3cbd a407 16bc 0872 0ebd
00000290: 2d71 f23c 4c7c 06bd 29d1 24bc 63c3 b63b
000002a0: 4f20 34bb 5f45 9cbb c46d 783c 76c4 1f3d
000002b0: 1be4 46bb 3b5e 073d fba1 9ebc a85c a23c
000002c0: 99a6 a5bc 9efc cabc 482e a7bc c3ef eb3b
000002d0: 37b7 b3bc 679d 863c 41ac 1abd 74f0 863c
000002e0: eb6c 353d 23cd 2abc 5107 1a3d 5395 173b
000002f0: 5bcb 0bbd 0dc7 ee3b 05fe 12bd a417 8a3c
00000300: 61ae acbc 2e65 1f3c 8548 bebc 9e93 403d
00000310: 3514 afbc 1d8e f7bc a6cb 5fbc a4aa 573b
00000320: 4e47 a73a 2e75 b2bc d3f5 e8bb a521 23bc
00000330: 0fe1 b23b c0ac 32bd e22c a2bc 64c3 093c
00000340: e3ee 19bb 1d93 913a 766e 67bc 5d55 5b3c
00000350: fc7c 6bba 3220 abbb b58c b73c 7abb 973b
00000360: b51f 223c a269 c4bc 49db 0a3d ee87 64bc
00000370: 68b0 2c3c f426 e4bb 09f7 bc3c 6cbc 4c3b
00000380: 03e2 93bc bb53 9abc fd19 36bc b2c9 903c
00000390: 465d e2bb 92f6 17bc 9f8f 57bc b25b 6cbb
000003a0: 9470 373c 9e51 163d 66a6 09bd 214f 6b3c
000003b0: b02b febc d7a3 a13c b269 a5bc 5d9a d23c
000003c0: cade d53b 9db8 893c d194 c3bc 2107 0d3d
000003d0: 95f9 25bd 3226 13bd 1591 c33c 8ecc 47bc
000003e0: 28dd 3dbd 07f0 abb9 710b 75bc 60fb c0bc
000003f0: de65 41bd 214a 963c aabc 143c f1b8 863b

biases.1 f4 [10]
0.029242385 0.03150392 0.0023849495 -0.040139645 -0.0443644 -0.049046066 -0.032725587 -0.02866655
0.0006414652 -0.012975205
00000000: ba8d ef3c 410a 013d d04c 1c3b 7869 24bd
00000010: 72b7 35bd 87e4 48bd 440b 06bd 1dd6 eabc
00000020: 0028 283a f495 54bc

embs.0.weight f4 [784, 64]
-0.0065952726 0.009835675 0.020854898 0.017431516 -0.029251378 0.009447892 -0.010106347 -0.023624966
-0.017937617 0.008362492 0.034129005 0.028159793 -0.02428586 0.009343892 0.00036537886 -0.008702273
0.022349644 -0.010608378 -0.025201062 0.016198965 0.016867355 -0.0018539495 0.01240957 -0.042628456
0.016561234 0.022503821 0.010988582 -0.044604693 -0.061559357 -0.06883558 0.0139662465 0.00950945
-0.01829716 -0.04256656 0.016300568 -0.009592504 -0.010883237 0.03292048 0.015294406 0.005560831
-0.019836016 -0.027165506 -0.0021834054 -0.014565299 0.02535201 -0.0011125943 -0.0018812062 0.022571493
0.021236354 0.03678262 -0.01020187 -0.027471233 -0.015789771 0.0066603925 0.06415338 -0.039629582
-0.024183309 -0.024553623 0.03776001 -0.009735812 0.029601067 -0.008323331 0.011188179 0.006225212
0.026283477 0.007032936 0.00983296 0.010867359 -0.025010487 0.029223459 0.01572249 -0.0019960252
-0.04213415 -0.016737385 0.044555403 -0.0060286997 -0.014546399 -0.011157446 0.0070464737 0.035839435
0.04870536 -0.022367418 0.0014888534 0.017240983 0.00047418117 -0.00226163 0.046478458 -0.027541673
0.025605287 0.016993592 0.005624603 0.010534488 -0.006392452 -0.042461894 -0.0139198825 0.013543625
-0.0047149556 -0.019152218 -0.006938803 -0.060542148 -0.010877707 0.028631873 -0.045204032 -0.029805217
-0.004182572 -0.024805097 -0.010444986 -0.033935104 -0.0037413447 -0.0060907984 -0.010014611 0.012847153
0.014901447 -0.015199862 -0.041711893 -0.03866074 0.020705003 0.003888009 0.03361115 -0.051029224
0.0111546535 0.00015375082 -0.003186756 -0.032544725 0.0029586079 -0.0047078254 -0.010111631 0.009970312
0.019432463 -0.007995088 -0.041517194 0.020360695 0.0073452247 0.00852055 0.006272041 -0.013044839
-0.07296075 0.020709123 -0.004614944 0.009654107 0.0032953373 0.009745427 -0.034942355 -0.017662171
0.034758452 -0.01684666 -0.026765527 -0.021336524 0.027825579 0.018292394 0.018405704 -0.07882641
0.0076734014 0.015365707 0.008101154 -0.001042351 -0.08067617 -0.05018745 -0.016415097 -0.020767208
0.0065713776 -0.019255431 -0.016433949 -0.008237584 0.0010067692 0.023805708 -0.0068637524 0.0046737343
-0.052035775 0.024181545 0.027921215 0.0070096035 -0.009170011 -0.016601762 -0.041062385 0.047278397
0.026610253 -0.0015474231 0.013918981 -0.02758262 -0.03119973 0.006686661 0.038955044 -0.04455819
0.012158896 -0.02835397 0.020366628 0.01611124 0.024989204 -0.013304244 -0.021448962 -0.04317191
0.026282981 -0.027663922 -0.008942179 0.030413827 -0.019920195 0.005546599 -0.011010053 0.0008085566
-0.066514455 0.001173557 -0.00070573244 -0.019275937 0.018239655 0.020616824 0.004708825 -0.027150752
-0.011475 0.009800186 0.02171117 0.04200473 0.02609228 -0.006238542 0.00894107 -0.033070516
-0.011145406 0.036415007 0.04540861 0.029004227 -0.037109863 0.012288496 -0.031268507 0.039380956
-0.0041993866 -0.024069931 -0.028387694 -0.01979027 0.029682674 -0.0077142976 -0.027882747 0.014848905
-0.043122802 0.024568371 0.018555902 -0.025190907 -0.022075653 -0.030946037 -0.014649331 0.0029113295
0.018939551 -0.009683024 -0.023860648 -0.013211511 0.00045437 0.027485754 0.05162004 -0.022628548
-0.0026865574 -0.009284563 0.033544954 -0.02071908 0.02981293 -0.009559476 -0.038798537 -0.012822383
00000000: 281d d8bb d025 213c e4d7 aa3c 8acc 8e3c
00000010: 96a0 efbc 55cb 1a3c 1795 25bc 2589 c1bc
00000020: e9f1 92bc d502 093c dbca 0b3d 5eaf e63c
00000030: 24f3 c6bc 2017 193c 5290 bf39 fa93 0ebc
00000040: 9a16 b73c c3ce 2dbc 7572 cebc b1b3 843c
00000050: 682d 8a3c 3900 f3ba 8251 4b3c 2d9b 2ebd
00000060: 6dab 873c ef59 b83c 7409 343c 69b3 36bd
00000070: aa25 7cbd abf9 8cbd afd2 643c 86cd 1b3c
00000080: ede3 95bc 465a 2ebd c588 853c e129 1dbc
00000090: 9b4f 32bc a0d7 063d 6395 7a3c a237 b63b
000000a0: 247f a2bc 328a debc 7717 0fbb 4ba3 6ebc
000000b0: 05af cf3c 78d4 91ba ce92 f6ba dae7 b83c
000000c0: ddf7 ad3c 5fa9 163d bf25 27bc 5a0b e1bc
000000d0: 8d59 81bc 6c3f da3b d962 833d a152 22bd
000000e0: 131c c6bc ae24 c9bc 3eaa 1a3d f582 1fbc
000000f0: f07d f23c 955e 08bc a04e 373c ddfc cb3b
00000100: 7250 d73c 8b74 e63b 6c1a 213c 020d 323c
00000110: cbe2 ccbc 0966 ef3c 74cc 803c bfcf 02bb
00000120: dc94 2cbd d71c 89bc ba7f 363d 668c c5bb
00000130: 0554 6ebc b8cd 36bc 1be6 e63b 5fcc 123d
00000140: 467f 473d e03b b7bc a125 c33a f63c 8d3c
00000150: 859b f839 db37 14bb 3260 3e3d 139f e1bc
00000160: 2ec2 d13c 2536 8b3c 974e b83b d898 2c3c
00000170: c677 d1bb 86ec 2dbd 3810 64bc 15e6 5d3c
00000180: ea7f 9abb 1de5 9cbc e65e e3bb 0bfb 77bd
00000190: 6938 32bc 648d ea3c dd27 39bd 122a f4bc
000001a0: f50d 89bb 0f34 cbbc 7221 2bbc 89ff 0abd
000001b0: 5931 75bb 5295 c7bb 5314 24bc dd7c 523c
000001c0: 3325 743c d808 79bc 17da 2abd b95a 1ebd
000001d0: 8a9d a93c f8cd 7e3b d8ab 093d 0504 51bd
000001e0: 02c2 363c 2c38 2139 e5d8 50bb 9e4d 05bd
000001f0: 34e5 413b 1a44 9abb 41ab 25bc 855a 233c
00000200: d430 9f3c d4fd 02bc ef0d 2abd 79cb a63c
00000210: 36b0 f03b c799 0b3c b185 cd3b 05ba 55bc
00000220: 726c 95bd 2ea6 a93c f538 97bb 422c 1e3c
00000230: 96f6 573b 49ab 1f3c b71f 0fbd 42b0 90bc
00000240: e15e 0e3d 0202 8abc 6143 dbbc efc9 aebc
00000250: 78f2 e33c eed9 953c 8fc7 963c be6f a1bd
00000260: 2871 fb3b 72c0 7b3c b4ba 043c 7f9f 88ba
00000270: 8c39 a5bd 5b91 4dbd f478 86bc fe1f aabc
00000280: b654 d73b 91bd 9dbc 7da0 86bc eef6 06bc
00000290: 92f5 833a 3004 c33c 54e9 e0bb 2026 993b
000002a0: 7723 55bd 6018 c63c 08bb e43c d1b0 e53b
000002b0: d03d 16bc 6b00 88bc 0831 28bd fea6 413d
000002c0: bffd d93c e7d2 caba 700c 643c f2f4 e1bc
000002d0: 9396 ffbc c71b db3b 538f 1f3d a682 36bd
000002e0: 1b36 473c 9646 e8bc ead7 a63c b8fb 833c
000002f0: 29b6 cc3c 0bfa 59bc bcb5 afbc 07d5 30bd
00000300: 684f d73c 739f e2bc 3882 12bc 6b26 f93c
00000310: ad2f a3bc 3fc0 b53b 8263 34bc 51f5 533a
00000320: bb38 88bd 0ad2 993a e700 39ba 92e8 9dbc
00000330: 546b 953c 9de4 a83c 7d4c 9a3b 416b debc
00000340: a301 3cbc f690 203c a0db b13c 270d 2c3d
00000350: 7abf d53c af6c ccbb 917d 123c f374 07bd
00000360: 399b 36bc e727 153d 61fe 393d 469a ed3c
00000370: 8300 18bd b055 493c 6813 00bd ed4d 213d
00000380: 029b 89bb 4e2e c5bc 4f8d e8bc 341f a2bc
00000390: 1429 f33c 38c8 fcbb 5c6a e4bc d248 733c
000003a0: 89a1 30bd 9c43 c93c 8c02 983c 295d cebc
000003b0: 00d8 b4bc 8b82 fdbc bf03 70bc 01cc 3e3b
000003c0: 1e27 9b3c 8ca5 1ebc 6877 c3bc 1875 58bc
000003d0: 8238 ee39 ce29 e13c 896f 533d 815f b9bc
000003e0: f410 30bb 481e 18bc 6f66 093d 0fbb a9bc
000003f0: 3f3a f43c 599f 1cbc 37eb 1ebd f914 52bc

embs.1.weight f4 [400, 64]
-0.04474231 0.07292799 0.18686768 0.20300466 -0.08029625 -0.08960474 0.21149868 0.13040358
-0.09067144 -0.14145654 0.021815468 -0.2677999 -0.05041832 -0.0057758214 -0.1214028 -0.14147517
0.16657156 -0.14651039 -0.101468116 0.039524905 0.23889354 0.34678358 0.08743779 -0.112932816
-0.005277097 -0.010625422 -0.042946093 0.06132891 0.29995117 -0.2402023 0.27016994 -0.06772862
0.336466 0.0481711 0.053476516 0.08888947 0.13802606 0.114730135 -0.3266201 0.20591027
-0.244068 0.19722392 -0.150764 0.072522804 -0.18995114 -0.18448456 -0.07445344 -0.19177277
-0.07617312 0.052366715 -0.047437537 -0.1531591 0.08311356 -0.0796538 -0.007564424 0.010989995
0.097409114 0.16173714 0.27913272 -0.04104743 -0.41598222 0.07824016 -4.2842243e-05 -0.15710935
-0.057195604 -0.052110303 0.024171159 0.040133525 -0.05494226 -0.015758142 -0.044046108 0.015629902
0.06286974 0.030328205 -0.06341592 0.040336266 -0.062051713 -0.01965038 0.105190344 0.04161138
-0.013828954 -0.0076099276 -0.059524834 0.06468191 -0.023513425 0.03805922 -0.024614947 -0.019147946
0.030961534 -0.004296917 0.05594721 -0.00088481954 0.06915809 -0.013032053 -0.058861453 -0.069950975
0.030965902 0.00884695 0.033759788 -0.099281155 0.054172147 0.032173898 0.075459875 0.12910753
-0.09419417 -0.038341172 -0.010460482 -0.075550266 -0.007875147 -0.05324877 -0.023164803 0.0783303
0.03995354 -0.039407518 0.0055887797 -0.060969736 0.059066623 0.018124782 0.065533295 0.022468926
0.027982498 -0.058653433 -0.018701246 -0.07441659 0.018540539 0.009099663 -0.08732718 0.034716003
0.068678595 -0.12612501 -0.053840995 0.008626727 -0.052257173 -0.049706288 -0.013748934 -0.07924745
-0.034317642 0.0600163 0.075392194 0.017462542 0.07306741 -0.026225735 -0.010900101 0.016437577
0.031396843 0.080497764 0.031148925 -0.08880894 -0.022649847 -0.09542322 -0.04207817 -0.06417041
-0.02256181 0.029487157 -0.0208201 0.007841608 -0.020490386 -0.007810259 0.0006201666 0.053224437
0.0074221254 -0.034489766 -0.030418497 0.041319687 -0.07332202 0.031998347 -0.030352669 0.01471715
0.03635692 -0.003908536 0.04016948 -0.0007164446 -0.092823364 0.017918123 0.055956524 0.041252173
-0.05966937 0.034451947 -0.08142292 0.022282533 -0.021813713 0.013406158 -0.035242278 -0.12714492
0.035978068 -0.012241436 0.05984815 -0.07754788 -0.033913717 -0.016045438 0.05838545 -0.035353336
0.0152593 0.0024026951 0.003138549 -0.009020468 -0.041692246 -0.059803266 -0.048046123 0.117570035
-0.01686032 0.09930241 0.1412694 0.15143526 -0.01694276 -1.7985767e-05 -0.083950065 0.02652255
0.0780163 0.09172555 -0.06525222 -0.20264743 0.0652798 0.0486688 -0.009502284 0.06353049
-0.064004265 0.009066386 -0.0017452019 -0.08766768 0.13971137 0.0379428 -0.032065876 0.030295407
-0.023450231 -0.07604089 -0.10685826 0.1181644 -0.089689605 -0.048291016 -0.057180125 -0.029279783
0.03290269 -0.034459546 0.0360457 0.035914667 -0.08399235 0.006219887 0.002979536 0.019923326
-0.0354399 0.031803258 0.028680202 -0.06008205 -0.02878154 -0.053235106 -0.10227367 -0.025502507
-0.16626862 0.09400686 0.025149036 -0.118414015 0.010413917 -0.097039744 -0.049813952 -0.048351597
00000000: b643 37bd 455b 953d 3e5a 3f3e 74e0 4f3e
00000010: 5c72 a4bd b182 b7bd 1c93 583e 8488 053e
00000020: f3b1 b9bd fcd9 10be 5ab6 b23c 121d 89be
00000030: 7183 4ebd 1a43 bdbb 08a2 f8bd dede 10be
00000040: bc91 2a3e d206 16be 84ce cfbd dee4 213d
00000050: 82a0 743e 9e8d b13e 9612 b33d 5249 e7bd
00000060: 80eb acbb 4016 2ebc 3ee8 2fbd 0634 7b3d
00000070: 3393 993e 97f7 75be b753 8a3e 4db5 8abd
00000080: 4645 ac3e 0f4f 453d 310a 5b3d af0b b63d
00000090: b456 0d3e a2f7 ea3d c03a a7be 24da 523e
000000a0: f6ec 79be 11f5 493e e161 1abe d686 943d
000000b0: 8d82 42be 85e9 3cbe 0c7b 98bd 1560 44be
000000c0: a700 9cbd 7b7e 563d dd4d 42bd bdd5 1cbe
000000d0: 7137 aa3d 8821 a3bd fdde f7bb 610f 343c
000000e0: 6e7e c73d 6c9e 253e 7cea 8e3e 5a21 28bd
000000f0: 9ffb d4be 613c a03d 82b1 33b8 46e1 20be
00000100: f045 6abd 9d71 55bd 9802 c63c 0d63 243d
00000110: 230b 61bd 3817 81bc b169 34bd 480a 803c
00000120: dac1 803d db72 f83c 35e0 81bd a437 253d
00000130: f029 7ebd d5f9 a0bc 096e d73d b270 2a3d
00000140: d692 62bc b35c f9bb 50d0 73bd f377 843d
00000150: 3a9f c0bc fce3 1b3d 49a5 c9bc 27dc 9cbc
00000160: 0ba3 fd3c 27cd 8cbb e728 653d 3cf3 67ba
00000170: c2a2 8d3d 6484 55bc b518 71bd 7542 8fbd
00000180: 34ac fd3c ccf2 103c b447 0a3d eb53 cbbd
00000190: 9de3 5d3d c7c8 033d b58a 9a3d c434 043e
000001a0: dfe8 c0bd a20b 1dbd 7162 2bbc 19ba 9abd
000001b0: c306 01bc 621b 5abd 1dc4 bdbc a36b a03d
000001c0: 53a6 233d c769 21bd 1522 b73b 67bb 79bd
000001d0: d8ef 713d 6c7a 943c 5236 863d c110 b83c
000001e0: 8d3b e53c 953e 70bd 5b33 99bc ba67 98bd
000001f0: 54e2 973c c116 153c 98d8 b2bd 5e32 0e3d
00000200: 5da7 8c3d ea26 01be 6088 5cbd 1e57 0d3c
00000210: 9e0b 56bd d298 4bbd 3543 61bc 7d4c a2bd
00000220: a890 0cbd a7d3 753d 3967 9a3d 9b0d 8f3c
00000230: 5ea4 953d 5ad7 d6bc 5696 32bc 19a8 863c
00000240: fa99 003d 03dc a43d 082c ff3c 76e1 b5bd
00000250: 2c8c b9bc 406d c3bd 295a 2cbd c76b 83bd
00000260: 8cd3 b8bc 0d8f f13c ea8e aabc 167a 003c
00000270: 74db a7bc 33ed ffbb ad92 223a de01 5a3d
00000280: 4d35 f33b 2445 0dbd 3630 f9bc d53e 293d
00000290: db29 96bd b310 033d 29a6 f8bc 3320 713c
000002a0: feea 143d 2d13 80bb c188 243d c9cf 3bba
000002b0: 2d1a bebd 07c9 923c ab32 653d 0af8 283d
000002c0: df67 74bd 7c1d 0d3d 0fc1 a6bd dc89 b63c
000002d0: acb2 b2bc 81a5 5b3c 355a 10bd 4732 02be
000002e0: bd5d 133d 4e90 48bc 5523 753d 6cd1 9ebd
000002f0: 1ce9 0abd b971 83bc 9525 6f3d a9ce 10bd
00000300: 2502 7a3c 8976 1d3b 1db0 4d3b 96ca 13bc
00000310: 7dc5 2abd 45f4 74bd 03cc 44bd 8fc8 f03d
00000320: a71e 8abc 105f cb3d eda8 103e d811 1b3e
00000330: 8bcb 8abc 24e0 96b7 03ee abbd d245 d93c
00000340: 03c7 9f3d 9bda bb3d f5a2 85bd cf82 4fbe
00000350: 6ab1 853d f058 473d 78af 1bbc 461c 823d
00000360: ab14 83bd 2e8b 143c 42bf e4ba 1d8b b3bd
00000370: 7f10 0f3e e969 1b3d 8257 03bd 132e f83c
00000380: b31a c0bc 53bb 9bbd 81d8 dabd 2d00 f23d
00000390: 2faf b7bd cdcc 45bd b535 6abd 28dc efbc
000003a0: f9c4 063d 7425 0dbd a8a4 133d 421b 133d
000003b0: 2e04 acbd 32d0 cb3b 5244 433b 3e36 a33c
000003c0: 6e29 11bd 2244 023d bef2 ea3c 9818 76bd
000003d0: 44c7 ebbc 0e0d 5abd dc74 d1bd a2ea d0bc
000003e0: 5242 2abe ab86 c03d 5a05 ce3c 0c83 f2bd
000003f0: 229f 2a3c c6bc c6bd b709 4cbd 530c 46bd

embs.2.weight f4 [10, 64]
-0.11750889 0.018715523 -0.31500432 -0.12360465 0.0046877316 0.072255544 -0.09894389 0.14391653
0.05981397 0.11928009 -0.092378624 0.084354356 -0.15261915 -0.042074915 -0.25180298 0.069868885
0.002484611 -0.13421093 0.17597786 -0.014947678 0.04445469 -0.0332755 0.06260675 -0.044039793
-0.033758957 -0.029611737 0.067778625 -0.07337376 -0.121207066 -0.039380588 0.11454155 -0.046228513
0.14527264 0.07568664 -0.06548103 -0.1116023 0.008577059 0.17341638 -0.039348524 -0.041337084
-0.065428905 0.11166442 -0.062942274 0.07151522 0.090765364 0.17030865 0.0062816106 -0.06474104
0.11338946 -0.021009909 0.041119725 -0.18837836 0.08493638 0.09610916 0.05001707 0.039962195
0.024110682 0.013889386 -0.09965014 0.14359702 0.007102945 -0.05476836 0.14362112 -0.14531203
-0.077075034 -0.067528754 -0.022419624 -0.008289667 0.059945263 -0.044651877 0.09684265 0.030930614
0.04688404 -0.0061443774 0.0048088618 -0.13866581 -0.021530695 0.18486613 -0.01948957 0.06071506
-0.14168896 -0.023386039 0.024241729 -0.073997475 -0.083376616 -0.03613107 -0.07143925 0.021799589
0.11623968 0.03145279 -0.100945726 0.07427979 0.019481882 -0.08927321 0.032283418 0.027749103
0.05271715 -0.052142855 -0.019352727 -0.0068725203 0.010670629 0.0077256607 -0.04454269 -0.06814048
-0.01089996 0.058038045 -0.023387657 -0.061674405 -0.07250594 -0.028749313 -0.06524068 -0.0019623467
0.045221727 -0.039940517 -0.036897816 0.012809622 -0.054140106 -0.040663388 0.16523829 0.13958494
-0.098391585 0.05354857 0.014515573 0.17586048 0.05639378 -0.027094401 0.0002572827 0.046393424
0.035506293 -0.13301006 -0.20477302 -0.085400485 0.06753126 0.006376323 -0.0700673 0.05271064
0.054537795 0.035461396 0.10247897 0.04971522 -0.005045209 0.11439349 0.12018955 -0.098042674
-0.042284347 0.027263356 -0.03293906 -0.030966088 -0.057665374 0.021081042 -0.08964897 0.05448489
0.075086586 -0.08033888 -0.009249187 -0.20356078 -0.008814283 0.04442156 -0.06410453 0.03747678
-0.18228056 -0.13098456 -0.1958992 -0.096234 0.035493582 -0.08606471 -0.10716694 0.0062091188
-0.048076507 -0.08364589 -0.17712696 0.0479673 0.05075461 -0.029456848 0.055603564 -0.030649515
-0.023140335 -0.01947181 0.005287695 -0.08084332 0.04163267 -0.07763029 0.008936961 0.061852835
-0.09867198 0.09580655 -0.0101334425 0.05944754 0.11430464 -0.06401126 -0.10555584 0.04007025
-0.049896426 0.19255185 -0.047982108 -0.07247821 0.0036271033 0.05591148 -0.03232126 -0.02198786
-0.07913953 0.0013221218 -0.047250647 0.0063735573 -0.01613648 -0.086457044 0.091969505 0.07038026
-0.04379213 0.025974082 -0.036702223 0.021850334 -0.017899161 0.07960208 0.014864003 -0.05898086
0.028847788 0.16168615 -0.099662505 0.13171078 -0.048159137 0.13728073 -0.0043763355 -0.018572692
-0.033706706 -0.07320647 0.019592216 -0.009277876 0.039456543 -0.074607715 0.09086443 0.104301125
-0.05951268 0.07728242 -0.11709653 -0.027621498 0.048439942 -0.08860527 0.019231683 -0.148207
-0.07080988 0.08076914 0.12815116 -0.005480588 0.004098434 0.024903925 -0.038945995 -0.13614279
-0.0023778519 -0.037132483 0.04664603 -0.07055103 -0.12155811 0.06326592 -0.010388054 -0.08037023
00000000: 80a8 f0bd 4c51 993c 3f48 a1be 6f24 fdbd
00000010: 8b9b 993b b7fa 933d 18a3 cabd db5e 133e
00000020: 7eff 743d 1f49 f43d 0131 bdbd fac1 ac3d
00000030: 3248 1cbe bf56 2cbd 52ec 80be 6b17 8f3d
00000040: dbd4 223b 976e 09be 8a33 343e 1be7 74bc
00000050: 1f16 363d e44b 08bd f837 803d 1263 34bd
00000060: d546 0abd 5094 f2bc 85cf 8a3d fb44 96bd
00000070: 693b f8bd 8a4d 21bd c394 ea3d 1c5a 3dbd
00000080: 5ac2 143e 9901 9b3d eb1a 86bd bf8f e4bd
00000090: cb86 0c3c 1094 313e eb2b 21bd 1351 29bd
000000a0: 97ff 85bd 51b0 e43d e1e7 80bd 9276 923d
000000b0: 31e3 b93d 6465 2e3e f8d5 cd3b f396 84bd
000000c0: bc38 e83d f91c acbc 286d 283d 42e6 40be
000000d0: 20f3 ad3d e1d4 c43d b3de 4c3d 66af 233d
000000e0: c483 c53c 4f90 633c 5f15 ccbd 190b 133e
000000f0: d2bf e83b ca54 60bd 6a11 133e adcc 14be
00000100: 84d9 9dbd 844c 8abd 5ca9 b7bc 62d1 07bc
00000110: 2a89 753d e3e4 36bd 7055 c63d 3362 fd3c
00000120: 7b09 403d c656 c9bb a893 9d3b 69fe 0dbe
00000130: 2461 b0bc 8c4d 3d3e 97a8 9fbc 5bb0 783d
00000140: e916 11be 1494 bfbc 9796 c63c fd8b 97bd
00000150: 5cc1 aabd 2cfe 13bd be4e 92bd 0d95 b23c
00000160: 120f ee3d a4d4 003d a2bc cebd 0120 983d
00000170: 7898 9f3c dfd4 b6bd 9e3b 043d 1652 e33c
00000180: f0ed 573d bf93 55bd 9c89 9ebc e132 e1bb
00000190: ddd3 2e3c 8a27 fd3b 6572 36bd 3c8d 8bbd
000001a0: bf95 32bc 4db9 6d3d 7997 bfbc 4d9e 7cbd
000001b0: ff7d 94bd ae83 ebbc e89c 85bd b79a 00bb
000001c0: 6b3a 393d ab98 23bd 2a22 17bd 73df 513c
000001d0: 04c2 5dbd a78e 26bd 3a34 293e 5bef 0e3e
000001e0: 8781 c9bd bf55 5b3d bad2 6d3c c514 343e
000001f0: 2afd 663d 14f5 ddbc e6e3 8639 0807 3e3d
00000200: 0c6f 113d ca33 08be 05b0 51be 73e6 aebd
00000210: d44d 8a3d 79f0 d03b 727f 8fbd 1de7 573d
00000220: 0663 5f3d f83f 113d 7fe0 d13d 30a2 4b3d
00000230: 4852 a5bb 2247 ea3d f025 f63d 99ca c8bd
00000240: 5a32 2dbd 6757 df3c 1ceb 06bd 98ac fdbc
00000250: 8732 6cbd 26b2 ac3c e199 b7bd 8c2b 5f3d
00000260: ffc6 993d b688 a4bd e789 17bc 3d72 50be
00000270: c869 10bc 62f3 353d 3c49 83bd 4181 193d
00000280: c1a7 3abe d120 06be cd99 48be 5516 c5bd
00000290: b861 113d b242 b0bd 577a dbbd dd75 cb3b
000002a0: dfeb 44bd 894e abbd c560 35be 5c79 443d
000002b0: 11e4 4f3d 7d4f f1bc 90c0 633d b114 fbbc
000002c0: cd90 bdbc 5883 9fbc 6744 ad3b 2f91 a5bd
000002d0: 0587 2a3d a1fc 9ebd 556c 123c 6659 7d3d
000002e0: 8914 cabd 3936 c43d bd06 26bc 447f 733d
000002f0: 8d18 ea3d 5618 83bd a92d d8bd b420 243d
00000300: 3260 4cbd 502c 453e e388 44bd 756f 94bd
00000310: b2b4 6d3b 7003 653d 4c63 04bd e21f b4bc
00000320: e813 a2bd 0c4b ad3a e589 41bd 46d9 d03b
00000330: a730 84bc 6410 b1bd 825a bc3d 8723 903d
00000340: 605f 33bd 99c7 d43c 1255 16bd 79ff b23c
00000350: 43a1 92bc 6a06 a33d 2688 733c ea95 71bd
00000360: 3252 ec3c 0e91 253e db1b ccbd 31df 063e
00000370: 8442 45bd 5293 0c3e 5d67 8fbb c225 98bc
00000380: 0b10 0abd 46ed 95bd db7f a03c 3b02 18bc
00000390: 2f9d 213d eecb 98bd 2117 ba3d d49b d53d
000003a0: 91c3 73bd 3f46 9e3d 4ed0 efbd 7b46 e2bc
000003b0: f668 463d ae76 b5bd c38b 9d3c 93c3 17be
000003c0: c504 91bd 4a6a a53d 0f3a 033e 8196 b3bb
000003d0: 284c 863b 5103 cc3c d685 1fbd 0469 0bbe
000003e0: bcd5 1bbb 3b18 18bd e80f 3f3d 0f7d 90bd
000003f0: 75f3 f8bd 9091 813d a832 2abc 2699 a4bd
