models/trained_to_ref_1.pth (torch, 309399 bytes, 5 tensors)

biases.0 f4 [400]
00000000: 9673 fabc 141c a7bc 6d3b 0fbc f935 45bd
00000010: 9b94 b6bc c355 1dbd 65b7 7d3c 5a45 4abd
00000020: 8a24 773b 5ec8 efbc 5390 953b 6450 f0bc
00000030: c3ac 2bbd ba75 193a 742b fe3b f261 02bc
00000040: 4227 b73c 1684 0b3c 278d 1abc 1b58 d6bc
00000050: f368 c0ba 90ec 04bc 5f25 843c ea9a 14bc
00000060: 39ac 1f3d 20af 2b3c 909e 1cbd c054 a0bc
00000070: 5922 f43b e0f6 1abc c8ca 30bb be15 8bbb
00000080: deb1 5f39 c538 b7bc ecf3 42bb 21e1 bcbb
00000090: 76ff 19bd a5b3 fbba 5da1 173a cd9d 98bd
000000a0: 6453 01bd 679a a7bc 9852 98bb eae2 0fbd
000000b0: 4b70 0fbc d30d 0dbd f413 0fbd 853f 873c
000000c0: 6b0d 16ba 8aeb 74bc c671 1abd 46ba 1abc
000000d0: a1b4 55b9 4e13 5cbc 36fc 3b3b b3ac 51bc
000000e0: 441d 95bc 8942 c9bb e839 a5bc c1b5 aabb
000000f0: 4360 9cbc 7b18 f6bc 2d34 a8b9 ce2b a0bd
00000100: df56 ae3b cc25 93bc 5442 9a3c 50ce a4bb
00000110: 5467 fa3c 4398 17bc b23b 75ba fafe 00bd
00000120: af21 01bd 4324 583c d65a e1bc fd47 9bbc
00000130: c07d 9bbc 01b3 d9bc ac50 a8bc 56ef 0fbd
00000140: 19a7 9a3c 8bd4 2bbc 81c1 193c 762c 4ebc
00000150: 683a 35bd 1840 06bd 9947 adbc eeb4 b6bb
00000160: b140 5cbb 88c8 eabc 2e94 69bb 3ec3 d13b
00000170: b46b 3abd edfe 57bc 50bf a0bc cc16 6a3c
00000180: d49b 19bb 5631 58bc 014e d2bc 0ed9 5a3c
00000190: a667 1fbc 056e 9dbc 2e1c 98bc 4ec1 dbbc
000001a0: 1812 40bc 081a bcbc b519 bdbc e2fb cbbb
000001b0: fe52 963c a6db 43bb d4e5 903c ffb3 15bd
000001c0: 3151 43bb 20b4 e6bc 0e45 3ebd 920f 3bbc
000001d0: e791 18bd 93c0 16bc 9abd 9abb 1ebf 65b9
000001e0: deb7 113c f880 cc3c 6d1d ffbb 7ee6 41bb
000001f0: 05ea ec3c af4f 22bc 0ad4 7bbb 9fec b2bb
00000200: 11fd 603c 5e51 a73c 6724 2b3c eec6 cc3c
00000210: d49e 07bd 6f54 6aba ecdc 97bb 38a6 ccbc
00000220: d1b0 c43b 71b2 81bc f994 acbc 2905 18bd
00000230: fe0d 013c 02c4 c63c 1bb2 1abd 791a 2bbb
00000240: 60d6 1c38 18bc bbbc 4499 8f3a 744e 2abd
00000250: 8328 653c 6b3f d42d 2e96 d4bc 2ec2 4e3c
00000260: 87a6 cbbc a383 81bc 6538 20bc 5555 a93a
00000270: 9247 4cbc b860 a0bc 6b47 5dbd 82f7 7abc
00000280: 4386 5fbb f2a3 f23b f05f bebc dce0 843c
00000290: c689 9bbc e5fb 46bc a402 b0bc d943 933c
000002a0: d9ab 323c 2907 12bd 0aca 77bb 07b0 84bc
000002b0: 44e7 4636 64cb 27bd d1bb 843b 9038 83bc
000002c0: 670f 203d 9986 06bd a452 e03b 6894 77bc
000002d0: a4a6 053b 53fd 18bd 5698 69bb 7b7b 8d3b
000002e0: 0897 023c e6ad 48bd 8a2c 2038 f647 4b3c
000002f0: 4d13 b03a bba3 2fbd 6ec2 eabc 9b83 b3bb
00000300: 3590 ab3c af90 d0bc 9eeb d53c cb81 17bd
00000310: 94ee 3ebd 99e7 ccbb 0169 8a3c 3301 923c
00000320: 6b38 ecbb e406 c3bc 43f2 41bd 0bf6 ae3b
00000330: 0446 db3c 6f09 e0bc 7ec0 debc 52fb 423b
00000340: 5651 e53b 1206 2e3c b0fd bfbc 4aeb 9dbc
00000350: 5d14 a438 1325 49bb e8ad 6b3c 19fc 123b
00000360: f62c edbc b33f a4bc 9360 273c 9050 2f3c
00000370: d2ac a9bb e121 3fbd 00ba 2fbd 8fac 8ebb
00000380: 767b 9f3c aac9 2abd 4de0 97bb 4781 023d
00000390: 5f55 4cbb 3c8a 8c3a 368f 663c 8651 6fbc
000003a0: 90ca b6bb 8001 a2bc 249f 04bd a4e5 edbc
000003b0: d11e 15bd a34d 96bc d658 b33b db3a c43c
000003c0: 12e7 223d 4592 983c 3dd4 15bd 2bbc 783c
000003d0: 524a ffbc eaab 87bb badd cfbb d5a4 543c
000003e0: 0bb2 dbbc 1464 abbb dc9d 023c f222 6dbb
000003f0: b22b 163b 0dbf 84bc b2c7 c53c d38d 82bc
-0.030572694 -0.02039913 -0.008742196 -0.048147175 -0.022287657 -0.038411867 0.015485619 -0.049382545
0.0037710988 -0.029270347 0.004564324 -0.029335208 -0.041912805 0.00058540294 0.007756645 -0.007957922
0.022357587 0.008515378 -0.009433067 -0.026165059 -0.0014679715 -0.0081130415 0.016131101 -0.0090701375
0.038982604 0.010478765 -0.038237154 -0.019571662 0.0074503836 -0.009458274 -0.0026976336 -0.004244535
0.00021333198 -0.022365937 -0.002974744 -0.005764142 -0.037597142 -0.0019203319 0.0005784238 -0.07451973
-0.031573668 -0.020459367 -0.004648518 -0.03512851 -0.0087548 -0.034437012 -0.03493114 0.01650978
-0.00057240453 -0.014948735 -0.03770616 -0.009443825 -0.00020380552 -0.013432337 0.0028684265 -0.012797522
-0.018202431 -0.006141965 -0.020169213 -0.005209655 -0.01908887 -0.03004097 -0.0003208233 -0.07820855
0.0053204144 -0.017962359 0.018830456 -0.005029477 0.030566849 -0.009252611 -0.00093549036 -0.031493165
-0.031526264 0.013192239 -0.027509134 -0.018955225 -0.01898086 -0.026574614 -0.02054628 -0.035140358
0.018878506 -0.010487686 0.009384514 -0.0125838425 -0.044245154 -0.03277597 -0.021152304 -0.0055757677
-0.0033607895 -0.028660074 -0.00356413 0.0064014485 -0.04551287 -0.013183338 -0.019622475 0.014287662
-0.0023438828 -0.013195356 -0.02567196 0.013357414 -0.009729302 -0.0192175 -0.018568125 -0.026825573
-0.011723064 -0.022961631 -0.023083547 -0.006225095 0.01835012 -0.002988556 0.017687716 -0.03654861
-0.0029803033 -0.028162062 -0.046452574 -0.0114172865 -0.03724852 -0.009201187 -0.0047223093 -0.00021910339
0.008893935 0.02496384 -0.0077854902 -0.0029586847 0.028920183 -0.009906693 -0.0038425946 -0.0054603363
0.013732211 0.020424541 0.010445691 0.0249972 -0.033110455 -0.0008938973 -0.0046344902 -0.024981603
0.0060025235 -0.015832158 -0.02106713 -0.037114296 0.007876871 0.024263386 -0.03776751 -0.0026108308
3.739295e-05 -0.022916839 0.0010955711 -0.041578725 0.0139867095 2.4129773e-11 -0.025950518 0.012619538
-0.02485968 -0.01580984 -0.0097790705 0.0012919108 -0.012468236 -0.01957737 -0.054023188 -0.0153177995
-0.0034107126 0.0074047977 -0.023239106 0.016220503 -0.018986594 -0.012145017 -0.021485634 0.017976688
0.0109052295 -0.03565136 -0.0037809634 -0.016197218 2.9638913e-06 -0.040965453 0.00405071 -0.016018182
0.03907719 -0.032843206 0.006845789 -0.015111066 0.0020393515 -0.037350964 -0.0035643778 0.0043176985
0.007970579 -0.048993967 3.8188453e-05 0.012407294 0.0013433486 -0.042880755 -0.028657164 -0.005478335
0.020942787 -0.025459616 0.026113328 -0.036989015 -0.046614245 -0.0062531945 0.016895773 0.017822837
-0.007208874 -0.023806997 -0.04735018 0.005339389 0.026766784 -0.027348248 -0.027191397 0.002975185
0.0069982214 0.010621564 -0.023436397 -0.019277234 7.823922e-05 -0.0030692264 0.014384724 0.0022428094
-0.028952103 -0.020049905 0.010215896 0.01070036 -0.0051780725 -0.04666317 -0.042901993 -0.0043540667
0.01946805 -0.041696228 -0.004634893 0.03186157 -0.0031178815 0.0010722349 0.01407223 -0.014606839
-0.0055783466 -0.019776106 -0.03237833 -0.029040165 -0.036406342 -0.018347567 0.0054732366 0.023953846
0.039771147 0.018624434 -0.03657936 0.0151815815 -0.031163368 -0.004140367 -0.0063435705 0.012978752
-0.026818296 -0.005230436 0.007972207 -0.003618416 0.0022914228 -0.016204381 0.024143074 -0.015936768

biases.1 f4 [10]
00000000: ea97 ebbb 868d e6bd f0e9 6cbd 71bd 4f3d
00000010: dcaa 953c 2bf7 b43b ae2a 65bd 9926 e1bc
00000020: 5b4c 1c3e 09c7 043b
-0.0071897404 -0.11257462 -0.057840288 0.050717775 0.018269949 0.005522629 -0.055948906 -0.027484225
0.15263502 0.0020260236

embs.0.weight f4 [784, 64]
00000000: 8ff6 023d d420 7fbb dca8 5cbc f847 e33b
00000010: cbc3 f53c 396e 933c dc57 833c 93ae 26bd
00000020: 6489 693c c323 15bc 2eed f43c 57ca 8b3a
00000030: 5f9e 6b3c ee30 4cbc 03e9 47bc 7d6c 64bd
00000040: 221e d7bb 6383 04bc 2582 5e3d 5a40 b7bb
00000050: e9f1 403d 1f1a 063d 6245 7c3b 54e9 13bd
00000060: 81c6 0e3c 4e47 e83c 9f5c dd3b 92a2 33bd
00000070: 2dbd 3f3d d334 89bc 25e7 c2bb 22df 203d
00000080: b4c9 a33c 8a19 d63c be70 2339 e552 22bc
00000090: 8f16 c03c 905f d23c b4e7 1abc d349 113c
000000a0: 9a7e 8f3c ad2f 8b3c 87bc 013c 0295 8e3c
000000b0: 2b45 8bbc 113d 343c 266a cfba c820 ab3c
000000c0: 87ee f53c 697f 253c 6fb9 36bd da73 9e3c
000000d0: e999 0cbb e1ef 0b3c 5248 763b fce7 40bd
000000e0: 8a68 fc3c bca0 783d 4cea 24bc 05d3 a9bb
000000f0: 6f4d 713c 5091 e83c 86ca 0abd 2d12 d8bb
00000100: 9740 443c 9392 803c c152 79bc f70f a53c
00000110: 417f c03c 2f04 ce3c 43cc c93c a7ac 2ebc
00000120: 5a35 293d f48b bbbc 6490 c93c 70e7 acbc
00000130: 9339 413c 4dce c3bc edad 4aba e032 51bd
00000140: 2879 97bc 8fe0 38bc 68f8 4d3d 58c0 89bc
00000150: e187 813d 6177 11bb c80e 41bc 6785 a3bc
00000160: 4190 1b3d e84e f23c 6610 09bd 1b91 5cbc
00000170: 8ccf ce3c bb2a 093a 26f6 d5bc 117d 563d
00000180: 987c c73a 75ae a03c c668 ff3c b5b3 be3b
00000190: fb4b 283d f40c 193c 501b 2c3c 96bb d2bc
000001a0: 817f 573c f5c5 07bc c7d2 fe3b 3b2b 543c
000001b0: a507 923b 9ba0 57bb f76d 753a 5b1e d03c
000001c0: 629b 023d fb48 c239 b948 bfbc edfd feba
000001d0: 849e fc39 4111 a83c ff5b 9f3c 2ee8 59bc
000001e0: bad5 593d 8693 253d bae5 b2bb dbc2 d23a
000001f0: 57c9 a43c c3d5 d73b 6608 1cbd 2455 88bb
00000200: 3998 cf3c 641f b63c d648 733c d0f1 e2bc
00000210: 009b 3e3d 74bb b93c 93b6 12bc 2e6e 31bd
00000220: 6610 b03c edbf 9dbc 37fd da3c 95c5 453c
00000230: e5ca 3a3c 8f1b c4bc 96c7 64bb 1ebb c9bc
00000240: 94a7 98bc b415 81bc a2f0 613d 9dfb 4fbc
00000250: decf 1b3d a002 2cbc b1e5 0cbc e8ce 11bd
00000260: 15cd 853b 329c b83c 8aca 60bc 5a64 b6bc
00000270: ab9c 973c 4877 32bd cb21 c1bb 0090 143d
00000280: 395d dd3b 6634 083d 8e76 1d3c b18b afbc
00000290: a09f fb3c e721 0fbb ad4a 05bc a257 39bc
000002a0: 936b 253c 393a dc3c dada 233c 563f d83c
000002b0: 7a25 25bc 058f 933c c1c9 a43c 9dd2 0e3b
000002c0: decc 563c 1f76 863c cf40 33bd 4b76 543b
000002d0: 05b4 49bc 3867 223c ff83 a43a f045 d5bc
000002e0: a3db 2a3d 9e3d 1b3d 500b d23c bee9 a23c
000002f0: f0c2 0f3d b8e1 783c 2a23 06bd f970 a53c
00000300: 4715 003d 07bb cd3b ea7c 0abc 2130 273c
00000310: 4ba6 c83c e093 5c3b bd5e 833b b648 d0bc
00000320: 0aa9 f33c eca5 003c 6f4c 26bc efec 3cbd
00000330: 5c54 18bc 31cf 2bbd d4ea 17bb 3858 4cbd
00000340: caa9 f0bb eb97 ad3b 1d0e 703d 105d 45bc
00000350: 1af8 6e3d 3cbf 1a3c a7a7 8b3c 08a9 2ebd
00000360: 19cf 4eba 6c1f 0a3c aa52 88bc 21db 063b
00000370: e6fd c13c cc09 08bd c94e ceb9 8819 513d
00000380: ad33 853c 2b6b 613d 51f8 7d3c c8bf 9dbc
00000390: f290 8e3c 948a 263d 83e0 2638 f3f0 b33b
000003a0: 2b80 f43c b010 0e3d 07d3 833c ea20 4b3c
000003b0: 9f94 30bd 6954 863c 5820 673c 34d7 45bc
000003c0: a2f1 973c b7cb 6f3b a5e3 18bd 70f3 ef3c
000003d0: 954f 9dbb d819 813c a05a 103c 9689 47bd
000003e0: 8709 0b3d c968 4e3d 2b0b 1d3c 6e0e 7fbc
000003f0: 585c 5f3b b050 513d b81e 20bd 4fc4 bd3c
0.031973418 -0.003892948 -0.013467994 0.0069360696 0.030000588 0.017996894 0.016033106 -0.04069383
0.014253948 -0.009102765 0.029898252 0.001066516 0.01438102 -0.012462838 -0.01220155 -0.055767525
-0.0065648714 -0.008087966 0.054323334 -0.005592388 0.047105704 0.032739755 0.0038493504 -0.03611119
0.008714319 0.028354313 0.006755426 -0.04385621 0.04681127 -0.016748821 -0.0059479647 0.039275296
0.01999364 0.026135225 0.00015586891 -0.009907459 0.023448257 0.025680333 -0.009454656 0.008867699
0.017516423 0.016990507 0.007918484 0.017405037 -0.017000755 0.0110008875 -0.0015824481 0.020889655
0.030020965 0.010101178 -0.044610437 0.019342352 -0.0021454042 0.008541078 0.0037579727 -0.047096238
0.030811567 0.060700163 -0.010065626 -0.005182626 0.014727934 0.028389603 -0.033884548 -0.0065939636
0.01197829 0.015694892 -0.015217484 0.020149214 0.02349818 0.02514848 0.024633532 -0.010661281
0.041310646 -0.022893883 0.024604984 -0.021106452 0.011793512 -0.023902083 -0.00077316054 -0.05107391
-0.018490389 -0.011284008 0.050285727 -0.01681535 0.06324745 -0.00221964 -0.011783309 -0.019961072
0.037979368 0.029578641 -0.033462904 -0.01346233 0.02524545 0.00052325026 -0.02611835 0.052365366
0.0015219627 0.019614438 0.03117789 0.0058197626 0.041088086 0.009341467 0.010504559 -0.025724214
0.013152958 -0.008286943 0.0077765915 0.01294976 0.0044564777 -0.0032902125 0.00093623943 0.0254051
0.031886466 0.00037056938 -0.023350107 -0.0019454338 0.0004818329 0.02051604 0.019453047 -0.013299985
0.05318234 0.040423892 -0.0054595144 0.00160798 0.020115538 0.0065867617 -0.038093947 -0.00416054
0.02534114 0.022231765 0.014848908 -0.027703196 0.04653454 0.022672392 -0.008954662 -0.043317966
0.021492194 -0.019256556 0.02673207 0.012071033 0.011400913 -0.023938922 -0.0034909002 -0.024625357
-0.018634595 -0.01575742 0.055161126 -0.012694267 0.038040034 -0.010498673 -0.008599685 -0.03559771
0.0040832856 0.022535417 -0.013720164 -0.022264648 0.018507322 -0.043570787 -0.005893921 0.03627014
0.006755498 0.033253096 0.009610785 -0.021428915 0.030715764 -0.0021840276 -0.00813548 -0.011312397
0.0100964485 0.026883231 0.010000909 0.026397388 -0.010079736 0.018012533 0.020115735 0.0021793016
0.013110368 0.016413746 -0.04376298 0.003241914 -0.012310986 0.009912305 0.0012551545 -0.026034325
0.04171337 0.03790056 0.02564016 0.019886848 0.035098016 0.015190534 -0.03274838 0.020195471
0.03127029 0.006278399 -0.008452633 0.010204346 0.024493357 0.0033657476 0.0040090964 -0.025425296
0.02974369 0.007852059 -0.010150059 -0.046124395 -0.009297457 -0.04194564 -0.002318074 -0.04988882
-0.007344459 0.005297651 0.05860721 -0.012046114 0.058342077 0.009445008 0.017047716 -0.04264167
-0.00078891363 0.008430343 -0.01664098 0.0020577388 0.023680639 -0.033212468 -0.0003935008 0.05104974
0.016259992 0.055033844 0.015501098 -0.019256487 0.0174031 0.040659502 3.9786577e-05 0.00549137
0.029846271 0.034683883 0.016091837 0.012397984 -0.043110486 0.016397672 0.014106832 -0.012075234
0.018547837 0.003658993 -0.037326474 0.029290885 -0.0048007467 0.015759394 0.008810669 -0.048715197
0.033944633 0.0503929 0.009585182 -0.015567405 0.003408214 0.05110234 -0.039091796 0.023164896

embs.1.weight f4 [400, 64]
00000000: 9fc1 f13d ab1e 16bc 3022 993d 61bb adbb
00000010: 405f 39bd 8995 1b3e 1f53 edbb feb6 95bd
00000020: 0ca5 f03d 4ae4 46be 81ac 473e 2061 fabd
00000030: d29c fa3b adef 4abe e253 65bd 7a12 27bd
00000040: 0742 f4bc f065 5abd ea62 d8bd 2032 b1bc
00000050: c734 a33d 4fa3 c43c 49ec 7f3d 8d2b a8bc
00000060: 66f0 e63d 44a5 bdbd 3fae dabc cb7b 7ebb
00000070: 52e7 883b bd3e 1bbe 9ba5 f53c fa2c 50bd
00000080: 1a36 3e3e 0105 243d 8d81 c93c 933e 3dbe
00000090: 2ca2 273e ec8e 01be b0d4 5fbd 3d19 823c
000000a0: e260 5f3d 6f85 6e3d c598 8abd 6d28 813c
000000b0: 4fba 363d 5ce4 053e 5eb0 733d 172d f5bd
000000c0: b5b1 a43c 9f12 33be 55ab 773c 6a7c 013e
000000d0: a5b2 383e e2d3 92bc 8db1 003d cc0e ec3d
000000e0: 73e8 8c3c 09c1 87bd 828a a3bc f0a2 2bbd
000000f0: ce6c a63d cc64 7e3e 8bb7 613d 6c9f c0bd
00000100: 84a6 8ebd cc38 09bd 952a 8b3e e7eb 273e
00000110: f54f 073d 69e4 3fbc 57d1 7cbc 5d98 dc3c
00000120: 9b78 78bd 0510 5a3c 316f 5bbe c909 b73e
00000130: 435e 32be 5f3d e63d d560 1bbb 5448 63be
00000140: 64e8 bdbd 03ef 50bd d46c 743d b2ee 2d3e
00000150: f23a 72be 42d8 963d 29e7 e2bc 68f3 e33d
00000160: 5cbe 523d 6d4a bdbd 3702 07bd cbbc d2be
00000170: 15be 40bc dc66 4cbe 98b7 7a3c ca20 9fbd
00000180: 3998 7c3d 4994 483e 7961 de3b 9331 dabd
00000190: 082f 133e bbf7 023e a713 253e 9907 10be
000001a0: babe 903d 5f44 35bd f12e e93d d498 16bd
000001b0: 0b5d ccbd b7ec 333e 90c0 a3be f5ed 103e
000001c0: c307 283d 95f6 c2bd dd42 633d ad58 ee3c
000001d0: 3efd 09be d55a 9fbd 7039 4dbe 1081 01be
000001e0: 44e8 59bc 3834 93bc 8c73 313e 200a cfbd
000001f0: 88e5 28bc 81f9 edbd 2630 fb3d 3454 62bb
00000200: d137 9bbc d69b 9abc 6a58 acbc 2b94 2dbc
00000210: b7ee 76bc 8bc4 52bd cf75 adbc 351d ecbd
00000220: cc6f 43bd bd39 8e3d 8ca8 9fbd 7f53 0fbc
00000230: b4dc acbd e243 01bc 74ca 47bd 684f 163d
00000240: ec04 623c 86c1 91bc e26e b03c 76f0 8bbb
00000250: 1409 863d aeca 4cbd cd3b e7bc 3c34 f9bc
00000260: 8192 1d3c bc44 64bc 8808 4dbd 9513 81bd
00000270: ff86 56bd 9732 c3bc b71b 07be 6129 00bd
00000280: 43be feba e4a0 2b3e 75b5 9bba 4b3c 6d3a
00000290: caa9 e6bb 0032 19bd 793e 363c 3c5f 9dbc
000002a0: a15c 8e3d cad5 1e3d 58d6 093e b125 94bd
000002b0: f3f4 a33d e5f2 5c3d ed90 8b3d b0a7 4c3d
000002c0: a2df be3d f9c0 57bc df8a 88bc c81c 73bd
000002d0: f6f3 f13d 21db 993d ecc0 0f3d 4861 a8bd
000002e0: 0281 133d bb5c 453d 152c aa3c 0e07 4d3c
000002f0: f4c2 053c 47f5 133d c4a1 05bc 7617 943c
00000300: 95ba b23d c960 c0bc cf45 dcbd 2dac 6fbe
00000310: 90fe 56bc 32ba 81bc 5e1b b23d a50c 13be
00000320: d523 40be 0d55 883d de18 60bc 183d d6ba
00000330: d120 8a3e fd3c 723e 6121 e03c f1fc abbc
00000340: 4a39 3dbe 1b0a 3d3e 49b1 ebbd 046d 2b3e
00000350: 406d 303e 297b 083d e430 89bd 1f53 be3c
00000360: c304 c43d dee3 fc3c 229f 593d c28f 12be
00000370: e05d d83d 6f99 7abe 0f39 e13d 739c c93b
00000380: b430 023e e874 2f3e 32d6 f93d 21bb 5d3e
00000390: be79 a3bd eb2f ab3c 502a 863e 9eaf 24be
000003a0: b7c2 1c3e 38a3 8e3d 0dd5 99bd 93c9 59bd
000003b0: 52d1 1cbe 3fbc a33e c709 16be 23f2 60be
000003c0: 6343 afbd 7d68 5a3d 9f32 fe3d b5c0 443c
000003d0: ff9d c23d 8530 f1be f650 0c3e 9d4c f63c
000003e0: d1d4 43bc 184e 463e 71b7 063e d250 debc
000003f0: 3950 ab3c 8f41 1ebe 081a 753d 99e7 e9bc
0.118045084 -0.009162585 0.07477224 -0.0053018783 -0.045256853 0.15193762 -0.007242575 -0.073102936
0.1175023 -0.19423023 0.19499399 -0.122255564 0.007648089 -0.19817992 -0.0559882 -0.040789105
-0.02981664 -0.05331987 -0.10565741 -0.021630347 0.07969051 0.024003653 0.0624812 -0.02052858
0.11276321 -0.092600375 -0.026694415 -0.003883111 0.004177966 -0.15160652 0.029986193 -0.050824143
0.18575326 0.040043835 0.024597907 -0.18480901 0.16370457 -0.12652177 -0.054646194 0.015881175
0.054535754 0.05823272 -0.0676742 0.015766347 0.04461127 0.13075393 0.05949437 -0.11971491
0.020104269 -0.17487572 0.015116532 0.12645116 0.18036897 -0.0179233 0.031419326 0.1152626
0.017200684 -0.066286154 -0.019963507 -0.041903436 0.081262216 0.24843138 0.05510668 -0.09405407
-0.06965354 -0.03350143 0.27180925 0.16398583 0.033035237 -0.011712172 -0.01543077 0.026928121
-0.060661893 0.013309483 -0.21429135 0.35749653 -0.1741877 0.11242174 -0.002370884 -0.2219556
-0.092728406 -0.05100919 0.0596741 0.16985586 -0.23655298 0.07365467 -0.027698116 0.111304104
0.051451072 -0.09242711 -0.032961097 -0.41159663 -0.011764069 -0.19961113 0.015302561 -0.07769926
0.06166861 0.19587816 0.006786522 -0.10653987 0.1437341 0.12789814 0.16120778 -0.14065398
0.07067628 -0.044254657 0.113859065 -0.036766842 -0.09978684 0.17570768 -0.3198285 0.14153273
0.041023027 -0.09519688 0.055483688 0.029095018 -0.1347551 -0.07780997 -0.20041442 -0.1264689
-0.013300005 -0.017969236 0.17329234 -0.10109353 -0.010308631 -0.11619855 0.12265043 -0.0034535052
-0.018947514 -0.018873136 -0.021038253 -0.010594408 -0.0150715625 -0.05145697 -0.02117434 -0.11529008
-0.04771404 0.069446065 -0.0779582 -0.008747934 -0.08440533 -0.00788972 -0.04877706 0.03669682
0.013795119 -0.017792474 0.021537248 -0.0042706085 0.065447 -0.049997978 -0.028226757 -0.030420415
0.009617449 -0.013932403 -0.050056964 -0.06302563 -0.052374836 -0.023827834 -0.13194166 -0.031289462
-0.0019435365 0.16760594 -0.001187964 0.0009049817 -0.0070392834 -0.0374012 0.011123293 -0.01921045
0.06951261 0.038778104 0.13460672 -0.072337516 0.08005705 0.05394258 0.06814752 0.049964607
0.09319998 -0.013168567 -0.016667781 -0.05935362 0.1181411 0.07512499 0.035096094 -0.0822168
0.036011703 0.048184138 0.020772973 0.012513889 0.008164156 0.036122587 -0.008156244 0.018077593
0.08726994 -0.02348365 -0.107555024 -0.23405524 -0.013122216 -0.015835855 0.08696626 -0.14360292
-0.18763669 0.06656847 -0.013677804 -0.0016345112 0.26978162 0.23656078 0.027359666 -0.020994635
-0.18478885 0.18460886 -0.11508424 0.16740805 0.17229176 0.03332058 -0.06698778 0.023232995
0.09571221 0.030870374 0.053130277 -0.14312652 0.1056478 -0.24472593 0.10997211 0.0061526834
0.12713891 0.1713444 0.12199058 0.21653415 -0.07982205 0.020896873 0.26204157 -0.16082618
0.15308653 0.06964725 -0.07511339 -0.05317075 -0.15314224 0.31979558 -0.14652167 -0.21967368
-0.08557775 0.053322304 0.12411999 0.012008836 0.095027916 -0.4710733 0.13702759 0.030065829
-0.011952595 0.19365728 0.13155915 -0.027138148 0.020912277 -0.15454696 0.05983928 -0.028552817

embs.2.weight f4 [10, 64]
00000000: 94fa 9cbd 5cfd 203e 032f 0b3e 03d1 c0bd
00000010: df08 293d 8b18 c1bd 166a a63d 6005 623e
00000020: abd1 693e 8e36 f1ba 407c 34be 98fa 29be
00000030: 4999 643d f7fa f1bd 69b9 833e f170 44bd
00000040: 347f d3bd bd0f 3b3e 42b0 353e f1f5 43be
00000050: baeb b83d 6190 f6bd 0c8b b3bb dde6 ed3d
00000060: 92a5 2abe 0611 02bd 3450 dfbd 3d1b 4a3e
00000070: fcf0 7b3e d96e 4e3e 7c7f bdbd a732 a43e
00000080: 6253 9bbe 84e9 13be e9f5 633e bec0 913d
00000090: c0fd c2bd 600a 49be 7697 833e 6da6 7d3d
000000a0: 489e d7bc df2e 513e 0aaf 643d 47c3 55be
000000b0: 0197 ee3c df16 a73d d21a 40be 43d1 9cbc
000000c0: e7a7 afbc f7e4 2bbe 66a1 a63d e302 b93d
000000d0: 4b70 0abe 551f 1cbd 04c9 fdbd 714b 4e3d
000000e0: eade 763b ea0a d2bc ee09 2abe e339 333e
000000f0: cf1c 26be 8772 3fbe 628c 573e f9b6 a9bd
00000100: c122 6d3c 8fef 513e 0a14 7e3d 8131 3bbe
00000110: de0d 49be 0658 743e 934e cfbd f125 553a
00000120: c551 483e 3df2 9b3c fa62 803d e844 a83d
00000130: b670 0e3e 05ab 3e3e 2d75 32be 7aa0 0bbd
00000140: 5c4c fe3d b24c 843c 29aa ef3b 2dac 9d3e
00000150: 6337 043e 998e 17be 6ed6 6d3e 97ec f93c
00000160: be6a cd3d 61f6 473d 26a1 563d c958 5abe
00000170: c4da acbd 319c a13d bd92 0fbe 5cc4 58bd
00000180: 87b1 9abd 7346 11be 488f c4bd d5b9 513e
00000190: f7f3 0cbd a568 2ebd a28e 393e b600 c5bd
000001a0: ca72 333c 6ede 333e ad78 4cbe 528f 0abd
000001b0: 31bf f2bc 0971 b93e f013 babd d780 f53d
000001c0: 4c8c 313e ac9d 2bbe 7254 24be 82f0 cd3b
000001d0: f72d a83d 9347 22bd e9ce 823c 276b 2a3d
000001e0: 1f52 bdbc 3956 07be ab96 06be 6ff9 d6bd
000001f0: 3e2d 2a3e f553 633d d94d 0dbe 1bb3 d03d
00000200: 5317 d1bc abd8 21bd 11bf 093e 9bb8 ecbd
00000210: caa0 cabd 80d1 33be e5e2 3dbd 504f 3d3e
00000220: f9d7 c43d d74a 2fbe b80e 933d cf7d 17bd
00000230: d35d 60be e295 113e ee2f 1ebe a012 88bd
00000240: 61f3 1fbe 09d5 b7bd 068f 25be 0fea 5b3d
00000250: 8e01 3c3b c62a 8a3e 1d3f 43be cf18 9a3e
00000260: 699a 46bd 5904 8fbe 213e 86bc e415 d33a
00000270: b538 8a3c 95b0 463e dfef 563e 1f24 a83c
00000280: fb67 f2bd d2ce 16be 152a 353e fa21 1d3e
00000290: 1ec7 2ebc 8bd2 d53d 3bdd 6f3e aec3 9abd
000002a0: 42d0 603e 083f 0d3e b818 c63d 97c8 b43d
000002b0: f9d8 b1bb 7400 77bd 40d2 8d3c fdc3 12be
000002c0: b3e8 613d 8337 83be 6536 083d 2df1 15be
000002d0: f670 1a3d 5195 733e 58d8 1f3e 0856 e33d
000002e0: 8468 403e 71ab 143e c617 a9bd c6e8 5c3d
000002f0: 035b 413d adce d7bc dead 0bbe f331 993d
00000300: 8363 7bbe 8fff e73c 7f8b 91bd e8eb 37bc
00000310: cd25 d7bd e7a0 72be 58cb 05be 2322 65bd
00000320: 31cf bfbd b853 bfbd 6d81 55be 1439 d93b
00000330: f5ce 40be 8847 0c3e f17f 7fbe 6d0a 3d3d
00000340: 97af ec3d f9af 1cbe e439 ab3c 110e cd3c
00000350: dc9f 8dbd 31f0 433e c00c d0bd ec97 07be
00000360: dfcd 473d 60d5 593d 9462 70bd ce3b 833d
00000370: ef18 b1bd adbe f6bd 0ba4 54bd 5609 10bd
00000380: 3a12 843e 5b16 5dbe a126 933c a96b 80be
00000390: b780 04be 8649 65bd 74f3 163e 8258 113e
000003a0: e3ce 393d 0a2e 093e ce2e 333d be82 1abe
000003b0: 6f72 62be 0584 a13d 66cf 283e a61c dabd
000003c0: d2a6 293d ae48 783d 953f 193e d90f a1bc
000003d0: 07c3 f5bd 252b 8b3d 2c0e 5abe ba55 8fbd
000003e0: 1f12 523d 88d6 b63c 2864 63bd 0b92 ff3d
000003f0: 2e10 533e 0ea9 ad3c c7d4 113e c150 e6bd
-0.076649815 0.15721649 0.13592152 -0.09414866 0.041268226 -0.09428509 0.08125703 0.22072363
0.22833888 -0.0018403099 -0.17625523 -0.165995 0.055810247 -0.11815446 0.25727394 -0.04795927
-0.103269964 0.18267722 0.17743018 -0.19136788 0.09029336 -0.12039257 -0.005479222 0.11616299
-0.16664723 -0.031754516 -0.109039694 0.19736953 0.24603647 0.20159473 -0.09252831 0.32069895
-0.30337054 -0.14444548 0.22261776 0.07116841 -0.09521055 -0.19632864 0.25701493 0.061926294
-0.026320592 0.20428036 0.055830993 -0.20875274 0.029124739 0.08158659 -0.18760231 -0.019142753
-0.021442367 -0.16786562 0.08136253 0.09033754 -0.13519399 -0.038115818 -0.12391856 0.050364915
0.0037669488 -0.02563997 -0.1660535 0.17502551 -0.16221927 -0.18696032 0.21049646 -0.082868524
0.014473618 0.2050154 0.06203083 -0.18280603 -0.19634196 0.23861703 -0.10122409 0.0008130959
0.19562443 0.019036407 0.06268878 0.08216268 0.13910183 0.18619926 -0.17427512 -0.03408859
0.12416908 0.016149852 0.007313986 0.30795422 0.12911753 -0.1480049 0.2322633 0.030508323
0.10030125 0.04881895 0.052399777 -0.21322931 -0.08440164 0.07891119 -0.1402082 -0.052921638
-0.07553392 -0.1418703 -0.09597641 0.20481046 -0.03441235 -0.042580266 0.18120816 -0.09619276
0.010952661 0.17565319 -0.19967909 -0.033828087 -0.029632183 0.3621905 -0.09085834 0.11987465
0.17338675 -0.16759366 -0.16047838 0.0062847743 0.08211892 -0.03961904 0.015967803 0.041606095
-0.023110447 -0.13216485 -0.13143413 -0.104967944 0.16618821 0.05549999 -0.13799228 0.10190412
-0.025523817 -0.03951327 0.13451792 -0.11558648 -0.09893949 -0.17560387 -0.04635896 0.18487287
0.09611506 -0.17118393 0.07180542 -0.036985215 -0.21910791 0.14217332 -0.15447971 -0.066441774
-0.15620185 -0.0897618 -0.1616784 0.053690013 0.002868745 0.2698576 -0.19067045 0.30097052
-0.0484871 -0.27933004 -0.016387047 0.0016104546 0.016872743 0.19403298 0.20989941 0.020525036
-0.11836239 -0.14727333 0.17691834 0.15344992 -0.01066759 0.104405485 0.23424236 -0.07556854
0.21954444 0.13793576 0.096726835 0.08827322 -0.0054274765 -0.060303167 0.01731217 -0.14332576
0.05515356 -0.2562829 0.033255 -0.14642783 0.037705384 0.23787428 0.15609872 0.111003935
0.1878987 0.14518525 -0.082564875 0.053932928 0.047205936 -0.026343668 -0.13640544 0.0748023
-0.2454968 0.028320102 -0.07106685 -0.011225678 -0.10505257 -0.23694192 -0.1306585 -0.05594076
-0.093656905 -0.0934214 -0.20850153 0.0066291187 -0.18828948 0.13699162 -0.2495115 0.04615252
0.115569286 -0.15301503 0.020901628 0.025031121 -0.069152564 0.19134595 -0.10158682 -0.13241547
0.04878032 0.053182006 -0.05868776 0.06407891 -0.08647334 -0.12048087 -0.051914256 -0.035165153
0.25795156 -0.21590559 0.017962756 -0.25082138 -0.12939726 -0.05597832 0.14741307 0.1419392
0.04536332 0.13396469 0.04374581 -0.15088937 -0.22113965 0.07886509 0.16485366 -0.106499955
0.041418858 0.060616188 0.14965661 -0.019660877 -0.12000089 0.067953385 -0.21294469 -0.06998773
0.051286813 0.022319093 -0.05551544 0.12479027 0.20611641 0.021198776 0.14241324 -0.11245871
